deep_q_learning/dqn_per/Notebook/checkpoint.pth (torch_old, 20939 bytes, 6 tensors)

fc1.weight f4 [64, 8]
000000 bc 57 60 3e 57 3b 7f 3c df 46 08 c0 d3 a5 7e bf
       0.21908468 0.015578113 -2.1293256 -0.9947178
000010 87 98 d2 be 4b d9 b1 3e a4 a8 94 3e 17 f2 81 3e
       -0.41131994 0.34736094 0.29034913 0.25380012
000020 67 2a 86 3e 6c a2 6a 3e ea c6 b2 bd 07 49 95 3c
       0.26204225 0.22913522 -0.08729346 0.018223299
000030 71 1f 17 3f 58 75 18 bf df a6 62 bf 5a 5e 1c 3f
       0.5903235 -0.5955405 -0.88535875 0.6108147
000040 d4 9f 91 bb c3 b5 f6 3e 10 ab a5 be 59 e8 bd bf
       -0.004444102 0.48185548 -0.32357073 -1.4836532
000050 49 e7 42 3f 18 6d 5f 3f 51 8f e4 be 45 d5 8d 3e
       0.76134163 0.8727584 -0.44640592 0.27701774
000060 e1 7c 28 3d 50 e5 70 3e 55 a5 6a 3e 05 54 a7 bf
       0.04113472 0.23524976 0.22914632 -1.3072516
000070 74 fa 85 bf ba 35 47 be 5b 48 d3 3d ea b7 96 3e
       -1.0467057 -0.19454089 0.10316535 0.2943719
000080 28 d7 3a bf fb b4 a6 bf 36 b1 09 bf f0 0f 92 3f
       -0.7298455 -1.3023981 -0.5378603 1.1411114
000090 c3 e2 50 3f bd d4 21 3f 80 78 81 3d 96 eb c2 3e
       0.8159601 0.6321524 0.06321812 0.38070363
0000a0 95 ab 88 bd ec 93 9c be 68 28 e6 3e d4 b0 1f bf
       -0.06673352 -0.30581605 0.44952703 -0.62379193
0000b0 e5 39 21 bf a0 99 a3 be 26 3a c3 3e f4 22 a7 3e
       -0.62978965 -0.31953144 0.381303 0.32643855
0000c0 0e 78 c6 be 4d 08 a0 be 6b 02 0b 3e 08 bb 5d 3b
       -0.3876347 -0.31256333 0.13575141 0.0033833403
0000d0 be b3 08 3e fd 7e 29 3f 76 91 b5 3e 9e 8e 06 be
       0.13349816 0.66209394 0.3546254 -0.13140342
0000e0 95 52 4c 3e bc f0 28 bf 09 c2 33 be 63 e6 a2 bf
       0.19953378 -0.6599233 -0.17554487 -1.2726558
0000f0 9c 3c 2f 3f 9a 4b 40 be 3c af 08 be 01 30 e8 3e
       0.6845186 -0.1877884 -0.13348097 0.45349124
000100 83 ae 6d 3e 76 81 11 3e 6e d0 c4 3e 2b 57 84 be
       0.23211102 0.14209542 0.3844027 -0.25847754
000110 c4 0d 8e 3e 3c 46 71 3f 6b bf 20 3e 0c 61 58 bf
       0.27744877 0.94247794 0.1569802 -0.8452308
000120 62 ea 03 3e 70 26 c9 3e 68 45 ee 3e af a6 1a 3f
       0.12882379 0.39287138 0.46537328 0.6041059
000130 29 c5 fd be 6d 4b 4f bf 3f 63 d1 bb 63 4c 28 be
       -0.49564484 -0.80974466 -0.006390005 -0.16435389
000140 fe 12 f1 be 68 6d db 3e 4c 87 89 3f f9 c8 a5 bf
       -0.47084802 0.42856908 1.0744414 -1.2951957
000150 bc 72 bb 3e 89 5e 3c 3f a4 5e 9b 3e 27 7c 01 be
       0.36610973 0.7358175 0.30345643 -0.12645017
000160 0e 95 2f 3e 57 2d 73 bf f3 b8 a1 bd e8 fa 16 bf
       0.17146704 -0.9499106 -0.078966044 -0.589766
000170 21 9d 01 bc f3 8e 42 3f 82 6a fd bc 39 28 4a bf
       -0.007910998 0.75999373 -0.030934576 -0.78967625
000180 7d 70 34 3d e5 ae 2b be cf e1 8e be 13 02 31 bf
       0.04405259 -0.16765936 -0.27906653 -0.6914379
000190 b8 fe 39 3f bf 24 5c 3f 33 63 d2 3e 82 03 ec bd
       0.72654295 0.8599357 0.41091308 -0.115241066
0001a0 a1 c4 7c bf 9f c3 28 bf 71 34 76 be 9a e1 11 bf
       -0.9873753 -0.65923494 -0.24043442 -0.56984866
0001b0 c1 56 ee 3e 9d 4c 5f 3d 0b 80 29 be f0 69 d0 3e
       0.46550563 0.054516423 -0.16552751 0.40705824
0001c0 5c 23 17 bf d8 d1 1b 3e 1f f4 61 3f e6 21 8a bf
       -0.5903833 0.15216768 0.88263124 -1.0791595
0001d0 1b 2e dd be 18 20 eb 3e bb c9 06 3f 67 12 97 3d
       -0.43199238 0.45922923 0.52651566 0.07376557
0001e0 6b 44 da bd 12 43 25 3f 8f 4e 82 be e7 d3 2c be
       -0.10657581 0.64555466 -0.2545056 -0.1687771
0001f0 36 bd 03 3d 39 12 a7 3e f5 9f 74 3e 73 0d ec be
       0.032162867 0.3263109 0.23889144 -0.4610401
000200 24 2f 54 be 0a 4a d7 be 38 e9 56 be 93 6d fb be
       -0.20721108 -0.42048675 -0.20987403 -0.49107036
000210 19 76 49 bf 20 32 38 be 7a ca 82 3e 77 8e 21 3e
       -0.7869583 -0.17987871 0.25545102 0.15777002
000220 e8 d2 3b be ec 26 bf be bf 27 6e be 2f 4b d5 3f
       -0.18342173 -0.37334383 -0.2325735 1.6663569
000230 95 28 2d 3f a5 8e 69 3f 2a 81 25 3f fc 9d e8 bd
       0.6764005 0.91233283 0.64650214 -0.11358258
000240 d3 03 49 bf e8 8b 29 be ca 5f 32 3f af 50 c2 be
       -0.7852146 -0.16557276 0.6967741 -0.37952182
000250 12 5c e1 be e9 71 cc 3d 44 bb 87 be 48 0e 90 be
       -0.44015557 0.09982664 -0.2651006 -0.28135896
000260 b7 c4 a8 bd 43 fe 20 3f 74 e6 8b 3f 94 2a 2f c0
       -0.082406454 0.6288797 1.0929704 -2.7369738
000270 67 5f b8 3f d9 86 ec 3e 76 60 4d bf 17 38 8f 3d
       1.4404114 0.4619663 -0.8022531 0.0699312
000280 02 6d 4f bf a8 7d 98 3c 4e 14 80 bf 5e 70 d4 be
       -0.8102571 0.018614605 -1.0006196 -0.4149198
000290 50 33 4e 3f f9 72 31 3c 19 85 7c be 21 75 aa bd
       0.80547047 0.010830634 -0.24660148 -0.08323122
0002a0 c9 73 0f bf a3 54 8f bf b4 a6 68 be 1a c6 f1 be
       -0.5603605 -1.1197704 -0.22719842 -0.47221452
0002b0 a4 f3 0d 3f 8c 1a 0f 3e e3 63 b7 be 9a cb eb 3d
       0.5544989 0.1397497 -0.35818395 0.11513443
0002c0 a7 47 29 be a3 ee a9 bf 32 87 40 3f 41 45 88 bf
       -0.1653124 -1.3275951 0.7520629 -1.0646135
0002d0 ee 1a 2c bf 85 c4 2a 3c 94 da a0 3e 66 97 b0 3c
       -0.6722859 0.0104228305 0.31416762 0.021556567
0002e0 e0 a5 3d 3f af f3 e0 be de 00 29 3f ab 4b 17 3f
       0.7408123 -0.43935916 0.6601695 0.59099835
0002f0 98 9c c4 be e9 02 0f be e2 14 0a 3f b8 38 0b 3f
       -0.38400722 -0.13965954 0.53938115 0.5438342
000300 30 84 8e bf fc d6 99 be 45 58 a3 bf bb 70 e5 be
       -1.113409 -0.30046833 -1.2761313 -0.4481257
000310 62 2e 51 bd 61 39 82 bc ca 81 57 bd 18 f3 9d be
       -0.051069625 -0.015896501 -0.05261401 -0.30849528
000320 c5 81 5c 3e d0 cb 88 be 6d 4a 2b bf d6 70 de be
       0.21533878 -0.26717997 -0.6691044 -0.43445462
000330 32 a9 a9 3e 8a b4 84 3f 31 08 b2 3e b7 52 ae 3c
       0.33136898 1.0367596 0.34771875 0.021279676
000340 55 44 fb 3d 86 a0 00 bf fa 1a 09 bd 4b 6f 1a bf
       0.12268893 -0.5024494 -0.033472992 -0.6032607
000350 d4 8c 03 bf e3 5e 0a be ef c0 07 3e d7 52 55 3e
       -0.5138676 -0.13512759 0.13257192 0.20832382
000360 ed 73 b8 bd 7a 93 95 bf 95 b3 30 3f 8c c2 a7 bf
       -0.09006486 -1.1685631 0.6902402 -1.3106246
000370 37 76 0b 3f 23 5d b1 3e 87 0a c8 3d 9f 68 9b 3e
       0.54477257 0.3464137 0.09767633 0.30353257
000380 8e 43 1f bf da 6f 30 3f f0 d3 1c c0 b8 e0 8f 3d
       -0.62212455 0.6892067 -2.4504356 0.070252836
000390 8b 25 3c 3d 76 dd 8c bd c9 38 25 3e cc db e5 3e
       0.04593424 -0.06878178 0.16134943 0.44894254
0003a0 66 62 3e bc d6 1a 1e 3f 28 fb 89 3f c3 c8 be bf
       -0.01162014 0.617597 1.0779772 -1.4905018
0003b0 87 fd e2 3e ed 6c d0 bd 92 37 a5 3d 3f 3d 34 3e
       0.4433405 -0.10177026 0.0806724 0.17601489
0003c0 5a 42 10 3d 35 9c db bd 36 ca 9c bd 1c f0 28 be
       0.035219528 -0.107231535 -0.07655756 -0.16497844
0003d0 db fd 57 40 3b b5 88 be 1c 51 2f 3e 98 d8 a0 3d
       3.374869 -0.26700768 0.17120785 0.07853812
0003e0 81 03 83 bd cf f2 ae 3d 07 0b 26 3f 76 d1 d1 be
       -0.06397153 0.08542406 0.64860576 -0.4098012
0003f0 67 bf aa be b3 18 3b 3f ce 12 7b bd a4 0c 3a bf
       -0.33349153 0.73084563 -0.06129723 -0.7267554

fc1.bias f4 [64]
000000 f3 ba cb bb 1b 02 ae be c7 36 13 3e 38 94 9c 3e
       -0.0062173544 -0.3398598 0.14376365 0.30581832
000010 34 69 a3 be ae 01 50 bd 42 ec e4 3e 29 75 85 be
       -0.319162 -0.050782852 0.447115 -0.2606595
000020 a7 42 6c be 57 94 2d 3e 09 e7 da 3c ac 4d b8 3d
       -0.23072301 0.16951118 0.026721494 0.0899919
000030 09 48 fb be 96 88 8d be f4 57 e8 3e 06 16 cd 3e
       -0.49078396 -0.2764327 0.45379603 0.40055865
000040 33 41 d9 3e bf 84 07 bf d9 6c 6c 3f 44 b6 a2 3e
       0.42432556 -0.5293693 0.9235359 0.31779683
000050 49 85 11 bf b0 a2 02 bf e7 bd ba be 81 5a e7 be
       -0.56844 -0.5102949 -0.3647301 -0.45186237
000060 f1 6b 03 3d 8f e7 d5 be c8 0a 41 3e 8a bf cc be
       0.032085363 -0.41778228 0.18851769 -0.39989883
000070 e1 e4 7d 3e 04 eb 81 3e 28 49 55 3d 14 5e ab 3d
       0.24794342 0.25374615 0.05207172 0.08367553
000080 6c 40 ad be cb 06 ec 3e 74 d7 17 bf a0 27 cc 3e
       -0.33838212 0.46098933 -0.5931313 0.3987398
000090 75 f2 a1 be 48 f8 45 3d 97 be ab be 56 82 39 3d
       -0.31630293 0.048332483 -0.33543846 0.045290314
0000a0 18 50 dd 3e e2 87 7d be 98 22 9f 3e 8f e4 89 3e
       0.4322517 -0.24758866 0.3108108 0.2693219
0000b0 5e ea 9a bb 43 34 9f be e8 c9 69 3f 0f 64 24 be
       -0.004727646 -0.3109456 0.9132371 -0.16053794
0000c0 07 d1 ff bd 77 1f 8d be ae df 44 3e 5f cd d2 3e
       -0.12491041 -0.27563068 0.19225952 0.4117231
0000d0 7c ff 9d bc a6 1a 65 3e 50 c4 c9 be d4 f6 ca 3e
       -0.019286864 0.22373447 -0.39407587 0.3964144
0000e0 e2 98 ac 3e 1a e9 c2 3e 90 ac ba 3e 48 16 0b 3c
       0.3371039 0.38068467 0.3645978 0.008489199
0000f0 28 08 c8 be 7a a4 5c be 18 de 86 3e 9e db 1c 3f
       -0.39068723 -0.21547118 0.2634132 0.6127261

fc2.weight f4 [64, 64]
000000 97 ca 50 bf de c4 43 3f 09 2e 7b be e4 cc d2 3e
       -0.8155913 0.7647227 -0.2452928 0.41171944
000010 86 73 9e bc da ca 9e 3d e6 26 98 3e c1 14 8c be
       -0.019342195 0.077535346 0.29717177 -0.27359584
000020 72 6c c5 3e 17 d1 97 3e 99 af 38 3d 80 07 4d 3e
       0.385593 0.2965171 0.045089338 0.20022392
000030 8d cd 5c 3f 93 30 3f 3e 02 f0 cf 3d df af 02 bf
       0.86251146 0.18670873 0.101532 -0.5104961
000040 1d 7d 9c 3e b6 80 9d 3f fc 2a 88 3d 40 3b 9e 3e
       0.30564204 1.2304904 0.066488236 0.3090458
000050 ef c7 ec bd 24 e1 c1 3e 63 65 90 3f 80 4a 7c 3f
       -0.11561572 0.3786708 1.1280941 0.9855118
000060 5e b4 23 3f bd 1a d5 3e e2 e8 ac 3e 8e 48 0f 3f
       0.63947093 0.41621962 0.33771425 0.55970085
000070 c1 6c ba 3e ac 7a c1 3d 43 06 b3 bf 9d f1 bd 3e
       0.36411098 0.09447226 -1.3986286 0.370984
000080 c8 f2 03 3e 8c a9 32 be 6e f9 b3 3e a9 47 89 be
       0.12885582 -0.1744749 0.35151237 -0.26812485
000090 53 90 b3 3e bf 66 0c be 30 9d 35 3d 6e d9 7b be
       0.35071048 -0.1371107 0.04433936 -0.24594662
0000a0 2c 8e 54 bb 82 04 13 3e 48 ec 14 3f 47 3c 35 be
       -0.0032433374 0.14357188 0.58173037 -0.17698775
0000b0 0d 3a d1 be f1 be 00 3f 24 3c 81 be 64 69 9a bd
       -0.40864602 0.50291353 -0.25241196 -0.07539633
0000c0 fd 02 3e 3f a5 9a 6c 3e 39 b2 03 3f aa 7e da bd
       0.7422331 0.23105867 0.5144382 -0.106686905
0000d0 4b 7a ef bf 6a b9 01 bf 89 19 a6 3f 27 09 05 c0
       -1.8709196 -0.50673544 1.2976543 -2.0786836
0000e0 a5 a9 14 bf 33 1f 1b bf 85 93 86 3e 44 e2 cc bd
       -0.58071357 -0.6059448 0.26284423 -0.10004094
0000f0 85 59 97 3e 1c 5c c6 3e 95 0c 83 3d 66 7f 8a 3c
       0.29560485 0.3874215 0.06398884 0.016906451
000100 59 ed 2c bf 54 75 ce 3e 7d 5d d9 3d 30 05 3d 3e
       -0.67549664 0.4032389 0.106135346 0.1845901
000110 ec 23 82 3e de e6 26 3e b1 aa fe 3e e7 84 09 3e
       0.2541803 0.16299006 0.49739602 0.13429604
000120 8d 0a 18 3f 9f c2 87 3e b1 e4 96 be bc 4c 40 3e
       0.593911 0.26515672 -0.29471353 0.18779272
000130 ff db 03 3f fa 19 a4 3e 91 b5 45 be 30 67 57 be
       0.5150756 0.3205107 -0.19307543 -0.21035457
000140 d4 91 d9 3e dc 9b 3b 3f ae 12 10 bd 1b 7c 43 3e
       0.4249407 0.732847 -0.035174064 0.19090311
000150 06 73 f0 3e 86 26 29 3f 76 01 88 3f 4a 59 6f 3e
       0.46962756 0.6607441 1.0625446 0.23373905
000160 8f 79 9b 3e 9b 8f a6 3e 17 5c 69 3e fc d9 63 3e
       0.3036618 0.32531437 0.22789036 0.22251123
000170 ae 9d 7b 3e cc 17 5a 3d 74 2d 66 bf b1 86 3a 3f
       0.24571869 0.05324535 -0.89913106 0.7286177
000180 d0 ef d3 3e 98 07 87 3e d0 5e 49 3f ee f6 80 3e
       0.413939 0.2637298 0.786603 0.25188392
000190 03 c9 70 3f 2d 12 95 3d ca 4f af 3d 90 18 8f bf
       0.9405672 0.072788574 0.085601404 -1.1179371
0001a0 ea 0d 80 3e eb 98 66 bc 7a 6b d9 3e d9 c4 82 be
       0.25010616 -0.014074544 0.4246481 -0.25540808
0001b0 95 29 3a 3e d1 d3 ad 3e 2f 78 15 3d e3 01 af 3d
       0.18179925 0.33950666 0.03649157 0.08545282
0001c0 b0 6c 82 3f aa 9c 56 3f 5e 5b 7e 3f 4d 49 33 3d
       1.0189419 0.838328 0.99358165 0.043771077
0001d0 37 4e 9c bf 51 ff 1a bf 1c ba a7 3f e3 fa 8b bf
       -1.2211369 -0.6054583 1.3103671 -1.093594
0001e0 75 47 6c be 7a 84 ff be d5 52 4f 3e ba 43 d3 be
       -0.23074134 -0.4990576 0.20246442 -0.4126261
0001f0 4b 70 3d 3e 7a db f4 3e cc 7c 53 bc ea d4 e4 3d
       0.18499868 0.47823697 -0.012908172 0.11173423
000200 26 3f d2 3c ae 9d 98 3c d6 2b f8 3e d6 18 06 3f
       0.025664877 0.018629875 0.48470944 0.52381647
000210 a2 43 22 3e 5c f9 e3 3e 07 e7 6e 3e 6d 17 42 3f
       0.15846112 0.44526184 0.23330317 0.75816995
000220 25 bc 28 bd 06 d2 39 bd de 39 e6 3e 80 cd 67 3e
       -0.041195054 -0.04536631 0.44966024 0.22636986
000230 f4 46 0c 3f f1 bd d4 3e 5e f2 11 3d a4 17 4a bf
       0.54795766 0.41551164 0.03563153 -0.7894232
000240 e9 a5 db 3e da 86 9d 3e e7 a4 21 bf 31 cd ed 3e
       0.42900017 0.30766946 -0.63142246 0.4644561
000250 09 4d e4 3d 32 fa 5d 3f 60 63 37 3f 14 81 87 3e
       0.11147506 0.8670989 0.7163601 0.26465666
000260 97 0a 51 bd 17 4b 81 3e 9f fd 2d 3f 86 eb 77 3f
       -0.05103549 0.25252602 0.6796512 0.96843755
000270 9b b6 d4 bd 1d 73 92 3d b3 a1 c0 3d 49 d1 2b 3e
       -0.10386392 0.07150862 0.09405842 0.16779055
000280 c8 94 9e 3d 24 ac 95 bd 2f 13 32 3f 92 d5 40 be
       0.077432215 -0.07308224 0.6956052 -0.1883147
000290 62 5c 6b 3f 72 25 10 bf cc f7 ca 3d d7 cb 2a bf
       0.9193784 -0.56307137 0.09910545 -0.66717285
0002a0 1a 91 a4 bc 10 9a 51 3f 8b 77 ec 3b 42 a1 b0 bf
       -0.020088721 0.81875706 0.007216399 -1.3799212
0002b0 0b 38 d8 3d 50 f2 01 3f 99 79 9e bf 2c 9e 92 bd
       0.10557564 0.50760365 -1.2380859 -0.07159075
0002c0 1b 82 e9 3e 72 7c b9 3d f0 fb 53 be 6a f1 0d 3e
       0.45607075 0.09056939 -0.20701575 0.13861623
0002d0 81 c8 d1 bf ad 69 cb 3e db 69 3a 3f 18 d6 00 bf
       -1.6389314 0.39729062 0.7281777 -0.5032668
0002e0 34 39 8d 3d e3 e2 87 bf 54 0b 2b 3c 9a 1c 11 3f
       0.06895676 -1.0616115 0.010439713 0.5668427
0002f0 20 3f 24 3e a4 05 3c be 09 31 b2 3d d4 71 b5 3d
       0.16039705 -0.18361527 0.08700759 0.088596016
000300 83 e6 4d bf 5c 23 1a 3f 1a c9 f7 3d 88 86 ff 3c
       -0.8042986 0.60210204 0.12098904 0.03119208
000310 65 40 fb 3e 62 ba 4b 3e 47 b4 25 3f f1 51 43 3e
       0.49072567 0.19895318 0.64728206 0.19074227
000320 dd a8 23 3f 46 d9 74 3e 46 9e 34 be de d3 d5 3b
       0.6392954 0.23911008 -0.17638502 0.0065255007
000330 8b 69 a8 3e 8d 2a 99 3e 1c 09 77 bd e8 c2 d5 be
       0.32893023 0.29915276 -0.06031142 -0.41750264
000340 62 12 9d 3e 11 31 58 3f 3a 15 48 be 81 26 7e 3e
       0.30678087 0.8444987 -0.19539347 0.24819376
000350 7a d3 af 3e 6a 67 11 3f b3 d8 8c 3f 9a 40 e2 3e
       0.3434103 0.5679842 1.1003631 0.44189912
000360 d1 ad e2 3e ab 50 fc 3e 47 40 33 3e d6 ef 1f 3f
       0.44273236 0.49280295 0.17504989 0.62475336
000370 a4 c3 68 3e 3e d0 df bc da d4 37 bf 63 fb 13 3f
       0.22730881 -0.027320977 -0.7180916 0.5780546
000380 4f cb dc 3e 70 92 5e 3d e3 b7 1b 3f 0a 73 80 bd
       0.43123862 0.054338872 0.60827464 -0.06271942
000390 0b 40 ca 3e df 72 eb 3e 06 90 fe 3d 83 e0 3c bf
       0.39501986 0.45986077 0.12429814 -0.7378008
0003a0 19 fb 27 3e 75 92 32 3e 1c d3 a5 3e 92 a6 8c be
       0.1640438 0.17438681 0.32387626 -0.27470833
0003b0 35 22 85 3e 28 b1 54 3e cb ad a8 be 49 21 d2 3e
       0.2600266 0.20770705 -0.32945094 0.4104102
0003c0 f4 2b b1 3e a5 a3 1e 3f a4 ab 90 3e a4 dd 8d 3d
       0.34603846 0.6196845 0.2825595 0.0692704
0003d0 c6 30 8b bf 9a 74 ca be 57 35 a9 3f d9 4e 42 bf
       -1.087426 -0.39542085 1.3219403 -0.7590156
0003e0 de 6d 1b be 78 03 91 be 9b 61 5c 3e ff 8e ea be
       -0.1517863 -0.2832296 0.21521609 -0.45812222
0003f0 dd a6 b7 3e c5 c6 df 3e dd 0c 03 3e 5d 3f 82 3e
       0.35869494 0.43706337 0.12797876 0.25438967

fc2.bias f4 [64]
000000 8a 7e 82 bd 52 d8 97 bd 7b 4a 3f bf 68 25 4f 3e
       -0.06371792 -0.07414307 -0.74723023 0.20229113
000010 fe bc 0b 3e 49 1a c1 3d e0 49 f1 bc b2 7a 37 3e
       0.13646314 0.094288416 -0.029454172 0.17917898
000020 0e fa bb 3e ec 4c cf bd bd b3 29 3d 21 8e 05 be
       0.36714214 -0.101220936 0.041431177 -0.13042499
000030 45 f3 e4 be e2 b4 99 3d 1c cb 91 3e 98 82 10 3f
       -0.4471685 0.07505204 0.28475273 0.5644927
000040 24 0e 32 3e d6 f7 68 3e 48 17 19 be aa 12 8b 3d
       0.17388207 0.22750792 -0.14950287 0.06790669
000050 c7 2f 66 3d f4 26 bf 3d bb be 4b 3c 70 35 93 bd
       0.056197908 0.093336016 0.01243561 -0.07187927
000060 66 57 1f 3d e6 db 81 3c ad 85 37 3e b8 05 17 3e
       0.03890171 0.015851926 0.17922087 0.14748275
000070 ff 17 10 3e 0b 01 e5 3d be db a5 be 48 56 84 3e
       0.14071654 0.111818396 -0.32394212 0.25847077
000080 52 44 0a be 9c bb 0e 3e d1 f6 49 3d 07 52 f9 bd
       -0.13502625 0.13938755 0.049307648 -0.121738486
000090 6a ae 30 3e 05 5a 1a bf 54 73 c2 3e 8d 24 05 3f
       0.17254034 -0.6029361 0.37978613 0.520089
0000a0 18 e3 f7 3d 52 d2 e0 3c c1 be 49 3c 0c c2 a5 3e
       0.121038616 0.027444039 0.012313546 0.3237461
0000b0 90 1a 16 bf b3 c8 84 3d 00 7e 08 bd 5c 79 31 bf
       -0.5863428 0.06483593 -0.033323288 -0.69325805
0000c0 fa 77 03 3e 35 76 b7 be 46 2b 91 3d b5 a9 dc 3c
       0.12838736 -0.35832372 0.07088332 0.026936391
0000d0 c5 3b 7d 3e e7 a0 cb 3d dd 1e 0d be 3c 1d 28 3e
       0.24729832 0.09942799 -0.13781305 0.16417402
0000e0 11 b5 0f 3e 77 6d 27 bf de 1e d2 bd 82 b9 e4 3d
       0.14033915 -0.65401405 -0.10259794 0.11168195
0000f0 b2 f6 7d 3e 26 5d d0 be 61 6a 0a 3f ac b9 16 3e
       0.24801138 -0.40696067 0.5406857 0.14719266

fc3.weight f4 [4, 64]
000000 7c bb a2 bf 7a 8e 08 bf 01 5b 44 bf 7d 36 fd be
       -1.2713466 -0.533424 -0.7670136 -0.49455634
000010 7b 6f fc be bf 9b f6 be 03 0c 5e 3d fc 78 f8 3e
       -0.49303803 -0.481657 0.054210674 0.48529804
000020 80 cd 06 40 4c 0a 1d 3d a0 54 ed be 16 36 93 bd
       2.1062927 0.038339898 -0.46353626 -0.071880504
000030 2d 7b 4a bf 15 37 06 bf 65 f1 18 40 3a 27 a6 3f
       -0.790942 -0.524278 2.3897336 1.2980721
000040 ed 12 84 3f 61 2d 87 3f f9 ec 20 bf 39 3c f5 be
       1.0318276 1.0560724 -0.6286159 -0.4789751
000050 3a e4 d3 be 6c ea 11 bf ba 0a cc 3f f4 52 cc be
       -0.4138506 -0.56998324 1.5940773 -0.39907038
000060 55 98 d3 be 64 88 1f 40 2c 07 03 be 72 cc a4 bf
       -0.41327158 2.4926996 -0.12795705 -1.2874892
000070 20 2d 00 bf 74 05 0d bf 71 6c 5c bf d6 74 1b 40
       -0.50068855 -0.55086446 -0.8610297 2.429006
000080 3e bc 09 bf bd 4f cd be 63 ec d5 be 68 40 dc bd
       -0.5380286 -0.40099898 -0.4178191 -0.10754472
000090 e8 f3 76 bf 98 a8 04 bf 1f a6 83 3f ec 28 56 be
       -0.9646592 -0.51819754 1.0285071 -0.20914048
0000a0 12 9a d9 be 03 49 03 bf e3 56 fa be 79 94 87 3f
       -0.4250036 -0.5128328 -0.48894414 1.0592185
0000b0 03 e5 85 bf cc f3 05 bd c1 90 93 3f a9 2f 48 bf
       -1.0460514 -0.032703206 1.152855 -0.78197724
0000c0 c7 2b 0b bf f7 d5 80 3e bb 34 cd be 27 67 b1 bf
       -0.54363674 0.25163242 -0.40079293 -1.3859605
0000d0 15 8f a1 3f 8c 53 68 bf ec 36 9a be c8 a8 00 40
       1.262179 -0.9075248 -0.30120027 2.0103016
0000e0 f7 dc 65 bf 00 95 25 bf 65 8b f3 3b ba ab cc be
       -0.8979029 -0.6468048 0.0074323886 -0.39974767
0000f0 f8 90 09 3f af 5a c5 be 9e 72 09 40 ee 22 f2 be
       0.5373683 -0.3854575 2.1476207 -0.47292274
000100 4a a4 cb be 68 07 06 bf bf df 20 bf 93 a0 eb be
       -0.3977378 -0.5235505 -0.6284141 -0.46020946
000110 66 ab 21 bf 06 01 e4 be 4e fe 66 bc 99 cc 8a 3f
       -0.6315216 -0.4453203 -0.014098717 1.0843688
000120 d7 55 f9 3f e8 72 83 bd 66 da e7 be fc 9b 35 bd
       1.9479321 -0.06418401 -0.45283812 -0.04433821
000130 b5 48 de be 18 55 a7 be 4a 3c 1e 40 fb 77 89 3f
       -0.43414846 -0.3268211 2.4724298 1.073974
000140 45 6f 02 3f 18 3d 95 3f df ac ac be 0e 7c ee be
       0.50951034 1.1659269 -0.3372564 -0.4657902
000150 fd 89 bd be c3 5f 99 bf b8 a6 d3 3f 85 31 5a bf
       -0.3701934 -1.1982349 1.6535254 -0.8523181
000160 a1 46 f5 be 49 c6 19 40 64 a3 b0 be a8 af 93 bf
       -0.47905448 2.4027274 -0.34499657 -1.1537981
000170 69 7c f3 be a5 3d ec be fa 05 64 bf 29 c3 29 40
       -0.47555855 -0.4614078 -0.8907162 2.6525366
000180 a2 53 49 be e3 d2 13 bf fe 6d 63 be cc 87 ff 3d
       -0.1966081 -0.5774366 -0.22209927 0.12477073
000190 18 94 7f bf 9f d7 39 bf b8 e3 94 3f f0 1a b8 3e
       -0.9983535 -0.72594637 1.1631994 0.35958052
0001a0 b7 f6 1a bf d9 e9 3c bf 75 0f 0d bf 1c 73 b9 3f
       -0.60532707 -0.73794323 -0.5510171 1.4488254
0001b0 83 0c 4b bf 6e ee f4 3c fe 6a 05 40 0f 8c 1f bf
       -0.79315966 0.029898848 2.0846553 -0.6232309
0001c0 1e 3b e4 be 6c d6 06 bf e0 23 d6 be c8 33 a8 bf
       -0.44576353 -0.5267093 -0.41824245 -1.3140802
0001d0 c2 a1 84 3f 5a da 86 bf 13 0d 72 be 8a 71 f5 3f
       1.0361865 -1.0535386 -0.236378 1.9175274
0001e0 cb ab 22 bf 0b c2 05 bf c7 30 05 3c cc be 05 bf
       -0.63543385 -0.5224921 0.008129305 -0.5224426
0001f0 10 06 86 be 8f 4a 3a be 4a 18 08 40 5d 48 de be
       -0.261765 -0.18192504 2.1264825 -0.43414584
000200 cd 4d 22 bf 15 c1 4e bf fd b6 71 bf 16 da 71 be
       -0.63399965 -0.8076337 -0.9441984 -0.2361835
000210 28 21 4a 3d 4b f5 8d be e9 2f 16 3d a0 7c 9b 3f
       0.049348027 -0.27726206 0.036666784 1.2147408
000220 50 c2 20 40 aa dd 98 3d 44 7f c8 be 78 ef 94 3c
       2.51186 0.07464154 -0.39159596 0.018180594
000230 78 6a 00 bf 75 b9 40 bf e8 d7 ca 3f 84 d6 85 3f
       -0.5016246 -0.75282985 1.5847139 1.045609
000240 7c e2 b3 3f 5c 09 0d 40 e7 e1 b9 bf 5b 00 2b bf
       1.4053493 2.2036963 -1.4522065 -0.6679742
000250 4a a3 de bd 77 54 a2 ba f8 4f b8 3f 45 0e 83 3f
       -0.10870989 -0.0012384792 1.4399405 1.023873
000260 a9 b1 0f bf 1f 8b ad 3f d6 0f 58 bf da 0e 92 bf
       -0.5613046 1.3558081 -0.84399164 -1.1410782
000270 aa a6 1a bf b6 e1 a3 3d 63 f6 8f bf ae 82 1a 40
       -0.6041056 0.08002035 -1.1247066 2.414226
000280 7f d5 4d bd 4a b2 11 bf 0f 48 3f 3e d4 44 0e bd
       -0.050252434 -0.5691267 0.18679832 -0.03473361
000290 22 c7 96 be ea a7 4c bf e0 48 8c 3f 79 5e 53 bf
       -0.294488 -0.79943717 1.095974 -0.8256603
0002a0 02 dc 1c bf 38 80 54 bf 47 d4 42 bf ef 15 bc 3f
       -0.61273205 -0.83008146 -0.7610516 1.4694194
0002b0 98 db 26 bf 49 5b e5 bc 02 b2 9e 3d 27 68 7c bf
       -0.65178823 -0.02799763 0.07748796 -0.98596424
0002c0 f6 77 91 be 92 57 65 bf b3 4d 39 bf d7 2b 84 bf
       -0.28411835 -0.89586747 -0.72384185 -1.0325879
0002d0 ef 2a 35 3f 00 58 8b bf fe 2e ec be 38 1c 06 40
       0.70768636 -1.088623 -0.46129602 2.0954723
0002e0 3c ab c6 be 03 f6 6e bf 83 b5 71 3d 5c 59 80 be
       -0.38802516 -0.93344134 0.059010994 -0.25068176
0002f0 c9 a5 94 3f 4a 5e 18 bf fc 50 e3 3d 83 9e 0c bf
       1.1613094 -0.59518874 0.11099431 -0.5492937
000300 8f e7 42 bf 02 c6 c4 be b6 b0 2c bf f4 86 0f bf
       -0.7613458 -0.38432318 -0.6745714 -0.560653
000310 8c e5 de be 84 0f c6 be c0 be 28 3d d7 8a f4 be
       -0.43534505 -0.38683712 0.04119754 -0.47762176
000320 1a 08 0f 40 f0 bc 33 bd fd 82 b1 be 80 12 23 bb
       2.2348695 -0.043881357 -0.3467025 -0.0024882853
000330 13 05 9a bf e0 b0 3b bf d3 63 21 40 b4 84 ae 3f
       -1.2032799 -0.73316765 2.5217178 1.3634248
000340 89 d0 5e 3f 53 98 95 3f 14 1b 7a be fd ae f7 be
       0.8703695 1.1687111 -0.24424392 -0.48375693
000350 54 25 a9 be 2c 26 d8 be 18 9e cc 3f f2 93 c7 3e
       -0.33036292 -0.42216623 1.5985746 0.3898006
000360 8c 8a d4 be 54 3b 25 40 47 4f 19 bf f1 f4 8b bf
       -0.41511953 2.581746 -0.5988659 -1.0934125
000370 d0 7a ee be 03 7b af be d9 42 aa be 90 fa 16 40
       -0.46578074 -0.34273538 -0.33254126 2.3590431
000380 bc d1 3e be ba 4b 62 be 7f a0 52 bf a4 61 9b bd
       -0.18634695 -0.220992 -0.8227615 -0.07586983
000390 35 f0 37 bf 7f 5c 52 bf 0a 0e 91 3f e4 dc 41 bf
       -0.718509 -0.8217239 1.1332409 -0.7572768
0003a0 66 63 d6 be 0b 6e 15 bf 61 f7 00 bf 09 ac 8e 3f
       -0.4187271 -0.5837104 -0.5037747 1.1146251
0003b0 37 ad e5 be 53 c0 cb bd b3 1d 2d 3f 5c ff 4e bf
       -0.44858715 -0.09948792 0.6762344 -0.808584
0003c0 8c 37 e7 be 2e 52 25 3d 21 93 18 bf b7 3d 97 bf
       -0.45159566 0.040361576 -0.595995 -1.1815709
0003d0 a4 ae 93 3f 70 d7 80 bf 71 e3 06 bf 1b fb 03 40
       1.1537671 -1.0065746 -0.526908 2.0622013
0003e0 74 62 83 be d6 60 77 bf f8 e4 00 3d 44 19 ec be
       -0.2566105 -0.96632135 0.03146836 -0.46113026
0003f0 d4 ce 55 3f 1a a4 d0 be 46 59 0b 40 b2 30 b6 be
       0.8351872 -0.407502 2.1773238 -0.35584027

fc3.bias f4 [4]
000000 dc f8 a3 bc 1f eb 25 3e 66 ee 0b 3e 9b 4b 57 3d
       -0.020016126 0.16202973 0.1366516 0.052562337
