deep_q_learning/dqn_per/Notebook/checkpoint.pth (torch_old, 21023 bytes, 6 tensors)

fc1.weight f4 [64, 8]
0	0x3e67e58f	0.22646163
1	0x3eb145f6	0.34623688
2	0xc028cb7d	-2.63742
3	0xbf9f8069	-1.2461063
4	0xbf3d05eb	-0.73837155
5	0x3e915270	0.28383207
6	0x3f3b2dbe	0.7311667
7	0xbf2a5cae	-0.6654767
8	0x3ea71f04	0.3264085
9	0x3f9bff22	1.2187235
10	0x3d282790	0.041053355
11	0x3d846933	0.06465378
12	0xbf4e41b6	-0.80569017
13	0x3ee6194b	0.44941172
14	0x3b99bee2	0.0046919445
15	0xbea5eec6	-0.32408732
16	0x3d2e454e	0.042546563
17	0x3e526a1f	0.20548294
18	0xbe9ac69b	-0.3022965
19	0xbf1f68fa	-0.62269557
20	0xbc535f00	-0.012901068
21	0x3e9f7cdc	0.31149948
22	0x3f0c05fd	0.5469664
23	0x3ebbff0e	0.3671803
24	0xbda6b5e8	-0.081401646
25	0x3e99bf33	0.30028686
26	0x3f42a901	0.7603913
27	0xbf427a5b	-0.7596795
28	0xbf337375	-0.7009805
29	0xbea76f39	-0.32702044
30	0xbe41e9cd	-0.18936844
31	0x3ebddc67	0.37082216
32	0xbef31a13	-0.4748083
33	0xbe735e56	-0.23766455
34	0xbdcbe1d5	-0.099551834
35	0xbf4ceed8	-0.80051947
36	0x3f0b4f08	0.5441747
37	0x3d5f9418	0.054584593
38	0x3e045f88	0.12927067
39	0x3f136ac1	0.5758477
40	0x3e3ca2a4	0.18421417
41	0x3caed6c5	0.021342644
42	0x3eea8614	0.45805418
43	0xbebe9627	-0.37223932
44	0xbec15a01	-0.3776398
45	0xbe88afa9	-0.26696518
46	0x3e6eacfe	0.23308179
47	0x3eaad492	0.33365303
48	0xbe44e4e1	-0.19227935
49	0x3d386b77	0.04502436
50	0xbe4534b7	-0.1925839
51	0x3d03b574	0.03215547
52	0x3f36bf30	0.7138548
53	0x3f8a0a52	1.07844
54	0x3e7b5c18	0.2454685
55	0xbf0274ae	-0.5095929
56	0xbf02d151	-0.5110064
57	0xbf95a039	-1.1689521
58	0xbee60782	-0.44927603
59	0xbf46e8d0	-0.77698994
60	0x3f3068f3	0.6891014
61	0x3e47c695	0.19509347
62	0x3e05ffec	0.13085908
63	0x3d14d500	0.036335945
64	0x3ecccc7f	0.39999768
65	0x3dae536e	0.08512007
66	0x3ee904ef	0.45511577
67	0xbf2304df	-0.6367931
68	0xbf0e4a2a	-0.55581915
69	0x3f232d39	0.6374088
70	0x3d6482b1	0.0557887
71	0xbfb97096	-1.4487484
72	0x3c9b84ba	0.018984187
73	0x3eb10c3c	0.34579647
74	0x3f221415	0.6331189
75	0x3f998a4b	1.1995329
76	0x3eeabd17	0.4584739
77	0xbf3e4748	-0.74327517
78	0x3e940a48	0.28914094
79	0xbecb63cc	-0.39724576
80	0xbf1791c9	-0.59206825
81	0x3e836c0a	0.25668365
82	0x3f330b29	0.69938904
83	0xbf41c9a9	-0.75698334
84	0x3ea45f23	0.32103834
85	0x3eff0d6b	0.49814925
86	0x3efd53f8	0.49478126
87	0xbcb8d9e2	-0.022564832
88	0xbec41705	-0.38298813
89	0xbf1f3ea6	-0.6220497
90	0xbedd9247	-0.43275663
91	0xbeb5b695	-0.35490862
92	0x3e43022b	0.19043796
93	0x3f1f6ecd	0.62278444
94	0xbf51185e	-0.81677806
95	0xbf541c36	-0.82855546
96	0x3e2922b2	0.16517141
97	0xbe134461	-0.14381553
98	0xbfa7aedd	-1.3100239
99	0xbea836d0	-0.3285432
100	0x3f364f33	0.712146
101	0x3e371998	0.17880857
102	0x3e08cb42	0.13358787
103	0x3e848f13	0.25890407
104	0xbf94a6b3	-1.1613373
105	0xbf8b9a24	-1.0906415
106	0x3b249ab0	0.0025116615
107	0xbebce8e8	-0.36896443
108	0x3f6bf570	0.9217138
109	0x3eb15063	0.34631643
110	0x3daf254c	0.08552036
111	0x3e6da224	0.23206383
112	0xbf08ca76	-0.5343393
113	0x3e827caa	0.25485736
114	0x3fa7e992	1.3118155
115	0xbf48eee7	-0.78489536
116	0xbea702c0	-0.32619286
117	0x3f09c78c	0.5382011
118	0x3edb9cad	0.42892972
119	0x3e4b3c42	0.19847205
120	0x3d2e6aa4	0.04258217
121	0x3d400351	0.046878163
122	0xbfdc2c6b	-1.7201055
123	0xbed0fe62	-0.4081908
124	0xbedac069	-0.42724922
125	0x3c397f04	0.011321787
126	0xbf7e1a8e	-0.9925927
127	0xbf1518c1	-0.58240896
128	0x3e0781bf	0.13233088
129	0xbe2fc129	-0.17163529
130	0x3f29bf37	0.66307396
131	0xbe647c9a	-0.22313157
132	0xbf2b7758	-0.6697898
133	0xbe80e11c	-0.25171745
134	0x3e9593d7	0.29214355
135	0x3d9d8b02	0.07692529
136	0xbef1b05b	-0.4720486
137	0x3dde3e51	0.1085173
138	0x3edd9d88	0.4328425
139	0x3f185ae2	0.59513676
140	0x3e83f0ad	0.2576956
141	0x3f1a0c66	0.6017517
142	0x3f4b0f54	0.79320264
143	0xbe8c3f9c	-0.2739228
144	0x3e2927b4	0.16519052
145	0xbe4f442d	-0.20240851
146	0x3f0e4247	0.5556988
147	0xbea39e21	-0.3195658
148	0xbebb84ac	-0.36624658
149	0xbf203e7d	-0.6259535
150	0xbeeb0318	-0.45900798
151	0x3e27cb73	0.16386203
152	0xbe89b4a6	-0.26895636
153	0x3cdd1641	0.02698815
154	0x3e279649	0.16365923
155	0xbf7bfaf5	-0.98429805
156	0x3f0ab9ac	0.5418956
157	0xbe2311a0	-0.15924692
158	0x3f07f69a	0.5311066
159	0xbc3be27e	-0.011467574
160	0xbe39bf44	-0.18139368
161	0xbf2100f2	-0.6289207
162	0xbf1d2013	-0.61377066
163	0xbf8df313	-1.1089805
164	0x3ee920dd	0.45532885
165	0x3f073626	0.52817
166	0xbf02de39	-0.51120335
167	0x3d8fc9be	0.07020901
168	0x3f1ad963	0.60487956
169	0xbfc46f76	-1.5346515
170	0x3f7f01d1	0.99612147
171	0xbec264f9	-0.3796766
172	0x3ee60987	0.44929144
173	0x3f011fed	0.5043934
174	0xbdddcfbe	-0.10830639
175	0x3e474463	0.19459681
176	0x3dfaa0d2	0.12237705
177	0xbf39a15a	-0.7251183
178	0x3fe31341	1.7740251
179	0x3f2a72f5	0.6658166
180	0xbf82da26	-1.0222824
181	0x3e876167	0.264415
182	0x3ea3f00f	0.32019088
183	0x3e7dc308	0.2478143
184	0x3f1a49d2	0.6026889
185	0xbdf2fb3b	-0.11864325
186	0x3f0f8b02	0.56071484
187	0xbe6433fd	-0.22285457
188	0x3c9279aa	0.01788028
189	0x3d931d74	0.07183352
190	0x3ec7184e	0.3888573
191	0x3f001514	0.5003216
192	0xbf5cab9b	-0.8619935
193	0xbf0789e4	-0.5294478
194	0xbf7ebbc2	-0.99505246
195	0xbeae9160	-0.34095287
196	0x3f5841a0	0.84475136
197	0x3e5bea25	0.21476038
198	0x3e591b4f	0.21201824
199	0xbd0f0c6c	-0.034923956
200	0xbdbe2895	-0.09285084
201	0xbdf0fad4	-0.11766592
202	0xbf98e25c	-1.1944079
203	0xbfdfb6e5	-1.747769
204	0x3f818a6f	1.0120372
205	0x3d87ecfc	0.06636998
206	0xbf10d376	-0.56572664
207	0x3e817486	0.25284213
208	0xbe5e4920	-0.21707582
209	0xbf10b53b	-0.56526536
210	0x3f816942	1.0110247
211	0xbf140db6	-0.5783342
212	0xbf697fcc	-0.9121063
213	0xbbc96cdd	-0.0061470107
214	0x3e56427d	0.20923801
215	0xbed0e89c	-0.40802467
216	0x3ea3da6a	0.32002574
217	0xbf90f519	-1.1324798
218	0x3e77bd90	0.24193406
219	0x407cc8d2	3.949757
220	0x3ea2c4e1	0.31790832
221	0x3f1112c6	0.5666927
222	0x3e09dd80	0.13463402
223	0x3ed5cf66	0.41759795
224	0xbfa19cce	-1.2625978
225	0x3f25a02d	0.64697534
226	0xbf7fae88	-0.9987569
227	0x3e2054dc	0.15657371
228	0xbe2a07a8	-0.16604483
229	0x3e3221df	0.17395733
230	0xbd48b1eb	-0.0489978
231	0xbd1e09e9	-0.03858367
232	0xbe86172c	-0.26189554
233	0x3f1e302e	0.61792266
234	0x3f84c8dc	1.0373797
235	0xbfd71952	-1.6804602
236	0xbe1415ce	-0.14461443
237	0xbf3cc9f8	-0.7374568
238	0xbe0b511f	-0.13605164
239	0x3ec0b44b	0.37637553
240	0xbcc2442f	-0.023714153
241	0xbc3011af	-0.010746404
242	0xbc014824	-0.007890735
243	0x3d1a83da	0.0377234
244	0x40570169	3.359461
245	0x3e02d39a	0.12776032
246	0xbe1c836d	-0.1528451
247	0xbdaa515b	-0.083162986
248	0xbf21e429	-0.6323877
249	0xbd889ada	-0.066701606
250	0xbdd4295d	-0.10359452
251	0x3e97e5cc	0.2966751
252	0xbdeee82f	-0.11665379
253	0x3f2aa952	0.6666461
254	0xbd17cb8d	-0.037059356
255	0xbf9bb1d6	-1.2163646

fc1.bias f4 [64]
0	0x3e9c4db8	0.30528045
1	0xbed32db9	-0.4124582
2	0x3ef841ba	0.48487645
3	0x3ecc5909	0.39911678
4	0xbe4a8c4d	-0.19780083
5	0xbe10fbff	-0.14158629
6	0x3e795923	0.24350409
7	0xbe8161f1	-0.25270036
8	0xbeb08ca1	-0.3448229
9	0x3f24d01f	0.6438007
10	0x3f21c3ed	0.63189584
11	0xbe67ade9	-0.22624935
12	0xbec6adb6	-0.38804406
13	0xbe819eb7	-0.25316402
14	0x3f45e86a	0.7730776
15	0xbc024c72	-0.007952796
16	0x3dd48f7b	0.10378929
17	0xbef76d21	-0.48325446
18	0x3f0bc561	0.5459805
19	0x3f5e0469	0.8672548
20	0xbecbd178	-0.3980825
21	0xbed38777	-0.4131429
22	0xbf0fda57	-0.56192535
23	0xbd8fae53	-0.070156716
24	0xbea4749c	-0.32120216
25	0xbcf5f455	-0.030023733
26	0xbebb592f	-0.3659148
27	0xbe86028f	-0.26173827
28	0x3d170fb6	0.036880217
29	0x3ea23c7f	0.3168678
30	0xbcfd53e9	-0.0309238
31	0xbef4a9dc	-0.47785842
32	0xbe300a69	-0.17191471
33	0x3e409078	0.1880511
34	0x3d6669f8	0.056253403
35	0xbd2d59e6	-0.042322062
36	0x3e82eb7c	0.25570285
37	0x3eb575c3	0.35441408
38	0xbeabbe97	-0.33543846
39	0x3886aeb0	6.422156e-05
40	0x3ea685e8	0.32524037
41	0xbf0294cd	-0.510083
42	0x3e5d849e	0.2163262
43	0x3f47dcd3	0.78071326
44	0x3dadb1a6	0.084811494
45	0x3e5b84fd	0.2143745
46	0x3f0d817c	0.552757
47	0xbee2b1c9	-0.44276264
48	0xbe186226	-0.1488119
49	0xbe1c1ad0	-0.15244603
50	0x3e841d8f	0.258038
51	0x3f19d8e9	0.60096604
52	0xbebe5a17	-0.37178108
53	0x3edc5077	0.4303014
54	0xbe85cc21	-0.261323
55	0xbd2ffe81	-0.042967323
56	0x3e96f6c1	0.29485133
57	0x3ea3e9d0	0.32014322
58	0x3ea9847a	0.33108884
59	0x3c08e7ac	0.008356016
60	0xbeb53efa	-0.3539961
61	0x3d1ae775	0.03781839
62	0xbeb5f3ec	-0.3553766
63	0x3e829f45	0.25512138

fc2.weight f4 [64, 64]
0	0xbf1170ae	-0.5681256
1	0xbf5e63e9	-0.868712
2	0xbe1cfc49	-0.15330614
3	0x3ef5d45c	0.4801358
4	0xbd4a7b8b	-0.049434226
5	0x3d2aec28	0.041729122
6	0xbf689cd4	-0.908643
7	0xbd847220	-0.0646708
8	0x3de05dbc	0.109553784
9	0xbf8e8a62	-1.1135981
10	0x3eee4aa0	0.4654131
11	0x3e5e4bc5	0.21708591
12	0xbf29dac6	-0.66349447
13	0x3e2efeba	0.17089358
14	0x3edb2be1	0.42806914
15	0x3e996585	0.29960266
16	0x3e53116e	0.20612118
17	0xbd7d8b17	-0.061900225
18	0x3e91cb26	0.28475302
19	0x3d58d5ee	0.052938394
20	0x3deaa12d	0.11456523
21	0x3f8939b2	1.0720732
22	0x4013d4be	2.3098598
23	0x3e679cd2	0.22618416
24	0xbf16e022	-0.5893575
25	0xbd4cafe1	-0.04997242
26	0x3f77a9a2	0.96743214
27	0x3f56a3ca	0.8384367
28	0x3eecebeb	0.4627374
29	0x3e0c0bd5	0.13676389
30	0xc0039ddd	-2.0565102
31	0xbde34391	-0.11096872
32	0xbdab67e3	-0.08369424
33	0xbd499b48	-0.049220353
34	0x3f03b03c	0.5144079
35	0xbf4ebf59	-0.80760723
36	0x3cda1637	0.026621921
37	0xbe0bfb89	-0.13670172
38	0x3d359d30	0.04433936
39	0xbf86cd6d	-1.0531441
40	0xbe192bc1	-0.14958097
41	0x3f20b57f	0.6277694
42	0x3ef062f1	0.46950486
43	0xbf09b540	-0.5379219
44	0xbee7a978	-0.45246482
45	0xbf472fc1	-0.7780724
46	0xbf82352a	-1.0172474
47	0xbe376b03	-0.17911915
48	0xbf9fb56e	-1.2477243
49	0xbed50b46	-0.41610163
50	0xbe0da613	-0.13832884
51	0x3ecd19fc	0.40058887
52	0x3cf4ec49	0.029897826
53	0xbf5aa6fc	-0.8541105
54	0x3f04931e	0.51786983
55	0x3e3632af	0.17792772
56	0x3e32acdc	0.17448753
57	0xbef7982d	-0.48358288
58	0xbe4b4a68	-0.19852602
59	0x3f183631	0.5945769
60	0xbeb92436	-0.3616044
61	0x3d2840cf	0.04107743
62	0x3f30e85d	0.6910456
63	0x3ecb8b91	0.39754918
64	0xbde03644	-0.1094785
65	0xbe98105a	-0.29699975
66	0xbce60da8	-0.028082684
67	0x3dec93fa	0.11551662
68	0x3c09ae07	0.008403308
69	0x3e1cd75d	0.1531653
70	0x3ee2c2af	0.44289157
71	0x3f09bd24	0.5380423
72	0x3e342e6d	0.17595835
73	0xbd706f97	-0.05870017
74	0x3d1d8d9c	0.038465127
75	0x3f4261a5	0.75930244
76	0x3ebec724	0.37261307
77	0x3ef5ce3f	0.48008916
78	0xbd5150e4	-0.051102534
79	0xbfa9c84d	-1.3264252
80	0x3e89f1e7	0.2694237
81	0x3f18157d	0.5940779
82	0x3e9bffe0	0.30468655
83	0xbc57858a	-0.013154397
84	0xbe27c48c	-0.1638357
85	0x3fabfcfe	1.3436582
86	0x3f5181af	0.81838506
87	0xbdb12378	-0.08649343
88	0x3ed7c05e	0.42138952
89	0x3e3fad43	0.18718438
90	0x3f5c57ab	0.8607127
91	0x3ee14ac6	0.4400236
92	0x3e272d42	0.16325858
93	0x3e95bf6b	0.29247603
94	0xbfc33937	-1.5251836
95	0x3fc5a310	1.5440388
96	0xbeab1385	-0.3341333
97	0x3f06d3e6	0.5266708
98	0xbe5e25f4	-0.21694165
99	0x3ea215a7	0.31657144
100	0x3f305356	0.6887716
101	0xbf167e34	-0.5878632
102	0x3daf4fca	0.085601404
103	0xbfa3fc3a	-1.2811348
104	0x3ea97691	0.3309827
105	0x3ee5ea41	0.44905284
106	0x3ef1ff05	0.47264877
107	0x3db570e6	0.08859424
108	0x3df65103	0.120271705
109	0x3f1d63c3	0.6148035
110	0xbe1608b0	-0.14651752
111	0xbd1b481e	-0.037910573
112	0xbe632dd8	-0.22185457
113	0x3df0b02a	0.11752351
114	0x3f6ceffa	0.92553675
115	0x3e0e4706	0.13894281
116	0x3f1d404d	0.6142624
117	0xbfd482c9	-1.6602412
118	0x3f123142	0.5710641
119	0x3e86aaa6	0.2630207
120	0x3e4de0c1	0.20105268
121	0xbebd74ae	-0.37003082
122	0x3df71643	0.12064793
123	0xbe753e20	-0.2394948
124	0x3d02c4ca	0.031925954
125	0x3d9c0c77	0.07619565
126	0xbbd521c6	-0.0065042702
127	0x3cfb2631	0.03065786
128	0xbee5832b	-0.44826636
129	0xbf95b182	-1.1694796
130	0xbdf06924	-0.11738804
131	0x3f09f746	0.53892934
132	0x3d0da9fa	0.03458593
133	0x3ee37237	0.44423077
134	0xbf5f815b	-0.87306756
135	0x3dd97fb1	0.10620058
136	0x3e27e244	0.16394907
137	0xbfa0f1f7	-1.2573842
138	0x3eb2f50c	0.3495258
139	0x3f2e672c	0.6812618
140	0xbf437d67	-0.76363224
141	0x3e764104	0.24048239
142	0x3edb3b3c	0.4281863
143	0xbe6bc2e4	-0.23023564
144	0x3f135a27	0.57559437
145	0x3ece2c96	0.4026839
146	0x3e713c70	0.23558211
147	0xbd54ea02	-0.05198098
148	0xbd7412fc	-0.059588417
149	0x3f6f9a01	0.93594366
150	0x40045eeb	2.0682933
151	0x3e097e38	0.13427055
152	0xbdd76591	-0.10517419
153	0xbd7333c2	-0.059375532
154	0x3f5c5f03	0.86082476
155	0x3ea9bdc6	0.33152598
156	0x3eb6c2f1	0.35695603
157	0x3eacc48c	0.33743703
158	0xbfd7e57b	-1.6866907
159	0x3f2095bb	0.6272847
160	0xbe245bcd	-0.16050644
161	0xbeed5cf7	-0.4635999
162	0x3f0f3a24	0.5594809
163	0xbf2739ee	-0.6532277
164	0xbeca6612	-0.39530998
165	0xbe5050e8	-0.20343363
166	0x3dcaf7cc	0.09910545
167	0xbf8605e2	-1.0470545
168	0xbe4db69e	-0.20089194
169	0x3f352ffd	0.7077635
170	0x3f0c9207	0.5491032
171	0xbf940a5d	-1.1565663
172	0xbf0e457c	-0.55574775
173	0xbf72baf7	-0.94816536
174	0xbfb4be74	-1.4120622
175	0xbb449570	-0.0029996298
176	0xbfd96375	-1.6983477
177	0xbe2ba280	-0.16761208
178	0xbe886bc9	-0.26644734
179	0x3f0ef3ff	0.5584106
180	0x3e107432	0.14106825
181	0xbef56f06	-0.47936267
182	0x3f1dd6d9	0.61655957
183	0x3db30eee	0.08743082
184	0x3e624566	0.22096786
185	0xbf3c8624	-0.7364218
186	0xbdbbbfb1	-0.091674216
187	0x3f22c811	0.6358653
188	0xbe59435a	-0.21217099
189	0x3ec17c8d	0.37790337
190	0x3f218676	0.63095796
191	0x3f02a849	0.5103803
192	0x3f01468c	0.5049827
193	0xbf1c5263	-0.6106321
194	0x3d5ae19a	0.053437807
195	0x3e3775a9	0.17915978
196	0x3eb68bda	0.35653573
197	0x3e837ac4	0.256796
198	0x3ee9499d	0.45563975
199	0x3eae263f	0.34013554
200	0x3e3d7876	0.18502983
201	0xbe82337c	-0.25429904
202	0x3df02435	0.11725656
203	0xbc56e8eb	-0.013117055
204	0xbe46d1d9	-0.19415988
205	0x3f01b560	0.5066738
206	0x3d98c1ef	0.07458865
207	0xbfddbbcc	-1.7322936
208	0x3e771ded	0.2413251
209	0x3eda8a6e	0.42683738
210	0x3e09abb6	0.13444409
211	0xbdb39f30	-0.08770597
212	0xbecb6f0f	-0.39733168
213	0x3f2c68fd	0.673477
214	0x3ee439ac	0.4457525
215	0x3d938a2f	0.07204091
216	0x3f11a891	0.56897837
217	0xbe6a9f95	-0.22912438
218	0x3eebb377	0.46035358
219	0xbe589808	-0.21151745
220	0x3f2df957	0.6795859
221	0x3ead3f07	0.3383715
222	0xbfb66222	-1.4248698
223	0x3f69f5de	0.9139079
224	0xbe04a906	-0.12955102
225	0x3e6deda2	0.23235181
226	0xbe09fa67	-0.13474427
227	0x3e082393	0.1329482
228	0x3f2b5f88	0.66942644
229	0xbf480a6d	-0.7814091
230	0x3dfe9006	0.12429814
231	0xbfea899d	-1.8323246
232	0x3e71a69e	0.23598716
233	0x3edd65e6	0.43241805
234	0x3e602264	0.21888119
235	0x3bcf0213	0.006317386
236	0x3d7af7a5	0.06127133
237	0x3edb7570	0.42863035
238	0xbec89254	-0.3917414
239	0x3eb5106e	0.35364097
240	0xbe7d1fc4	-0.24719149
241	0x3db9352d	0.090433456
242	0x3d9849c6	0.07435946
243	0x3ec6cdf2	0.38829
244	0x3f01b5ce	0.50668037
245	0xc001b39e	-2.026588
246	0x3f2eebb2	0.6832839
247	0x3edb6c12	0.4285589
248	0xbddfc649	-0.10926492
249	0xbd94c00c	-0.072631925
250	0x3f07ae5f	0.53000444
251	0xbf212415	-0.6294568
252	0x3d63eb44	0.05564429
253	0x3e20f7da	0.15719548
254	0x3e1e83d0	0.1547997
255	0xbdcd5564	-0.100260526

fc2.bias f4 [64]
0	0xbdb5939d	-0.088660456
1	0xbd4cbc3d	-0.049984206
2	0xbdd6c9f4	-0.10487738
3	0x3e1bd05b	0.152162
4	0xbb82d395	-0.0039925077
5	0x3e88a2f8	0.26686835
6	0x3d27c7ed	0.04096215
7	0xbc8bc5bc	-0.01706206
8	0x3cdb79b5	0.026791433
9	0xbdef156c	-0.11674008
10	0xbaafe138	-0.0013418561
11	0xbe0c4969	-0.13699879
12	0xbdbc2152	-0.09186043
13	0x3d080cb1	0.03321523
14	0xbe9b4c59	-0.30331686
15	0x3f878345	1.0586935
16	0xbb9d3e84	-0.004798712
17	0x3e5a9f6b	0.21349876
18	0x3ea874ee	0.3290171
19	0x3de5ea0d	0.11226282
20	0xbc19a8a1	-0.009378583
21	0xbd931402	-0.071815506
22	0x3df6ca9e	0.12050365
23	0xbde3e209	-0.11127097
24	0x3cba2226	0.022721361
25	0xbe1920a7	-0.14953862
26	0x3e9a9106	0.3018877
27	0xbd19aa7f	-0.037516113
28	0x3e32eb3d	0.17472549
29	0x3e86adc7	0.26304457
30	0x3ef15036	0.4713151
31	0xbbe84672	-0.007088476
32	0x3e4904e1	0.19630767
33	0x3e6b93a8	0.23005545
34	0x3cfaa229	0.030594902
35	0xbdf95588	-0.12174517
36	0xbdaea418	-0.08527392
37	0xbd40a486	-0.0470319
38	0xbe1916a0	-0.14950037
39	0x3f047f61	0.51756865
40	0x3dc65142	0.096834674
41	0x3d7d49c6	0.061837934
42	0x3df2e28a	0.11859615
43	0x3f1253c0	0.5715904
44	0x3ddee4de	0.10883497
45	0x3dc87be8	0.09789258
46	0xbdd63ccc	-0.10460815
47	0xbe3de7e1	-0.18545486
48	0x3e482675	0.1954592
49	0xbdc0dc82	-0.094170585
50	0x3df9302f	0.121673934
51	0xbc9b6d79	-0.018973099
52	0x3ea9f6f2	0.33196217
53	0x3f338c6d	0.7013615
54	0x3e5180a0	0.20459223
55	0xbdd199db	-0.10234424
56	0x3dd59aea	0.10429938
57	0x3e3994db	0.1812319
58	0xbddedc26	-0.10881834
59	0x3d7ec299	0.0621973
60	0x3e73c1d1	0.23804404
61	0xbe1bfef0	-0.1523397
62	0x3f7892bd	0.97098905
63	0x3e19a628	0.1500479

fc3.weight f4 [4, 64]
0	0xbffc8765	-1.9728819
1	0xbf64aee0	-0.8932934
2	0xbfe5c075	-1.7949358
3	0xbf7c7ce2	-0.98628056
4	0xbf9d31a3	-1.2280773
5	0xbe894eca	-0.26817924
6	0x3e0f9a34	0.14023668
7	0xbf8de496	-1.1085384
8	0xbd82fb5a	-0.06395598
9	0x3d1d0a4c	0.038339898
10	0xbf2be281	-0.6714249
11	0xbd8ede4b	-0.06975993
12	0xbf1b0a17	-0.6056227
13	0xbf199f70	-0.6000891
14	0xbf3767b8	-0.7164264
15	0x3fe46093	1.7841972
16	0x3d4a27e4	0.04935445
17	0xbea3162e	-0.3185286
18	0xbc661d15	-0.01404502
19	0xbf1bf9c5	-0.60927993
20	0xbf911cef	-1.1336955
21	0xbf8f5696	-1.1198299
22	0x4044f343	3.0773475
23	0xbc3b2de0	-0.011424512
24	0xbf1479f6	-0.579986
25	0x3d838645	0.06422094
26	0xbec4c79f	-0.3843355
27	0xbf40ad8b	-0.75264806
28	0xbf7c47ce	-0.98547065
29	0xbecb9514	-0.39762175
30	0x402010a0	2.5010147
31	0x3df4a924	0.119463235
32	0xbf312d65	-0.6920989
33	0xbf15c544	-0.5850413
34	0xbf02f452	-0.51154053
35	0xbddc4068	-0.10754472
36	0xbe0e1b64	-0.13877636
37	0x3e0e2bfd	0.13883968
38	0x3c708114	0.014679212
39	0xbe7fa6ac	-0.24965924
40	0xbf2fd77c	-0.6868818
41	0xbed62237	-0.4182298
42	0xbf205a1c	-0.62637496
43	0x3f2693e8	0.6506944
44	0xbe9f3158	-0.31092334
45	0xbd05f3cc	-0.032703206
46	0x3d98a0da	0.07452555
47	0xbe22b528	-0.15889418
48	0xbefc7976	-0.49311417
49	0xbfaa3c2f	-1.3299617
50	0xbf51e891	-0.81995493
51	0xbfa360dd	-1.2763935
52	0x40357846	2.835466
53	0x3e7f165c	0.24910873
54	0xbeb188e9	-0.34674767
55	0x3d817d1c	0.06322691
56	0xbf19ed8e	-0.60128105
57	0xbe7b6591	-0.24550463
58	0x3c73f97b	0.014891024
59	0xbff77670	-1.9333019
60	0xbfd82972	-1.6887648
61	0x3dc98831	0.098404296
62	0x3fe2e731	1.7726804
63	0xbf8460f7	-1.0342091
64	0xbf0688cc	-0.52552485
65	0xbf2cc3f0	-0.67486477
66	0xbf070226	-0.52737653
67	0xbf84a2ee	-1.0362222
68	0xbf7c57a5	-0.98571235
69	0xbf044d46	-0.5168041
70	0x3f389cfb	0.72114533
71	0xbf86372c	-1.0485587
72	0x3ebd6942	0.36994368
73	0xbda3d93e	-0.0800042
74	0xbf5a1da7	-0.85201496
75	0xbd76a631	-0.060217086
76	0xbef8d518	-0.48600078
77	0xbee1fd35	-0.44138494
78	0x3f20db8a	0.6283499
79	0x3fcf53e8	1.6197481
80	0xbcac3f97	-0.021026416
81	0xbebde18a	-0.37086135
82	0xbe964b1b	-0.29354176
83	0xbf3da714	-0.74083066
84	0xbf09f05d	-0.5388239
85	0xbf140020	-0.5781269
86	0x401dac85	2.4636548
87	0xbd7a1240	-0.06105256
88	0xbf432c6a	-0.76239645
89	0x3da318cc	0.07963714
90	0xbe023ded	-0.12718935
91	0xbef2e7b1	-0.47442392
92	0xbf7a8092	-0.9785243
93	0xbf1650ab	-0.5871684
94	0x402ff651	2.749409
95	0xbd046d2f	-0.032330688
96	0xbf1c17df	-0.60973924
97	0xbfa735c6	-1.3063285
98	0xbe0add3d	-0.13560958
99	0x3de08409	0.10962684
100	0xbf50a5d3	-0.8150303
101	0xbf56b0bb	-0.8386342
102	0x3d7d5baa	0.061854996
103	0x3e6b57bc	0.22982687
104	0xbf6fc674	-0.9366219
105	0xbfadec48	-1.3587732
106	0xbf513a55	-0.8172963
107	0x3f5dab73	0.86589736
108	0xbf4b544b	-0.79425496
109	0x3c2f1a60	0.010687441
110	0x3dd0facc	0.10204086
111	0xbf3579b1	-0.7088881
112	0xbf2c52e5	-0.67313987
113	0xbfd78b81	-1.6839448
114	0xbf805981	-1.0027314
115	0xbf4f0472	-0.8086616
116	0x402e61ec	2.7247267
117	0xbf241131	-0.6408873
118	0xbf1aa6a9	-0.60410553
119	0xbd55650e	-0.052098326
120	0xbf6fc82a	-0.936648
121	0xbe97fb9e	-0.29684156
122	0xbc5cbc10	-0.013472572
123	0xbfb95039	-1.4477607
124	0xbfe5b85b	-1.7946886
125	0xbe26775f	-0.16256474
126	0x3ff85b79	1.9402915
127	0xbf4d4cfb	-0.8019559
128	0xbf9c2b4c	-1.2200713
129	0xbf7d926f	-0.99051565
130	0xbf1fb2a3	-0.62381953
131	0xbf09e4a7	-0.5386452
132	0x3de3fa4b	0.11131724
133	0xbd90aa5d	-0.07063744
134	0x3fcc7d37	1.5975713
135	0xbe47ec3f	-0.19523714
136	0x3ff5ff7e	1.9218595
137	0x3d723502	0.059132583
138	0xbef047fe	-0.46929926
139	0x3cae85d2	0.021304045
140	0xbf521d64	-0.82076097
141	0xbf5785d8	-0.84188604
142	0xbfa23d20	-1.2674904
143	0x3fdaa272	1.7080824
144	0x3caf3add	0.021390373
145	0xbf9bee69	-1.2182132
146	0xbf9af51b	-1.210605
147	0xbf7519ed	-0.95742685
148	0xbe4b02e9	-0.19825329
149	0x3d27961d	0.040914644
150	0x4009f383	2.1554878
151	0x3c9a8088	0.018860117
152	0xbf3a464f	-0.7276353
153	0x3dbf207d	0.093323685
154	0xbf9901d4	-1.1953683
155	0xbf732e0e	-0.9499215
156	0xbf4ada38	-0.79239225
157	0xbe6d7833	-0.23190384
158	0x400ab26b	2.1671398
159	0x3d289a01	0.041162495
160	0x3cf8a7c2	0.03035343
161	0xbf63eb9e	-0.890314
162	0xbe909f41	-0.282465
163	0xbd4f3290	-0.05058533
164	0x3ea00433	0.31253204
165	0xbf3dfe60	-0.7421627
166	0x3c596ce6	0.013270592
167	0xbf9ddeac	-1.2333579
168	0xbf50baab	-0.8153483
169	0xbf7deba5	-0.9918769
170	0xbf718839	-0.94348484
171	0x3f8e1c7a	1.110244
172	0xbdfca323	-0.12335803
173	0xbb4dfac0	-0.0031429976
174	0xbd986ed6	-0.07443015
175	0xbf8c9504	-1.0982976
176	0xbea0e052	-0.31421143
177	0xbf3b93fe	-0.73272693
178	0xbf54c566	-0.83113706
179	0xbf9774f8	-1.1832571
180	0x3f11fb6a	0.5702425
181	0xbf77bc52	-0.9677173
182	0xbea70507	-0.32621023
183	0x3de12e56	0.10995166
184	0xbe30057a	-0.17189589
185	0xbf5ea434	-0.86969304
186	0x3d8710d0	0.065950036
187	0xbf186c3f	-0.5954017
188	0xbf50270f	-0.813096
189	0xbf456014	-0.7709973
190	0x3fca4505	1.5802313
191	0xbf48c926	-0.7843193
192	0xbeba6e30	-0.3641219
193	0xbef2bd20	-0.47409916
194	0xbecf7201	-0.40516666
195	0xbf660c83	-0.8986284
196	0xbf42f10f	-0.76149076
197	0xbf1aa01d	-0.60400563
198	0x3edf3b6a	0.43600017
199	0xbf588491	-0.8457728
200	0xbd5167f9	-0.051124547
201	0xbcedd20d	-0.029030824
202	0xbf6a158e	-0.9143914
203	0x3c6b7571	0.014371262
204	0xbf083f28	-0.5322137
205	0xbf8cd586	-1.1002662
206	0xbe8edf50	-0.2790475
207	0x3ff409b7	1.9065465
208	0xbd01b3d6	-0.031665646
209	0xbf03667a	-0.5132824
210	0xbe297bd4	-0.16551143
211	0xbf4d1688	-0.80112505
212	0xbf9ae8fc	-1.2102351
213	0xbfa8e38a	-1.319444
214	0x404bd262	3.1847157
215	0xbbed6801	-0.0072450642
216	0xbf3ef452	-0.74591553
217	0x3dce55cf	0.100749604
218	0xbec3cb46	-0.38241023
219	0xbf88595c	-1.065227
220	0xbf6faa1b	-0.93618935
221	0xbf8f49c5	-1.1194388
222	0x400204d6	2.0315452
223	0xbb281b93	-0.00256512
224	0xbf452564	-0.7701018
225	0x3ec9f02e	0.39441055
226	0xbfa57ce7	-1.2928742
227	0xbd9b61a4	-0.07586983
228	0xbcec3ac5	-0.028836617
229	0xbedeca6e	-0.43513817
230	0xbd81c9b8	-0.06337303
231	0xbf8087ab	-1.0041403
232	0xbf3bdbea	-0.7338244
233	0xbf0ff6f5	-0.562362
234	0xbf243f2c	-0.6415889
235	0x3f29467a	0.66123164
236	0xbc06bbb4	-0.008223463
237	0xbdf36490	-0.11884415
238	0x3cd9c289	0.02658202
239	0xbf644e6c	-0.8918216
240	0xbe8e476d	-0.2778887
241	0xbf8c65e1	-1.0968591
242	0xbf24d856	-0.643926
243	0xbf1f8184	-0.62307
244	0x402dd7f6	2.7163062
245	0x3f2b434a	0.6689955
246	0xbed65a32	-0.4186569
247	0xbd9cf759	-0.07664365
248	0xbeec09b9	-0.46101168
249	0xbf5c01d8	-0.85940313
250	0x3d10d916	0.03536328
251	0xbf863d72	-1.0487502
252	0xbfea7d24	-1.831944
253	0xbf853ad0	-1.0408573
254	0x3fe3848d	1.7774826
255	0xbf27c7d7	-0.65539306

fc3.bias f4 [4]
0	0x3e7ca872	0.24673632
1	0x3ebcca07	0.36872885
2	0x3e6ff343	0.2343264
3	0x3ead54d0	0.3385377
