deep_q_learning/dqn/modularized/checkpoint.pth (torch_old, 21023 bytes, 6 tensors)

fc1.weight f4 [64, 8]
-0.1237355 -0.015674168 -1.0300868 0.1634869 0.32236373 0.2746761 0.07538679 0.34350115
-0.119979136 0.79232836 0.16321082 0.015280311 -1.1055694 0.859232 -0.31783816 -0.563284
-0.3338881 -0.33636218 0.23531182 -0.91482496 0.9710028 0.5065042 -0.13543698 0.20811343
-0.03592179 -0.92435867 1.1351146 0.23536932 -0.63522017 -0.41955483 0.1253193 0.28323695
-0.61866933 -0.13686763 -0.20563951 -0.24443325 -0.75562584 -0.09133271 0.33521798 0.2539087
-0.15856467 0.08609718 0.080732495 -0.3941372 -0.6874991 -0.27947533 0.21361193 0.38923138
0.16060372 -0.2018408 -0.11093286 0.10846785 -0.12989745 0.06594731 0.3849447 -0.26607582
-0.5411162 -0.31462482 -0.39914274 -0.5247083 0.4036468 0.22630736 -0.21106036 0.14495614
0.05427625 0.653779 -0.12740962 0.3708026 -0.43291804 0.9213913 -0.98820865 -0.12762055
0.42801788 0.50465655 -0.0734019 0.057861917 0.3194499 -1.2777236 0.26321507 0.05255693
-0.617399 0.6092036 0.8727562 -1.7845908 -0.008264152 -0.18061881 0.24777804 -0.15578872
0.18169788 -0.1978345 -0.059357792 0.37981436 0.15695222 1.102442 -0.050816946 -0.71452546
0.04260831 1.0146824 0.22471403 -0.3658068 0.026177783 1.1580831 0.2608322 -0.45354387
-1.3182032 -0.20448789 -0.9256268 -0.4472054 0.1724339 0.005851164 -0.023948371 0.041431647
-0.31136802 0.7731397 0.79464734 -1.5360807 -0.1314223 0.14058284 0.37811518 -0.008251905
-0.7646135 0.6634196 -0.94249505 1.1302861 -0.17913873 0.16280144 -0.23876834 0.1655649
-0.46022454 0.09200339 0.08231264 0.15718089 -0.65864074 -0.14673662 0.2269675 0.12538856
-0.030865688 -0.019755065 -0.23623762 0.40889156 0.098930016 0.43390685 0.63608927 0.03648902
-0.6420912 0.27350605 0.6524355 -0.6406761 -0.120486036 0.012211686 -0.29538938 -0.43256053
-0.40266886 0.42055404 0.5965258 -1.9729769 0.27118593 -0.3335933 0.23481928 -0.010813873
-0.6821036 -0.5412375 -0.8486824 -0.868317 0.033641014 0.12979506 0.0003247424 0.2192042
-0.07418809 -0.42153883 0.9187479 0.19733608 0.5610799 0.784286 -0.33640647 -0.12564926
0.18234546 -0.46009153 1.0263094 -0.49551037 -0.61029005 -0.20724982 0.2638944 0.16565889
0.46966714 0.09268826 -0.3786789 -0.19239174 -0.583778 -0.0059707225 0.36706614 0.31327724
-0.50737363 -0.3959327 -0.8614258 -1.0605354 0.016147867 -0.006314186 -0.07146152 -0.028519485
0.053083267 -0.04162779 -0.53561085 -0.08379936 0.30296504 0.9503633 0.20562238 0.33872363
0.08167635 0.1526541 0.08524768 0.19483618 -0.9279783 0.36517593 0.35539216 -0.0017523431
-0.009592564 -0.51942164 -0.038301148 -1.0027372 -0.25412503 0.35390434 -0.23773248 -0.22999862
-0.58950853 -0.35297132 -0.6943488 0.20574215 -0.3993984 -0.25739735 0.27070054 0.40306008
0.41592 1.0656309 -0.11681426 -0.6534104 0.34693947 -0.79651636 0.025601285 0.35332274
-0.4742162 -0.066254884 -0.8605473 -0.50703543 0.35897437 -0.30327666 0.33832037 -0.01110284
0.09134734 0.08012884 -0.18567389 0.052658804 2.7590413 0.024067068 -0.4652015 -0.3242183
00000000: 0a69 fdbd 1d67 80bc e2d9 83bf 1c69 273e
00000010: dc0c a53e 59a2 8c3e 6464 9a3d 62df af3e
00000020: 9fb7 f5bd 08d6 4a3f bd20 273e 455a 7a3c
00000030: 4c83 8dbf a1f6 5b3f afbb a2be 6133 10bf
00000040: 62f3 aabe aa37 acbe 95f5 703e f831 6abf
00000050: a493 783f 42aa 013f feaf 0abe b01b 553e
00000060: ba22 13bd c5a2 6cbf 6f4b 913f a804 713e
00000070: ca9d 22bf e4cf d6be b453 003e 6f04 913e
00000080: 1d61 1ebf 0727 0cbe 2a93 52be b64c 7abe
00000090: b270 41bf a50c bbbd b1a1 ab3e 5200 823e
000000a0: c75e 22be b853 b03d 1457 a53d 5acc c9be
000000b0: f1ff 2fbf 6417 8fbe 16bd 5a3e 5649 c73e
000000c0: 4d75 243e 5baf 4ebe c430 e3bd 6424 de3d
000000d0: d603 05be 620f 873d 7917 c53e 173b 88be
000000e0: 9786 0abf 8116 a1be 705c ccbe 4853 06bf
000000f0: cbaa ce3e 1ebd 673e 3520 58be 626f 143e
00000100: c650 5e3d 0f5e 273f ab77 02be d7d9 bd3e
00000110: 6fa7 ddbe 4de0 6b3f 3efb 7cbf f6ae 02be
00000120: 2925 db3e 2c31 013f bc53 96bd 9e00 6d3d
00000130: f08e a33e 728c a3bf 20c4 863e ef45 573d
00000140: dc0d 1ebf c4f4 1b3f f36c 5f3f 796d e4bf
00000150: 5e66 07bc 23f4 38be 87b9 7d3e 1487 1fbe
00000160: 020f 3a3e 2195 4abe 2821 73bd 0777 c23e
00000170: 15b8 203e d21c 8d3f 6e25 50bd 24eb 36bf
00000180: 0d86 2e3d 1de1 813f 6f1b 663e 074b bbbe
00000190: ca72 d63c 113c 943f cc8b 853e e736 e8be
000001a0: e2ba a8bf 4665 51be e1f5 6cbf 1bf8 e4be
000001b0: 8392 303e 1fbb bf3b 602f c4bc 3bb4 293d
000001c0: a16b 9fbe 7cec 453f 026e 4b3f 4b9e c4bf
000001d0: 9193 06be f3f4 0f3e 5098 c13e 0033 07bc
000001e0: b6bd 43bf ded5 293f 5b47 71bf 37ad 903f
000001f0: 2570 37be 6cb5 263e b07f 74be d889 293e
00000200: 8da2 ebbe 466c bc3d 8893 a83d 07f4 203e
00000210: ae9c 28bf 2042 16be 2b6a 683e dc65 003e
00000220: 0ada fcbc 60d5 a1bc 46e8 71be 3c5a d13e
00000230: d29b ca3d 0a29 de3e bfd6 223f 8375 153d
00000240: 1760 24bf fc08 8c3e 0306 273f 5903 24bf
00000250: 62c1 f6bd 8613 483c 473d 97be 9378 ddbe
00000260: 9d2a cebe dc52 d73e eab5 183f 828a fcbf
00000270: e2d8 8a3e becc aabe 7774 703e ac2c 31bc
00000280: 579e 2ebf 8a8e 0abf 4043 59bf 064a 5ebf
00000290: 29cb 093d ffe8 043e 3042 aa39 1177 603e
000002a0: edef 97bd f0d3 d7be 1033 6b3f 7812 4a3e
000002b0: efa2 0f3f f8c6 483f 783d acbe 33aa 00be
000002c0: c5b8 3a3e 1e91 ebbe 1b5e 833f 89b3 fdbe
000002d0: f83b 1cbf 4c39 54be 2b1d 873e 7ca2 293e
000002e0: 3678 f03e 58d3 bd3d 33e2 c1be 5702 45be
000002f0: 7a72 15bf 0da6 c3bb 18f0 bb3e e065 a03e
00000300: 3de3 01bf b1b7 cabe 6786 5cbf a0bf 87bf
00000310: 8848 843c 3be7 cebb 6b5a 92bd b2a1 e9bc
00000320: d76d 593d e781 2abd cb1d 09bf 009f abbd
00000330: 3c1e 9b3e 024b 733f ac8e 523e 2f6d ad3e
00000340: ee45 a73d 5b51 1c3e 5696 ae3d 2383 473e
00000350: fc8f 6dbf 57f8 ba3e f6f5 b53e e1ae e5ba
00000360: 212a 1dbc d1f8 04bf aae1 1cbd b159 80bf
00000370: ad1c 82be f332 b53e 2570 73be c284 6bbe
00000380: 08ea 16bf a8b8 b4be d8c0 31bf 12ae 523e
00000390: f27d ccbe 96c9 83be 4399 8a3e e45d ce3e
000003a0: 77f3 d43e 9866 883f 513c efbd e745 27bf
000003b0: 0da2 b13e 7fe8 4bbf c9b9 d13c b8e6 b43e
000003c0: 77cc f2be a4b0 87bd d44c 5cbf 13cd 01bf
000003d0: 7dcb b73e 1447 9bbe 5438 ad3e b0e8 35bc
000003e0: 5014 bb3d 971a a43d 4c21 3ebe c2b0 573d
000003f0: 2294 3040 4d28 c53c e42e eebe f1ff a5be

fc1.bias f4 [64]
-0.42445168 0.0116782645 0.11753352 -0.39466155 -0.3480235 -0.31146383 0.3908772 -0.04743503
0.42000213 0.4459138 0.65886796 -0.05021464 -0.2385644 -0.07881062 0.9102011 0.29754287
-0.18014914 -0.34579003 0.94658977 0.91135454 -0.5047068 -0.5477731 -0.43474856 -0.36368215
-0.2942205 -0.33005336 -0.2989583 -0.4173292 -0.24028574 -0.2064639 -0.3473877 -0.077233225
-0.14742191 0.45675126 -0.43045694 0.44654912 0.29456526 -0.27950695 -0.33543846 -0.006912319
0.2334619 -0.20152098 0.3160424 0.335164 0.2788855 0.21560869 0.51590997 0.11094316
-0.19452491 0.5100315 0.30572847 0.41453856 0.08642106 -0.19618024 -0.063271075 0.25894865
0.29487953 0.042683728 0.1989221 -0.2643292 -0.29183868 -0.44354197 -0.14912876 -0.14387545
00000000: bb51 d9be 3156 3f3c 6ab5 f03d 1411 cabe
00000010: 2330 b2be 3078 9fbe 0e21 c83e 3c4b 42bd
00000020: 850a d73e d04e e43e 92ab 283f dead 4dbd
00000030: 3a4a 74be 7667 a1bd f002 693f 8a57 983e
00000040: 0479 38be 640b b1be b553 723f 884e 693f
00000050: 7734 01bf dc3a 0cbf 5d97 debe 8c34 babe
00000060: 12a4 96be c1fc a8be 1011 99be 2cac d5be
00000070: 770d 76be 466b 53be cddc b1be 742c 9ebd
00000080: c5f5 16be 4ddb e93e da64 dcbe 16a2 e43e
00000090: 42d1 963e 891b 8fbe 97be abbe bc80 e2bb
000000a0: a310 6f3e 845b 4ebe 4fd0 a13e 9e9a ab3e
000000b0: 15ca 8e3e 86c8 5c3e ad12 043f 2b36 e33d
000000c0: 8a31 47be 6d91 023f 7188 9c3e 663e d43e
000000d0: 86fd b03d 79e3 48be 4494 81bd eb94 843e
000000e0: 73fa 963e 22d5 2e3d 3cb2 4b3e 2856 87be
000000f0: e16b 95be ef17 e3be 36b5 18be 1654 13be

fc2.weight f4 [64, 64]
0.18060315 -0.33845505 0.23904979 0.57283515 0.5029899 0.42624468 -0.11786008 0.29007685
-0.1996232 -0.2895651 0.22621414 0.41298753 -0.11082374 0.792901 0.1522143 0.5352987
0.17414165 0.22282724 0.021342885 0.24249795 0.7710174 0.6641744 0.33105987 0.56591165
0.434083 0.13913684 0.47422764 0.43264073 0.20975558 -0.10031481 0.17948152 -1.0153205
-0.04940072 -0.08004771 0.7082422 -0.21558012 0.704683 0.4066784 0.04433936 -1.9456439
0.08805078 0.6601178 0.23000233 0.022836834 0.77459514 0.3964419 0.12230389 0.047834758
-0.8627627 -0.84574085 0.40135404 0.05569807 -1.4083866 0.6887095 0.30524638 -0.76524615
0.31714162 -0.7095353 -0.2839762 0.6420985 0.13697223 0.07747349 0.26359174 0.43165007
-0.113259934 0.10315122 0.5115258 0.3364987 -0.10659626 0.38297063 -0.021408672 0.40297988
-0.13458484 -0.3824213 0.45984292 0.17819962 0.12148523 0.15279168 0.21535996 0.6331468
-0.09760645 0.17284104 0.020811832 0.35117137 0.32651663 0.29336494 0.23033604 -0.2392472
0.14868166 0.3118953 0.5156098 0.5227298 -0.63484496 0.15727109 -0.42509595 -0.3434907
-0.951936 -0.052738298 0.2709996 -0.2587624 0.3473988 0.47350442 0.085601404 -2.0583735
0.15157093 0.513993 -0.059169944 -0.13128804 0.7747208 0.5747763 0.04895525 -0.12935947
-0.6175188 -0.8997612 0.22500363 0.23823528 -1.4270926 0.07960214 -0.42460877 -0.8448751
0.2625968 -0.6965142 -0.55602044 0.6610035 -0.2139032 0.25616574 -0.3776194 -0.67418146
0.47685844 -0.74269307 -0.070060484 0.8072384 0.4852574 0.47699344 0.10880227 0.22836883
-1.0873045 -0.676408 0.3694956 0.005217143 -0.43081793 1.0831498 0.24190839 1.0635158
0.4060006 0.08540827 -0.260575 0.03043172 0.98811007 0.43166688 1.0431956 0.2364019
0.93601346 0.08868568 0.5102092 0.4304031 0.38322085 0.04041834 0.3093951 0.4964291
0.22931813 -0.2716642 0.96231925 -0.2796867 0.22198112 0.8882673 0.09910545 -0.43263766
-0.011383144 0.8285201 0.1481431 -0.05136668 0.7236732 0.17337689 -0.1988868 0.2514064
0.2663822 -0.16536893 0.27676317 -0.22236113 -1.0481191 0.62083995 0.21406353 -0.26750448
0.15590489 -0.12902935 0.1242649 1.0001795 0.45229387 0.0801685 0.51964575 0.3355907
0.3514131 -0.36360613 0.14819466 0.3556843 0.5084368 0.563884 -0.12417992 0.16533597
-0.6913801 -0.39535874 0.30889666 0.14100271 0.065526016 0.6480917 0.05748744 0.8912544
0.17387888 -0.1498005 -0.50770414 -0.01966225 0.9353006 -0.05264217 0.66218555 0.4747146
0.6651949 0.1523234 0.58823544 0.63298935 0.14950906 0.41027933 0.055152427 -1.1813966
0.4076688 -0.3885466 0.57388276 -1.2994809 -0.31477922 0.6585358 0.12429814 -0.95569396
-0.19544941 0.7070816 0.113618776 -0.4168449 0.45845538 0.4161982 -0.009078172 0.32317537
-0.50213355 -0.0975739 0.2730693 -0.32200876 -0.8685627 0.8260335 0.7213822 -0.56859887
0.16072388 0.31463438 0.32011095 0.6665128 0.38017344 0.34823218 0.4830398 0.512181
00000000: 08f0 383e fb49 adbe 78c9 743e 53a5 123f
00000010: f2c3 003f be3c da3e a060 f1bd f484 943e
00000020: 066a 4cbe e041 94be aea4 673e 1a73 d33e
00000030: 8ff7 e2bd 8ffb 4a3f 11de 1b3e 5609 093f
00000040: 3052 323e d32c 643e 46d7 ae3c 6251 783e
00000050: 6561 453f 5507 2a3f ae80 a93e 96df 103f
00000060: 2140 de3e e379 0e3e f7cd f23e 1683 dd3e
00000070: 2bca 563e da71 cdbd 01ca 373e 06f6 81bf
00000080: 6958 4abd 0ef0 a3bd 5c4f 353f 09c1 5cbe
00000090: 1b66 343f 2738 d03e 309d 353d dc0a f9bf
000000a0: f853 b43d 7bfd 283f bb85 6b3e 5014 bb3c
000000b0: de4b 463f 6ffa ca3e 767a fa3d 61ee 433d
000000c0: 04de 5cbf 7982 58bf 477e cd3e a923 643d
000000d0: 0346 b4bf 444f 303f 4149 9c3e 2ce7 43bf
000000e0: 6360 a23e 1ba4 35bf 5465 91be 9160 243f
000000f0: 7342 0c3e 6caa 9e3d 7ff5 863e 3d01 dd3e
00000100: d3f4 e7bd f240 d33d 5bf3 023f 8f49 ac3e
00000110: 244f dabd ba14 c43e 3d61 afbc 6153 ce3e
00000120: 9cd0 09be bacc c3be 8870 eb3e f679 363e
00000130: 40cd f83d 6c75 1c3e 5287 5c3e e915 223f
00000140: e4e5 c7bd 3efd 303e 937d aa3c bccc b33e
00000150: 302d a73e ee33 963e 36dd 6b3e 38fd 74be
00000160: 0140 183e beb0 9f3e 01ff 033f 9fd1 053f
00000170: 3385 22bf ac0b 213e 2da6 d9be 03de afbe
00000180: 14b2 73bf 1d04 58bd 76c0 8a3e 817c 84be
00000190: 41de b13e 2c6f f23e ca4f af3d 64bc 03c0
000001a0: 6935 1b3e 0c95 033f 2f5c 72bd 5f70 06be
000001b0: 1a54 463f 8a24 133f 4d85 483d cf76 04be
000001c0: b615 1ebf c056 66bf 5a67 663e f3f3 733e
000001d0: f8aa b6bf 7206 a33d 5266 d9be bc49 58bf
000001e0: 1673 863e c14e 32bf 5b57 0ebf 8637 293f
000001f0: 7109 5bbe 2828 833e 5457 c1be 2897 2cbf
00000200: ca26 f43e 2221 3ebf df7b 8fbd 2da7 4e3f
00000210: a873 f83e 7c38 f43e b9d3 de3d 85d9 693e
00000220: cb2c 8bbf 1329 2dbf 872e bd3e 91f4 aa3b
00000230: 2b94 dcbe a7a4 8a3f d5b6 773e 4921 883f
00000240: 50df cf3e 88ea ae3d 166a 85be f14b f93c
00000250: c8f4 7c3f 7103 dd3e 6f87 853f 5713 723e
00000260: 949e 6f3f d6a0 b53d 129d 023f cc5d dc3e
00000270: 8635 c43e b48d 253d 0969 9e3e f42b fe3e
00000280: 5fd2 6a3e 9217 8bbe 8e5a 763f 1833 8fbe
00000290: 054f 633e 7c65 633f ccf7 ca3d af82 ddbe
000002a0: 5e80 3abc e519 543f d3b2 173e de65 52bd
000002b0: a642 393f b689 313e fba8 4bbe 57b8 803e
000002c0: 3f63 883e 7956 29be e7b3 8d3e a3b2 63be
000002d0: c428 86bf 5eef 1e3f 7833 5b3e 59f6 88be
000002e0: 88a5 1f3e 4520 04be 997e fe3d e205 803f
000002f0: 1093 e73e 622f a43d 8107 053f 8bd2 ab3e
00000300: 6bec b33e 952a babe 57c0 173e 411c b63e
00000310: ea28 023f b45a 103f 0b52 febd d54d 293e
00000320: 49fe 30bf 766c cabe b427 9e3e 0463 103e
00000330: 8132 863d 56e9 253f f377 6b3d 4029 643f
00000340: 4e0d 323e 4d65 19be e6f8 01bf ba12 a1bc
00000350: dc6f 6f3f 519f 57bd fe84 293f cb0d f33e
00000360: 374a 2a3f aafa 1b3e 9996 163f 970b 223f
00000370: e718 193e 2210 d23e 83e7 613d 0138 97bf
00000380: f7b9 d03e 94ef c6be fbe9 123f 6455 a6bf
00000390: be2a a1be cd95 283f 0690 fe3d 5ca8 74bf
000003a0: e423 48be 4d03 353f f6b0 e83d b26c d5be
000003b0: aaba ea3e ee17 d53e 9dbc 14bc 3e77 a53e
000003c0: d38b 00bf d3d4 c7bd bdcf 8b3e 55de a4be
000003d0: 205a 5ebf ee76 533f 81ac 383f b28f 11bf
000003e0: cd94 243e c217 a13e 95e5 a33e 95a0 2a3f
000003f0: 18a6 c23e 7d4b b23e fe50 f73e 4b1e 033f

fc2.bias f4 [64]
0.05395469 -0.068546236 -0.2971721 -0.2801172 0.27276474 0.1425295 0.19809745 0.08123801
0.018085634 0.28174663 0.041871976 -0.13496432 0.07426908 -0.037753887 0.5220132 0.069603786
0.14704598 -0.051840335 -0.1398801 0.0011780798 0.20320456 -0.036790796 0.16956018 -0.11585221
0.1243194 -0.14565408 0.08025822 -0.17849323 0.07363622 0.13913645 0.26617855 0.6386716
-0.075962305 0.2730456 -0.053240158 -0.12538944 0.1464395 0.08437015 0.24219361 0.6976911
0.06483291 0.00193032 0.08323614 0.55441916 -0.063067324 0.09789258 0.12035304 -0.08001499
0.016656306 -0.22687335 -0.113820754 -0.1913925 0.23634757 0.066629045 0.22711231 -0.13475399
0.15414287 0.030580657 0.3227636 -0.009868175 -0.26447242 -0.13002314 0.7177974 0.045482535
00000000: 98ff 5c3d f861 8cbd f126 98be 866b 8fbe
00000010: d2a7 8b3e 41f3 113e 0fda 4a3e 1d60 a63d
00000020: 5328 943c 1841 903e f381 2b3d 1634 0abe
00000030: 631a 983d d2a3 1abd a8a2 053f 6e8c 8e3d
00000040: 3993 163e 8856 54bd bb3c 0fbe cc69 9a3a
00000050: db14 503e f2b1 16bd 2fa1 2d3e ec43 edbd
00000060: 2b9b fe3d 5826 15be 6c5e a43d eec6 36be
00000070: 96ce 963d c979 0e3e 8e48 883e fb7f 233f
00000080: 2092 9bbd a2cc 8b3e 5a12 5abd 1766 00be
00000090: 3cf4 153e 42ca ac3d 9a01 783e e29b 323f
000000a0: 1ec7 843d cb02 fd3a b677 aa3d 6aee 0d3f
000000b0: 7129 81bd e87b c83d a87b f63d e6de a3bd
000000c0: ce72 883c 7d51 68be db1a e9bd 65fc 43be
000000d0: 1905 723e cf74 883d 2190 683e f3fc 09be
000000e0: a1d7 1d3e 4984 fa3c 4541 a53e 20ae 21bc
000000f0: ee68 87be c924 05be 92c1 373f e54b 3a3d

fc3.weight f4 [4, 64]
-0.93158966 -0.6525793 -0.7231549 -0.85877794 -0.9272677 -0.3221597 -0.19217038 -0.6520973
-0.09717506 -1.7942725 -1.7877355 -0.071880504 -1.0424861 -0.40272933 0.76664424 0.0018602473
0.9300221 -0.59701174 -0.97706157 -0.34484076 -0.98787475 0.07223927 -1.0723432 -0.011424512
-0.7386066 0.08485154 -0.8757631 -0.41386896 -0.46340588 -1.0473826 -0.919148 1.869636
-0.3182587 -0.9626919 -0.31807238 -0.09168592 -0.91297626 -0.3064345 0.87507606 1.5592283
-0.33788592 -0.16498442 -0.77448565 1.6307212 0.079005554 -0.032703206 1.4716821 -0.5056624
-0.45943615 0.315704 -0.1004189 -0.3929066 -0.8967243 -0.5505573 -0.73490727 0.023117235
-1.0080115 -0.21144964 -0.59200615 -0.28497446 -1.016663 -0.33255297 1.3814352 -0.4601384
-0.6679496 -0.39539585 -0.29165968 -1.0741005 -1.042133 -0.44734538 -1.0619088 -0.7342872
0.09356919 -1.677754 -1.8326896 -0.028765514 -0.33259758 -0.35757434 1.1723137 0.052050702
0.5483479 -0.6966233 -0.15881729 -0.36928794 -0.7459662 0.10235611 -1.3364892 -0.032735106
-0.53036124 0.056119964 -1.3416623 -0.24773198 -0.37391534 -1.0075198 -1.2544246 1.4849837
-0.30274686 -0.8222562 -0.31413832 0.12477073 -1.1584861 -0.39862508 1.3341008 1.4968162
-0.399408 -0.3030544 -1.0781556 1.5011572 -0.45900786 0.010687441 1.0966564 -0.17512973
-0.3821614 0.83159506 0.34844202 -0.3528158 -1.0746523 -1.2500387 -0.17305315 -0.012733057
-1.0546 0.11346648 -0.38979506 -0.42931136 -1.0234544 -0.30461216 1.5824515 -0.32405582
-1.0073224 -0.8252989 -0.5087145 -0.2876213 -0.43952474 -0.3577192 -0.13558109 -0.4710991
0.085465044 0.30235982 -1.057686 0.03382373 -0.6211154 -0.33571926 0.604056 0.044977367
0.6441773 -0.980928 -1.1336994 -0.39871308 -0.43050516 0.077196725 -0.9269271 0.018860117
-1.6457514 0.10866578 -0.9849005 -0.3785813 -0.440714 -0.4374153 -0.9555691 1.6365867
-0.24626605 -0.5122571 -0.24446099 -0.06627808 -0.76225805 -0.34735003 1.7040015 1.6294298
-0.36189553 -1.6532258 -0.3570594 1.9509637 0.8254907 -0.0031429976 -0.07556472 -0.5679287
-0.205367 -1.5034759 -0.70896655 -0.635847 -0.79263693 -0.74933445 -0.54522085 0.01841421
-0.5797451 -1.0669901 -0.04126936 -0.06206163 -0.80947167 -0.26869082 1.2674278 -0.35403484
-0.7476037 -0.3817781 -0.32035044 -0.93672085 -0.8047682 -0.5177217 0.33887887 -0.2496895
0.03383675 -0.6838361 -1.4579397 0.0065589426 -1.6727562 -0.49801582 0.9741668 0.08728627
0.95129275 -0.61865973 -0.7372497 -0.55491126 -0.8423443 -0.072372854 -0.8558775 -0.0067099617
-1.1130481 0.092808366 -0.7172784 -0.5832618 -0.3946719 -0.96612453 -0.61669 1.5305401
-0.5591072 -0.37543198 -0.5762044 -0.065623924 -0.64159805 -0.49618793 0.7509778 1.2122604
-0.4413311 -0.8433702 -0.62587094 1.5594528 0.14353006 -0.11884415 1.7202613 -0.50745666
-0.50296694 -0.417537 -0.5525953 -0.33735737 -0.40104234 -0.071247146 -1.360601 -0.012714328
-0.56849974 -0.3611654 -1.0629666 -0.5779749 -0.50088423 -0.61858314 1.6623677 -0.44946864
00000000: a97c 6ebf 700f 27bf ae20 39bf dfd8 5bbf
00000010: 6a61 6dbf 1ef2 a4be 50c8 44be d9ef 26bf
00000020: b803 c7bd b9aa e5bf 84d4 e4bf 1636 93bd
00000030: 2f70 85bf 8a32 cebe cc42 443f 8bd3 f33a
00000040: ee15 6e3f c3d5 18bf b520 7abf f88e b0be
00000050: 5ce5 7cbf 2ff2 933d 8b42 89bf e02d 3bbc
00000060: 5215 3dbf a5c6 ad3d 0332 60bf a2e6 d3be
00000070: 8943 edbe a210 86bf 494d 6bbf 3c50 ef3f
00000080: cef2 a2be fa72 76bf 62da a2be d4c5 bbbd
00000090: d0b8 69bf fce4 9cbe fc04 603f cb94 c73f
000000a0: 62ff acbe adf1 28be b144 46bf 79bb d03f
000000b0: aacd a13d ccf3 05bd 1460 bc3f 1773 01bf
000000c0: 373b ebbe f4a3 a13e 6da8 cdbd 0e2b c9be
000000d0: b98f 65bf 53f1 0cbf e222 3cbf 5b60 bd3c
000000e0: 8506 81bf 4186 58be b78d 17bf 2ce8 91be
000000f0: 0322 82bf 6244 aabe ded2 b03f 4397 ebbe
00000100: bffe 2abf 5371 cabe 6b54 95be 207c 89bf
00000110: 9d64 85bf 740a e5be a1ec 87bf 3ffa 3bbf
00000120: 34a1 bf3d a5c0 d6bf 9395 eabf a8a5 ebbc
00000130: 3b4a aabe fc13 b7be 600e 963f 1e33 553d
00000140: 8760 0c3f e855 32bf 00a1 22be 4f13 bdbe
00000150: a4f7 3ebf 15a0 d13d 1412 abbf 3f15 06bd
00000160: c1c5 07bf 0cde 653d 97bb abbf 74ad 7dbe
00000170: d571 bfbe 69f6 80bf fc90 a0bf f213 be3f
00000180: a301 9bbe 627f 52bf bdd6 a0be cc87 ff3d
00000190: 4649 94bf 9618 ccbe d1c3 aa3f ac97 bf3f
000001a0: 357f ccbe f229 9bbe 0101 8abf eb25 c03f
000001b0: 1403 ebbe 601a 2f3c 3d5f 8c3f 3555 33be
000001c0: a9aa c3be 6ae3 543f fe66 b23e 46a4 b4be
000001d0: 358e 89bf 4501 a0bf d834 31be 509e 50bc
000001e0: 22fd 86bf 1d61 e83d 3893 c7be b3ce dbbe
000001f0: 8e00 83bf 20f6 9bbe c58d ca3f a5ea a5be
00000200: f1ef 80bf ca46 53bf 1d3b 02bf 1943 93be
00000210: 6309 e1be f926 b7be c5d5 0abe e733 f1be
00000220: 4c08 af3d e8ce 9a3e 4162 87bf c08a 0a3d
00000230: 6b01 1fbf 65e3 abbe 6aa3 1a3f 303a 383d
00000240: cee8 243f 191e 7bbf 101d 91bf 1f24 ccbe
00000250: 2c6b dcbe 5119 9e3d 184b 6dbf 8880 9a3c
00000260: fba7 d2bf 2a8c de3d 7022 7cbf 68d5 c1be
00000270: 44a5 e1be e6f4 dfbe 2da0 74bf ac7b d13f
00000280: 2b2d 7cbe 4823 03bf fb53 7abe cdbc 87bd
00000290: 5823 43bf ddd7 b1be b91c da3f 2891 d03f
000002a0: 5f4a b9be e79c d3bf 7dd0 b6be 2eb9 f93f
000002b0: 5c53 533f c0fa 4dbb adc1 9abd c663 11bf
000002c0: ba4b 52be e671 c0bf d57e 35bf dec6 22bf
000002d0: 41ea 4abf 62d4 3fbf 9893 0bbf 66d9 963c
000002e0: 2d6a 14bf 2293 88bf 0f0a 29bd 5634 7ebd
000002f0: 8939 4fbf d891 89be 133b a23f 0e44 b5be
00000300: f562 3fbf 6b78 c3be f904 a4be f0cc 6fbf
00000310: 4a05 4ebf 6989 04bf 8881 ad3e 9bae 7fbe
00000320: 6798 0a3d e20f 2fbf c59d babf 66ec d63b
00000330: e01c d6bf eefb febe ff62 793f 25c3 b23d
00000340: ec87 733f 7c60 1ebf 65bc 3cbf aa0e 0ebf
00000350: e0a3 57bf 3838 94bd ca1a 5bbf 3ddf dbbb
00000360: 5c78 8ebf 5012 be3d 8f9f 37bf a550 15bf
00000370: 6f12 cabe f053 77bf 65df 1dbf bde8 c33f
00000380: a621 0fbf 9f38 c0be 2282 13bf d665 86bd
00000390: c53f 24bf 580c febe 1540 403f 592b 9b3f
000003a0: 26f6 e1be 1ce7 57bf 1439 20bf 269c c73f
000003b0: 8bf9 123e 9064 f3bd 8631 dc3f aee8 01bf
000003c0: 71c2 00bf 69c7 d5be e376 0dbf 1bba acbe
000003d0: 6c55 cdbe 06ea 91bd 2c28 aebf c24f 50bc
000003e0: 3389 11bf acea b8be 4a0f 88bf 2af6 13bf
000003f0: f339 00bf 775b 1ebf 77c8 d43f c120 e6be

fc3.bias f4 [4]
-0.01347149 0.2754652 0.2963473 0.04336084
00000000: 86b7 5cbc c609 8d3e d5ba 973e 239b 313d
