09_actor_critic/ddpg/ddpg-bipedal/checkpoint_actor.pth (torch_old, 30497 bytes, 4 tensors)

fc1.weight f4 [256, 24]
-0.029313356 -0.012876816 0.05469259 -0.008308962 0.03601987 -0.021657988 0.026530728 0.02925399
-0.06112794 -0.045641348 -0.046932526 0.03102544 -0.006347142 -0.054825507 0.028746247 -0.03666459
0.041901134 0.028187923 0.0016928688 0.06119939 -0.04465098 -0.022367 0.0010919124 0.0038923174
0.05675882 0.023698203 -0.034001254 0.056288607 -0.020889401 -0.041123673 0.048353396 0.023337506
0.013412021 0.05173547 0.0133164 -0.010812767 -0.007960476 -0.06094186 -0.061220534 -0.04317745
-0.04141189 -0.035756327 0.045831606 0.019635856 0.040246844 -0.02451402 0.044389993 -0.029308707
-0.20066154 -0.191503 0.20316291 -0.18775903 0.044739697 -0.018420538 -0.12751557 0.13084708
-0.03809647 0.0033210882 0.07456268 -0.046048157 0.09459532 -0.04907571 -0.08431819 -0.08989189
0.016794767 -0.0051104645 -0.052993145 -0.026820354 0.013821655 -0.05820188 0.02727038 0.08469638
-0.025160804 0.012141213 -0.00757695 -0.059041142 -0.04707014 -0.015827015 -0.0024180785 -0.019299388
-0.045869797 0.007099971 -0.04531098 -0.013189651 -0.019637652 0.055333003 -0.050623946 -0.023539223
0.0077045932 -0.036745496 0.016227998 -0.055264108 -0.060478136 -0.058495775 0.04667101 -0.023636535
0.0011174373 0.036492474 -0.19698136 -0.042391088 0.008753232 0.08247597 0.042216472 0.09462554
0.04173231 -0.026961228 -0.054439843 0.051562347 0.07415094 -0.026855165 0.13043474 0.083669804
0.1730332 0.105233125 0.17906553 0.15621008 0.15480666 0.13150999 0.15537472 0.057223786
-0.003238596 -0.01906088 -0.055711888 0.059724465 0.038436443 -0.02472888 -0.012472205 -0.060138203
-0.029600084 -0.030775644 -0.019998655 0.042711444 -0.041655734 0.04310912 -0.01289627 -0.03701351
-0.048551515 -0.03931246 -0.01628203 -0.057279676 0.058113523 0.056177437 -0.042401917 -0.035460673
0.049782008 0.018437833 0.00061088055 0.00053002685 0.0028918907 -0.050151967 0.0023057386 0.03399568
0.058960743 0.038690597 -0.016359866 0.002629742 -0.005007118 0.02135405 0.038721748 -0.026718311
0.037439957 -0.017724074 -0.057044156 -0.020643204 0.057106026 0.021116719 0.057723552 -0.05867981
-0.19969909 -0.21612185 0.24330378 -0.23138697 -0.019075334 0.05910535 -0.053733435 0.16951329
-0.027469685 0.023584794 0.10563965 -0.08534898 0.08675725 -0.006990558 -0.040051866 0.04318032
0.016682945 -0.027882839 0.009728685 -0.03733451 0.0038408656 -0.011607983 0.02595044 0.032706216
0.124263346 0.12391475 -0.24999513 0.030990837 0.06036891 0.030413778 0.13430777 -0.049410086
0.07532319 0.041407745 -0.10083228 0.09924981 -0.02216373 0.07063911 0.11654774 0.20480938
0.09568971 0.13666095 0.097541384 0.09421754 0.14279792 0.20704651 0.20832272 0.028384738
-0.15933536 -0.2313337 0.24984665 -0.21451454 -0.011140187 -0.019505085 -0.08399878 0.181696
0.072181195 -0.02432138 0.1599689 -0.11333762 0.0655161 0.0025576781 -0.055494003 -0.07580776
-0.04868787 0.00764628 -0.019867321 0.004816809 -0.05271555 0.0339947 -0.031240037 0.07240279
0.022751138 -0.02308403 -0.05519826 0.01994542 -0.024670087 -0.039826125 -0.011740491 -0.048520476
0.01552017 0.027474895 -0.023103207 0.0069239587 0.03296572 0.023783445 -0.04424864 0.02189067
00000000: 9022 f0bc 48f9 52bc 5605 603d 5022 08bc
00000010: 9289 133d 186c b1bc f856 d93c 10a6 ef3c
00000020: 4a61 7abd 6cf2 3abd 523c 40bd 1029 fe3c
00000030: b0fb cfbb b690 60bd 407d eb3c 9c2d 16bd
00000040: 86a0 2b3d 5cea e63c 40e3 dd3a 36ac 7a3d
00000050: f2e3 36bd 003b b7bc 801e 8f3a 4016 7f3b
00000060: f07b 683d bc22 c23c e644 0bbd e28e 663d
00000070: 4020 abbc 4c71 28bd 360e 463d 4c2e bf3c
00000080: 18be 5b3c 92e8 533d 082d 5a3c 0828 31bc
00000090: a86c 02bc 2c9e 79bd 62c2 7abd d6da 30bd
000000a0: 849f 29bd 3a75 12bd ecb9 3b3d 60db a03c
000000b0: e0d9 243d a0d1 c8bc 48d2 353d d018 f0bc
000000c0: 387a 4dbe 5d19 44be f009 503e e743 40be
000000d0: f940 373d abe6 96bc 7193 02be c7fc 053e
000000e0: 0b0b 1cbd 9da6 593b 52b4 983d fe9c 3cbd
000000f0: 31bb c13d 9d03 49bd 04af acbd 3d19 b8bd
00000100: 2e95 893c af75 a7bb 570f 59bd 5cb6 dbbc
00000110: 3974 623c 1865 6ebd 2266 df3c 4c75 ad3d
00000120: 081e cebc f0eb 463c 1048 f8bb 20d5 71bd
00000130: 9ecc 40bd a8a7 81bc a078 1ebb c019 9ebc
00000140: f8e1 3bbd e0a6 e83b 0298 39bd 6819 58bc
00000150: 24df a0bc dca4 623d 0e5b 4fbd 54d5 c0bc
00000160: d076 fc3b 7282 16bd 94f0 843c 9e5c 62bd
00000170: ecb7 77bd 4499 6fbd 1a2a 3f3d 68a1 c1bc
00000180: f976 923a 2279 153d 7bb5 49be 47a2 2dbd
00000190: b769 0f3c 29e9 a83d 2eeb 2c3d 09cb c13d
000001a0: 80ef 2a3d cbdd dcbc 50fc 5ebd 0a33 533d
000001b0: 73dc 973d 5dff dbbc af90 053e 135b ab3d
000001c0: 9d2f 313e 7784 d73d f45c 373e 89f5 1f3e
000001d0: a385 1e3e 8eaa 063e 8d1a 1f3e 7d63 6a3d
000001e0: a03e 54bb 9025 9cbc 2632 64bd a4a1 743d
000001f0: 886f 1d3d 3894 cabc 3858 4cbc 7a53 76bd
00000200: e07b f2bc 341d fcbc 38d4 a3bc 32f2 2e3d
00000210: 349f 2abd 3093 303d e04a 53bc 7a9b 17bd
00000220: f4dd 46bd 1a06 21bd e461 85bc 189e 6abd
00000230: 7208 6e3d 501a 663d a2ad 2dbd 363f 11bd
00000240: 38e8 4b3d f00a 973c 8023 203a 80f1 0a3a
00000250: e085 3d3b 266c 4dbd e01b 173b 0e3f 0b3d
00000260: d280 713d 087a 1e3d 2005 86bc c057 2c3b
00000270: c012 a4bb b0ee ae3c b29a 1e3d 5ce0 dabc
00000280: a45a 193d 1432 91bc 22a7 69bd f01b a9bc
00000290: 02e8 693d f8fc ac3c 886f 6c3d 3e5a 70bd
000002a0: eb7d 4cbe 0c4f 5dbe a024 793e b5f0 6cbe
000002b0: e043 9cbc 7418 723d 9717 5cbd e494 2d3e
000002c0: 1b08 e1bc e634 c13c 9a59 d83d 72cb aebd
000002d0: c9ad b13d 0d11 e5bb 6d0d 24bd d9dd 303d
000002e0: acaa 883c 8d6a e4bc 1065 1f3c 12ec 18bd
000002f0: 08b7 7b3b 692f 3ebc 0496 d43c f4f6 053d
00000300: c87d fe3d 04c7 fd3d b9fe 7fbe 7fe0 fd3c
00000310: 6445 773d 5126 f93c fa87 093e 3b62 4abd
00000320: 0b43 9a3d 2b9b 293d 2881 cebd 7c43 cb3d
00000330: b690 b5bc 3dab 903d 95b0 ee3d 8db9 513e
00000340: f7f8 c33d d9f0 0b3e c7c3 c73d 20f5 c03d
00000350: 9e39 123e 0004 543e 8d52 553e 1c87 e83c
00000360: cf28 23be bee2 6cbe cdd7 7f3e b3a9 5bbe
00000370: 5585 36bc 21c9 9fbc 8d07 acbd 840e 3a3e
00000380: bcd3 933d a13d c7bc e3ce 233e 8e1d e8bd
00000390: 4e2d 863d b89e 273b ae4d 63bd 1941 9bbd
000003a0: ef6c 47bd a58d fa3b cbc0 a2bc 53d6 9d3b
000003b0: 43ec 57bd 073e 0b3d 1beb ffbc ea47 943d
000003c0: 9860 ba3c b81a bdbc 9217 62bd 9464 a33c
000003d0: ec18 cabc b820 23bd 305b 40bc 68bd 46bd
000003e0: 5048 7e3c 0813 e13c f042 bdbc 60e2 e23b
000003f0: 1007 073d 80d5 c23c 103e 35bd 1054 b33c

fc1.bias f4 [256]
-0.19070454 -0.11631114 0.23470873 -0.037609383 0.124494195 -0.16849235 -0.15842094 0.025699297
0.03821809 0.053739868 -0.11847679 0.011687575 -0.018788699 -0.14245999 0.1607175 -0.08266979
-0.042559862 0.070973575 -0.15984853 -0.09125936 0.170225 -0.075786196 0.22616063 0.26376852
-0.060907498 0.12728587 0.20459178 -0.07892225 -0.09783096 0.123998605 0.03196311 0.2661631
0.30761355 0.098691106 0.21094649 -0.13377303 0.0074214176 0.06036241 0.10662833 -0.09141083
0.0784782 -0.05333678 0.30285692 0.19438696 -0.015957654 -0.070359476 -0.11305578 0.023527103
-0.0361934 0.07247895 0.14655748 -0.12359323 -0.10592148 0.16813944 0.09723913 -0.14334685
-0.055176556 -0.09489867 0.00010379262 0.28750354 0.09092567 0.091970205 0.20066206 -0.022999559
0.20260556 0.23468879 0.120052025 0.01954759 0.055677697 0.15415893 -0.1651965 0.09786634
0.11263353 0.23820323 -0.018613823 0.16758107 -0.08191867 -0.07476084 -0.12658697 0.26228896
0.12460384 -0.19287488 -0.12112187 -0.18520306 0.0982643 0.3395001 -0.074255735 0.037717137
0.002250522 0.15081936 -0.035812 -0.18279102 0.093933284 0.057898983 0.013255025 0.29049125
0.11227411 -0.20016813 -0.11807448 -0.039137855 0.018596573 0.37485516 -0.061936706 0.08274985
-0.058662035 0.09071813 0.18482123 0.12875722 0.071798645 -0.09988604 -0.14365365 -0.15235272
-0.19804603 -0.096051596 -0.14475332 0.19053443 -0.19534232 0.29820433 -0.034383006 0.12653327
-0.005350684 0.056325477 0.16452853 0.08354683 0.0015820612 0.05771083 -0.009227299 0.2923292
0.29379445 0.28822845 0.18622153 0.18226458 -0.11701333 -0.007446202 -0.062053565 -0.0750791
0.29706788 0.0026375356 -0.13493052 0.077368446 0.17890757 0.14939176 0.054258715 0.23156841
0.13311404 0.278545 0.31858474 0.13722709 -0.04899972 0.3081359 0.20984077 -0.041159324
0.044123884 -0.16346583 0.18774335 -0.0057529192 -0.1738969 0.11799644 -0.12909073 -0.08224987
-0.18705153 -0.15190272 0.21224855 0.122569546 0.1836327 0.21431233 0.030315243 0.26585558
-0.084215425 0.28386545 -0.017520608 -0.03419453 -0.05485741 0.012407967 0.16370387 -0.07145098
0.23861937 -0.06183747 0.2549667 0.34231025 -0.12323317 0.136289 0.25653812 0.1128841
-0.15828678 0.13938805 -0.01595279 -0.0025862355 0.2686034 0.25086576 0.15975983 -0.12462585
-0.11476053 0.1045531 0.2277709 -0.14796439 -0.08860674 -0.17436871 0.16345543 -0.06541149
0.16327585 -0.12809178 0.049216356 -0.19746709 -0.09327421 0.06854841 -0.08625669 0.065096684
-0.09144628 0.046335634 -0.03292798 0.11527174 0.19794653 -0.13470122 -0.005224786 -0.07552453
0.04499313 0.104585625 -0.096403554 0.12123076 0.14611946 0.09658827 -0.1849756 -0.16308068
-0.0051598125 -0.15366901 -0.18429497 -0.08739928 0.02138178 0.1485075 0.2527418 -0.11598037
-0.035516713 0.29780203 -0.18932724 -0.18502922 0.13352613 -0.04127796 0.20607366 0.36919707
0.06295485 -0.16066104 0.12500867 -0.00019066564 0.06406679 0.063196555 0.25564754 0.22121286
0.2649204 0.10624881 0.14303662 -0.1397626 -0.029270371 0.09587829 0.06883944 0.34642732
00000000: 0d48 43be 8934 eebd 7c57 703e 4c0c 1abd
00000010: d0f6 fe3d 4289 2cbe 1939 22be 5587 d23c
00000020: 928a 1c3d 561e 5c3d f6a3 f2bd 3e7d 3f3c
00000030: c2ea 99bc 08e1 11be 2193 243e c74e a9bd
00000040: 4053 2ebd 985a 913d 55af 23be 30e6 babd
00000050: 764f 2e3e cb35 9bbd a796 673e ab0c 873e
00000060: 247a 79bd 3a57 023e 8280 513e fda1 a1bd
00000070: 995b c8bd fbf2 fd3d c0eb 023d 8846 883e
00000080: 867f 9d3e 901e ca3d 5b02 583e ccfb 08be
00000090: 5d2f f33b 933e 773d f45f da3d 9a35 bbbd
000000a0: 2eb9 a03d ab77 5abd 1010 9b3e 600d 473e
000000b0: a0b9 82bc a118 90bd ca89 e7bd e9bb c03c
000000c0: 883f 14bd d86f 943d 2a13 163e 731e fdbd
000000d0: 5ced d8bd bf2c 2c3e 4f25 c73d 84c9 12be
000000e0: d000 62bd 3c5a c2bd 3dab d938 aa33 933e
000000f0: 3d37 ba3d e05a bc3d 5b7a 4d3e 9269 bcbc
00000100: d577 4f3e 4252 703e d6dd f53d 4422 a03c
00000110: 4c0e 643d d7db 1d3e 4529 29be 266e c83d
00000120: 68ac e63d 8ceb 733e 047c 98bc 5f9a 2b3e
00000130: fac4 a7bd 361c 99bd 04a0 01be bd4a 863e
00000140: 4c30 ff3d fe80 45be be0e f8bd dfa5 3dbe
00000150: cb3e c93d f5d2 ad3e 6413 98bd 497d 1a3d
00000160: 7e7d 133b 6470 1a3e 9baf 12bd 922d 3bbe
00000170: 1860 c03d 7c27 6d3d 9b2b 593c 45bb 943e
00000180: f8ef e53d e0f8 4cbe 08d1 f1bd 044f 20bd
00000190: d757 983c 04ed bf3e 58b1 7dbd c178 a93d
000001a0: 9a47 70bd 6dca b93d c741 3d3e efd8 033e
000001b0: 2b0b 933d 0d91 ccbd f119 13be 5a02 1cbe
000001c0: 94cc 4abe b3b6 c4bd 373a 14be 751b 433e
000001d0: d107 48be 3dae 983e 32d5 0cbd f091 013e
000001e0: ca54 afbb 8bb5 663d 2b7a 283e 9a1a ab3d
000001f0: 2a5d cf3a 3162 6c3d 192e 17bc 2cac 953e
00000200: 3a6c 963e ae92 933e dbb0 3e3e 91a3 3a3e
00000210: afa4 efbd 45ff f3bb e12b 7ebd 12c3 99bd
00000220: 4819 983e 81da 2c3b 3a2b 0abe 5973 9e3d
00000230: 8c33 373e 27fa 183e 633e 5e3d 4520 6d3e
00000240: 0c4f 083e 739d 8e3e 8a1d a33e 4285 0c3e
00000250: eeb3 48bd fdc3 9d3e 80e0 563e ae96 28bd
00000260: 3fbb 343d 9663 27be cb3f 403e fc82 bcbb
00000270: 0712 32be 1ea8 f13d 5c30 04be 9f72 a8bd
00000280: 708a 3fbe 638c 1bbe af57 593e be05 fb3d
00000290: 360a 3c3e b174 5b3e ac57 f83c 391e 883e
000002a0: 2379 acbd d056 913e 6187 8fbc 900f 0cbd
000002b0: 2ab2 60bd c94a 4b3c fda1 273e e454 92bd
000002c0: a358 743e 4949 7dbd ff8a 823e 4a43 af3e
000002d0: ac61 fcbd 588f 0b3e f758 833e c72f e73d
000002e0: ee15 22be bebb 0e3e 6daf 82bc d57d 29bb
000002f0: 6386 893e 7a71 803e 1598 233e d63b ffbd
00000300: 9207 ebbd f01f d63d c63c 693e fa83 17be
00000310: 7377 b5bd b68d 32be dc60 273e 76f6 85bd
00000320: c931 273e 7e2a 03be 1797 493d d034 4abe
00000330: 8d06 bfbd 1c63 8c3d 59a7 b0bd 6951 853d
00000340: 3048 bbbd 6fca 3d3d 7ddf 06bd 9713 ec3d
00000350: 7fb2 4a3e 1eef 09be ae34 abbb 9bac 9abd
00000360: b74a 383d fd30 d63d 3a6f c5bd d547 f83d
00000370: 57a0 153e 12d0 c53d 3e6a 3dbe 9ffe 26be
00000380: a513 a9bb 695b 1dbe d2b7 3cbe 65fe b2bd
00000390: d828 af3c 5a12 183e 6067 813e 1e87 edbd
000003a0: f979 11bd 8279 983e 00df 41be 4d78 3dbe
000003b0: 13bb 083e 1413 29bd f904 533e 6607 bd3e
000003c0: 79ee 803d 5484 24be 4602 003e 6bed 47b9
000003d0: 7335 833d 326d 813d 3ce4 823e a085 623e
000003e0: a6a3 873e fa98 d93d 3178 123e ed1d 0fbe
000003f0: 6bc8 efbc d65b c43d b1fb 8c3d ec5e b13e

fc2.weight f4 [4, 256]
-0.001195295 0.0013538883 -0.033455905 -0.0011385169 -0.07866232 0.002397074 -0.0005853416 -0.03569585
-0.12975089 -0.048452225 0.0019218153 -0.15536104 -0.16899073 -0.17888354 -0.010285251 -0.11145319
-0.039357275 -0.06501716 -0.0027350453 -0.19835037 -0.033544794 -0.22697015 -0.05591618 -0.020745985
-0.22096504 -0.023668656 -0.023403846 -0.092407845 -0.13333689 -0.07808817 -0.13103254 -0.043073162
-0.05392843 -0.17303188 -0.019857088 -0.11921022 -0.15285958 0.023642994 -0.15651493 -0.17700763
-0.104630895 -0.19351585 -0.053332567 -0.105817445 -0.14040585 -0.15544355 -0.0025667557 0.03817687
-0.12334305 -0.07397289 -0.13432668 -0.17368583 0.0004892099 -0.16996953 -0.07060491 -0.0008150565
-0.13756958 0.00090174354 -0.21665144 -0.04278207 -0.14509065 -0.11790201 -0.027972242 -0.14240152
-0.08218853 -0.059399854 -0.04352861 -0.12887606 -0.082161956 -0.106830224 -0.001943534 -0.09317023
-0.038121462 -0.023084309 -0.18357766 -0.091875225 -0.039106 -0.116797544 -0.1711548 -0.024820052
-0.024818862 -0.0012995146 -0.11464509 0.0011136434 -0.076238625 -0.14438763 0.0018772571 -0.039018977
-0.13418487 -0.024200005 -0.10323588 -0.00048671616 -0.14548035 -0.09845266 -0.16888638 -0.08812731
-0.052162863 0.0020108558 -0.1480963 -0.14347439 -0.094497025 -0.14561261 0.00032837316 -0.11654898
-0.18530191 -0.034764897 -0.059105292 -0.046259712 -0.15413809 -0.12667459 -0.10982899 0.0007117684
-0.0014269052 -0.102017716 -0.12771817 -0.12159474 -0.0014856152 -0.041390147 -0.019215608 -0.061662856
-0.12595578 -0.14521085 -0.0386567 -0.14847617 -0.12791406 -0.10281145 -0.15802784 -0.032237954
-0.048845317 -0.025729757 -0.10379416 -0.02534946 -0.17045377 -0.14640856 -0.22152512 -0.1341762
-0.051196016 -0.112651974 -0.16211206 -0.15775199 -0.08383471 -0.032402694 -0.109809965 -0.044014677
-0.026596379 -0.10021154 -0.13499 -0.156223 -0.11278843 -0.052677274 -0.11001831 -0.11956525
-0.13429275 0.0028931512 -0.048282534 -0.12830412 0.0013499479 -0.10865175 -0.0025763093 -0.037957683
-0.00036523282 -0.0044748774 -0.053112727 -0.060939815 -0.12340373 -0.099549696 -0.023295173 -0.10436924
0.009542792 -0.10606759 -0.15889122 -0.122119434 -0.102766626 -0.145134 -0.15440445 -0.0013457977
-0.03502263 -0.17756483 -0.033826634 -0.10090223 0.0015128353 0.000553522 -0.016031926 -0.08000293
5.1059294e-05 -0.13230261 -0.06466569 -0.14112924 -0.04608659 -0.045628607 -0.0936912 -0.0051295436
-0.118691 -0.02634495 -0.023314625 -0.0025910572 -0.11177151 -0.12212762 -0.065696545 -0.050568555
-0.04472404 -0.0061601996 -0.039056778 0.0007034973 -0.13483563 -0.021278122 -0.0005325966 -0.15419944
-0.16838698 -0.15622258 -0.14317338 -0.12892355 -0.03291081 0.0018296004 -0.19944398 -0.118128724
-0.10382375 -0.082240336 -0.14450824 -0.101398595 -0.07402293 -0.16196737 -4.9786177e-05 -0.00096931914
-0.13708678 -0.10016165 0.00065973355 -0.17704049 -0.18914084 -0.07494608 -0.041550636 -0.13449913
-0.17051268 -0.08564953 0.0026355502 -0.0026256833 -0.06759128 -0.14467858 -0.02800125 -0.1235257
-0.016857589 -0.00041016098 -0.17495094 -0.1328168 -0.10576989 -0.07269094 -0.07437565 -0.16352598
-0.08219068 -0.14206992 -0.1351402 0.0004804358 -0.016140735 -0.13948785 -0.11235108 -0.14177418
00000000: 72ab 9cba f474 b13a 0f09 09bd 4a3a 95ba
00000010: b619 a1bd 3a18 1d3b 9c71 19ba d035 12bd
00000020: 6bdd 04be d775 46bd 6ce5 fb3a f716 1fbe
00000030: e80b 2dbe 3f2d 37be 7883 28bc 9241 e4bd
00000040: 1835 21bd b727 85bd 723e 33bb 5c1c 4bbe
00000050: 4466 09bd dd6a 68be 5d08 65bd 7cf3 a9bc
00000060: a944 62be c5e4 c1bc 6cb9 bfbc 5340 bdbd
00000070: 7789 08be b1ec 9fbd 652d 06be 7c6d 30bd
00000080: 0fe4 5cbd 452f 31be 55ab a2bc 7d24 f4bd
00000090: 3987 1cbe f4ae c13c 7345 20be 7d41 35be
000000a0: b948 d6bd 0529 46be 4073 5abd d1b6 d8bd
000000b0: 8dc6 0fbe 982c 1fbe 0437 28bb 5a5f 1c3d
000000c0: 489b fcbd 197f 97bd ef8c 09be b3da 31be
000000d0: 523e 003a 7e0c 2ebe 4f99 90bd 84a9 55ba
000000e0: 0adf 0cbe fc62 6c3a e0d9 5dbe 403c 2fbd
000000f0: a592 14be 9c76 f1bd 0b26 e5bc b4d1 11be
00000100: 7652 a8bd 434d 73bd 0e4b 32bd 16f8 03be
00000110: 8744 a8bd cec9 dabd 2ebe feba 09d0 bebd
00000120: 4025 1cbd 4e1b bdbc c8fb 3bbe 1429 bcbd
00000130: 9d2d 20bd 8d33 efbd 3443 2fbe 6c53 cbbc
00000140: ed50 cbbc 7954 aaba 0ccb eabd acf7 913a
00000150: ff22 9cbd 5ada 13be 4c0e f63a 5dd2 1fbd
00000160: c267 09be 173f c6bc 556d d3bd f02d ffb9
00000170: cdf8 14be 8ca1 c9bd 8df0 2cbe 177c b4bd
00000180: baa8 55bd 90c8 033b 8ea6 17be f3ea 12be
00000190: a887 c1bd 791b 15be 8029 ac39 3bb1 eebd
000001a0: c9bf 3dbe a365 0ebd 6418 72bd d37a 3dbd
000001b0: 60d6 1dbe fcb6 01be 06ee e0bd f895 3a3a
000001c0: fe06 bbba aaee d0bd 8dc8 02be aa06 f9bd
000001d0: f9b8 c2ba b788 29bd 0d6a 9dbc 3192 7cbd
000001e0: 8dfa 00be 27b2 14be 7d56 1ebd 230a 18be
000001f0: e7fb 02be cf8e d2bd 0dd2 21be f20b 04bd
00000200: 0712 48bd 36c7 d2bc 0892 d4bd aca9 cfbc
00000210: 6f8b 2ebe 20ec 15be 7bd7 62be 7c65 09be
00000220: eab2 51bd 14b6 e6bd b400 26be bd89 21be
00000230: 88b1 abbd b0b8 04bd 0ce4 e0bd bc48 34bd
00000240: a6e0 d9bc b53b cdbd d23a 0abe ecf8 1fbe
00000250: 9ffd e6bd 20c4 57bd 4851 e1bd a0de f4bd
00000260: 0a84 09be 069b 3d3b e8c3 45bd 2862 03be
00000270: bcf0 b03a cf84 debd 4cd7 28bb 8479 1bbd
00000280: b87c bfb9 fea1 92bb bb8c 59bd 079c 79bd
00000290: 18bb fcbd b6e0 cbbd 85d5 bebc 8abf d5bd
000002a0: 5f59 1c3c f739 d9bd 61b4 22be c119 fabd
000002b0: 4f77 d2bd 029e 14be 331c 1ebe 7a65 b0ba
000002c0: e473 0fbd 8ed3 35be cc8d 0abd d4a5 cebd
000002d0: 544a c63a 3c1a 113a 6355 83bc 93d8 a3bd
000002e0: 8028 5638 567a 07be 726f 84bd 2f84 10be
000002f0: 4bc5 3cbd 10e5 3abd 2ce1 bfbd bb15 a8bb
00000300: 4414 f3bd 5dd1 d7bc 50fe bebc bace 29bb
00000310: 76e8 e4bd 0c1e fabd e98b 86bd f920 4fbd
00000320: 8e30 37bd 80db c9bb 00fa 1fbd e86a 383a
00000330: 5a12 0abe 754f aebc f49d 0bba 75e6 1dbe
00000340: a36d 2cbe d0f8 1fbe 0b9c 12be 8904 04be
00000350: 7ccd 06bd 34cf ef3a 0b3b 4cbe 79ed f1bd
00000360: 8ca1 d4bd 9f6d a8bd f8f9 13be 11aa cfbd
00000370: 5599 97bd c6da 25be 80d1 50b8 e819 7eba
00000380: 7a60 0cbe 8d21 cdbd f8f1 2c3a 1a4a 35be
00000390: 23ae 41be 557d 99bd 0031 2abd 24ba 09be
000003a0: e09a 2ebe 0569 afbd 32b9 2c3b a813 2cbb
000003b0: 4c6d 8abd 9f26 14be e162 e5bc 0bfb fcbd
000003c0: ed18 8abc e00a d7b9 5726 33be 2101 08be
000003d0: e29d d8bd fdde 94bd 4352 98bd 5b73 27be
000003e0: 9653 a8bd c77a 11be 3162 0abe 00e3 fb39
000003f0: 9339 84bc e7d5 0ebe 5318 e6bd 402d 11be

fc2.bias f4 [4]
-0.0067022364 0.1583116 -0.010994271 -0.023557445
00000000: 6f9e dbbb 701c 223e 5121 34bc 8bfb c0bc
