09_actor_critic/ddpg/ddpg-bipedal/checkpoint_actor.pth (torch_old, 30497 bytes, 4 tensors)

fc1.weight f4 [256, 24]
000000 01 31 62 be d3 c7 ef be 6e 15 ac 3e 7d b0 3f 3e
       -0.22089006 -0.4683214 0.336101 0.18719669
000010 98 2f 0a 3e f3 05 f5 bd a9 73 7b 3e 5b e0 81 bd
       0.13494718 -0.11964025 0.2455584 -0.063416205
000020 79 4d e6 bd 4f 19 2a be 0c 54 35 be cc 96 5b 3e
       -0.112452455 -0.16611217 -0.17707843 0.21444243
000030 f1 c7 a4 bc d9 14 17 bf e3 f9 db 3d f3 91 2b 3d
       -0.02011487 -0.59016186 0.107410215 0.041887235
000040 a5 50 f6 3d 96 ca d9 3d 8b c0 a2 3d 76 fe 0d 3e
       0.120271005 0.10634343 0.07946881 0.138666
000050 25 e1 05 3d 22 6b 62 3d a8 db 53 3d 80 88 4d 3d
       0.032685418 0.05527795 0.051723152 0.050179005
000060 be c3 cc 3e fc cf 24 bd 83 4e 19 3b 4d 3c c6 bc
       0.3999309 -0.04023741 0.0023392744 -0.024198676
000070 28 ef 76 3c 47 b7 89 be 21 da 86 bc 35 05 53 3d
       0.015071668 -0.26897642 -0.016461434 0.051518638
000080 41 a7 ae 3e af d9 fb bd 45 58 80 3e e9 ca e1 bd
       0.3411198 -0.12297379 0.25067344 -0.1102503
000090 82 9d 09 be 38 2f 33 be dc 92 48 3e 9f b2 5b 3e
       -0.1343899 -0.17498481 0.19587272 0.21454857
0000a0 e7 0a 5e 3e 8c 85 64 3e 01 cd 9c 3e 4f 97 90 3e
       0.21683846 0.22316569 0.30625156 0.2824044
0000b0 7f c0 9b 3e 69 91 76 3e 60 1b 98 3e ea d2 79 3e
       0.304203 0.24078907 0.29708385 0.24396864
0000c0 e8 54 8b bf 7e 77 5d bf ad 0d 9c 3f 53 97 00 bf
       -1.0885286 -0.86510456 1.2191674 -0.502309
0000d0 5a b9 b3 3d 64 1f 87 bc 7a c3 d7 3e cb 2f a2 bd
       0.087755874 -0.01649446 0.42141324 -0.07919272
0000e0 57 84 89 be eb 31 61 3e b9 96 d0 3c 7a bf 42 bc
       -0.2685878 0.21991698 0.025462495 -0.011886472
0000f0 60 39 87 3d 29 6f 91 3d d5 cb 16 bd 3d 58 2e bd
       0.0660274 0.0710128 -0.036815483 -0.04256462
000100 a5 c6 82 3d 39 bd 2a 3d 26 f3 c9 bb ac 7d a8 3c
       0.06385545 0.041684363 -0.0061630188 0.020567738
000110 ea 1f 77 3d 00 1e 96 bc b8 c5 59 3d f8 63 86 3d
       0.06033317 -0.018324852 0.053167075 0.06562036
000120 bd 6a 51 be c7 66 3d 3e 5f 9d 54 3d 4f d3 91 bf
       -0.20450874 0.18496238 0.051907893 -1.1392611
000130 08 9a 60 be 29 fa a9 bd 7f e6 e1 3d 94 b1 75 be
       -0.21933758 -0.082996674 0.11030292 -0.23993522
000140 4d 76 7a 3e 0d b3 bb be 86 d9 db be a6 f0 af bd
       0.2445919 -0.36660042 -0.42939395 -0.08590822
000150 9e 5f f2 bd e7 45 bd 3c e6 bd b7 3d 4f e6 ed 3d
       -0.11834644 0.023104621 0.08971767 0.116161935
000160 bc 66 16 3e 95 f5 d0 3d ef 38 1e 3e ee e4 a7 3d
       0.14687628 0.10203091 0.15451406 0.08197962
000170 56 a1 99 3d c2 d8 8f 3d 83 b5 29 3e 69 86 aa 3d
       0.075014755 0.07023765 0.16573147 0.08326418
000180 7d 10 90 bd be 0a ac 3e fe 1a 5c be 59 35 bd 3e
       -0.07034395 0.33601946 -0.21494672 0.36954764
000190 6c 93 4a 3e c5 b8 61 bd df 46 ee bd 91 21 8b 3d
       0.197828 -0.05510785 -0.11634611 0.06793512
0001a0 dd 23 13 3e 3f 99 1c 3e 30 74 30 3e 6a 6b 5c 3e
       0.1436915 0.15292834 0.17231822 0.2152535
0001b0 3e 71 e1 3d 44 f7 fb bd d8 9d 07 3e 14 2d b1 3d
       0.11007927 -0.123030216 0.13243806 0.08651176
0001c0 8b d7 34 3e a0 55 e0 3d 9e 88 3c 3e 8b 17 26 3e
       0.17660348 0.10953832 0.1841149 0.16219918
0001d0 fa b6 25 3e 52 4f 0f 3e 07 0c 48 3e 32 0b 38 3d
       0.16183081 0.13995102 0.19535838 0.04493255
0001e0 a0 3e 54 bb 90 25 9c bc 26 32 64 bd a4 a1 74 3d
       -0.003238596 -0.01906088 -0.055711888 0.059724465
0001f0 88 6f 1d 3d 38 94 ca bc 38 58 4c bc 7a 53 76 bd
       0.038436443 -0.02472888 -0.012472205 -0.060138203
000200 e0 7b f2 bc 34 1d fc bc 38 d4 a3 bc 32 f2 2e 3d
       -0.029600084 -0.030775644 -0.019998655 0.042711444
000210 34 9f 2a bd 30 93 30 3d e0 4a 53 bc 7a 9b 17 bd
       -0.041655734 0.04310912 -0.01289627 -0.03701351
000220 f4 dd 46 bd 1a 06 21 bd e4 61 85 bc 18 9e 6a bd
       -0.048551515 -0.03931246 -0.01628203 -0.057279676
000230 72 08 6e 3d 50 1a 66 3d a2 ad 2d bd 36 3f 11 bd
       0.058113523 0.056177437 -0.042401917 -0.035460673
000240 46 e7 a5 3e ae 1e 90 be 44 52 32 3c 87 20 05 be
       0.3240301 -0.28148407 0.0108838715 -0.1300069
000250 93 24 a6 bc 61 2a 09 be 59 6f 4d be eb da 5b 3d
       -0.020281112 -0.13395073 -0.20062007 0.053675573
000260 6c c6 d6 3e e6 b6 88 bd a5 1c 92 3e c6 ad f1 bd
       0.4194826 -0.0667551 0.2853748 -0.11800723
000270 af 85 bc bd 92 8c 4c 3d 30 ec 89 3e 80 6f 51 3e
       -0.092051856 0.049938746 0.2693801 0.2045269
000280 f8 cf 89 3e 80 c7 5b 3e 6b 1e 35 3e b3 0f 5d 3e
       0.2691648 0.21462822 0.17687385 0.2158802
000290 68 1b 97 3e 56 9c 85 3e 2f ff 90 3e 61 ac 48 3e
       0.29513097 0.26095837 0.2831969 0.19597007
0002a0 ca ce 12 bf 13 91 26 bf d1 b8 1d 3f 6a c2 c1 be
       -0.57346785 -0.65065116 0.6161013 -0.3784364
0002b0 53 4b 09 be 46 9f 1f 3b 70 7d d7 be 1e d5 80 3c
       -0.1340764 0.002435641 -0.4208789 0.015726622
0002c0 3b f4 41 3d fa cb 64 3e c8 a0 c6 3e 40 a8 31 3e
       0.047352057 0.22343436 0.3879454 0.17349339
0002d0 5e 23 22 bd c4 60 10 3e 99 f1 fc bd 8e b7 25 bd
       -0.03958451 0.14099413 -0.123507686 -0.040458255
0002e0 6e 83 89 bd 2f 61 e5 bd 96 e7 98 bd 82 56 fa bd
       -0.06714521 -0.11200177 -0.074660465 -0.12223531
0002f0 f4 59 aa bd ee 42 d9 bd 18 ba 90 bd ad 36 4f 3c
       -0.083179384 -0.10608469 -0.070667446 0.012647313
000300 04 ef 03 3e 3e fa 0b 3e f0 e1 75 be 7d fc b5 3e
       0.12884146 0.13669679 -0.2401197 0.35544196
000310 a9 cd 88 be e4 d4 9f bd be e9 74 3d a9 e0 4c bd
       -0.26719406 -0.078042775 0.059793226 -0.05001894
000320 ab 07 a8 bc 63 bb 6d be 1d 81 02 3e 74 d7 2e 3e
       -0.020511469 -0.23216014 0.12744565 0.17074376
000330 0c a8 87 3e 6e 1d 8d 3e 78 9a 77 3e bf a5 a8 3e
       0.26495397 0.27561516 0.24180019 0.32938954
000340 40 fd 60 3e f1 30 85 3e 2b 53 61 3e 24 0e 5c 3e
       0.21971607 0.26013902 0.22004382 0.21489769
000350 19 05 86 3e 9f 81 a4 3e 5e d0 aa 3e cc ea 03 bc
       0.26175764 0.32130143 0.33362097 -0.008051585
000360 4f 35 de be 70 f0 2e bf 11 0e 33 3f 7c 22 10 bf
       -0.43400046 -0.6833563 0.6994334 -0.5630262
000370 38 d1 ac 3d ed 21 05 be 79 f9 59 3e 11 fa 94 3d
       0.08438343 -0.13001223 0.21286573 0.07274259
000380 06 b3 41 3e 0c 4a e8 3d b0 22 06 3e 5a 4a 85 bd
       0.18915948 0.11342248 0.1309917 -0.06508322
000390 0c ae 0b be 2d 59 c9 bd b2 d9 3d 3d 1e 61 d1 3c
       -0.13640612 -0.09831462 0.04635019 0.025559004
0003a0 32 75 56 3d 2f 02 de 3d 37 fa a4 3d f7 72 d6 3d
       0.05235786 0.1084026 0.08055537 0.104711466
0003b0 18 b6 3f 3d 49 9b 0b 3e ae 84 ac 3c 4a e8 4a 3e
       0.046804518 0.13633455 0.02105936 0.19815174
0003c0 49 6f 7f 3d e9 65 3b be e1 b4 48 be 3e c4 de bd
       0.06236199 -0.18300594 -0.1960025 -0.10877274
0003d0 f3 d7 80 bd 50 41 3e be d7 53 17 be fd e3 95 be
       -0.06291189 -0.18579602 -0.14778076 -0.29275504
0003e0 1b c1 e3 3d 24 0f c2 bb f0 09 ce 3d a3 15 7a bd
       0.11120816 -0.005922215 0.10060489 -0.06105579
0003f0 8e ba e2 bd a9 02 cc 3e f6 62 ad 3e ec 5e cf 3e
       -0.11070739 0.3984578 0.33864564 0.40502107

fc1.bias f4 [256]
000000 16 44 33 be 1f c6 c6 3d 92 a9 3f 3e c5 16 61 3e
       -0.17506441 0.09705757 0.1871703 0.21981342
000010 53 49 33 3e 42 89 2c be 27 19 33 3d cb 50 97 bc
       0.1750844 -0.16849235 0.04372516 -0.018471142
000020 03 f2 b4 3d e5 22 ec 3d 16 03 1c 3e b1 06 14 be
       0.088352226 0.11530093 0.15235552 -0.14455678
000030 ab 30 a8 bc aa bc a4 be a9 0c 4a bd 5d a5 72 bc
       -0.02053102 -0.3217519 -0.04932848 -0.0148099335
000040 dd a0 39 3e 68 fb 83 3a a9 17 d3 bc e8 da 08 be
       0.1812777 0.0010069432 -0.025768118 -0.13364756
000050 f0 80 4d 3e 60 b9 f4 3c b3 d4 3c 3c 47 44 50 3e
       0.20068717 0.02987355 0.011525321 0.20338546
000060 2c 31 bb 3c 21 b7 00 3e 68 07 8b 3d e0 99 5c 3e
       0.022850595 0.12569858 0.06788522 0.21543074
000070 ea 15 2e be e8 1b 02 3d e2 39 87 3d 1b 4c 29 3e
       -0.17000547 0.031764895 0.06602837 0.16532938
000080 6f 0b be 3e 3b fc 8c bd 95 6a c8 3d b9 0e 9e be
       0.37118098 -0.06884047 0.09785954 -0.30870607
000090 b7 ff 98 bd ad 4c 39 3e fd 81 9f 3d dd b3 a3 be
       -0.07470649 0.18095656 0.07788465 -0.31973162
0000a0 3d 84 3d 3d c9 ff d2 bd 7f 38 b8 3e b5 85 36 3e
       0.04626869 -0.103026934 0.35980603 0.17824443
0000b0 60 6c 5a be 22 52 42 be ca 89 e7 bd c7 c9 88 3d
       -0.21330404 -0.18976644 -0.11305578 0.06679111
0000c0 b8 ef 2d be c0 44 1c 3d d8 30 37 3e 89 81 a1 be
       -0.16985977 0.038151503 0.17889726 -0.3154414
0000d0 48 17 ec 3d 38 a7 46 3d 14 34 15 3e 6f 8a b3 bd
       0.11527878 0.048499316 0.14570647 -0.087666385
0000e0 2b 36 aa bd 22 dd 5c bd 67 0a 1f be 19 9b 97 3e
       -0.08311113 -0.053921826 -0.15531312 0.29610518
0000f0 d5 73 91 3d e2 ae 61 3d 5c 88 03 3e dd cc 48 be
       0.07102171 0.055098422 0.12844986 -0.19609399
000100 34 ac 41 be dc 3e 4f 3e eb 6c dc 3d a1 99 a7 3c
       -0.18913347 0.20238823 0.10762962 0.020458998
000110 fb 45 e8 3d c3 0f 7a 3d 45 29 29 be 66 18 6f be
       0.11341473 0.061050188 -0.1651965 -0.23349151
000120 2a 64 8a 3d 05 ea 45 3e dd 14 27 be e3 09 72 3e
       0.06757386 0.19327553 -0.16316552 0.23636584
000130 2b b8 66 be 0c ee a4 be 04 27 98 be ee 4b b8 3e
       -0.22531192 -0.32212865 -0.29717267 0.3599543
000140 ff 03 f0 3c 03 92 47 be 94 0e ad be df a5 3d be
       0.02929878 -0.19489293 -0.33800185 -0.18520306
000150 cb 03 df bb e0 d4 82 3e 5f b5 03 3e c6 75 1f 3d
       -0.006805872 0.25553036 0.12862156 0.038930677
000160 b3 fc 40 bd 89 18 01 3e 4b f3 4b be 59 af 9d 3e
       -0.047115993 0.12607016 -0.19917028 0.30797842
000170 e0 1a 12 be 8c 50 49 3e 72 0f 40 3d 2d 28 0c 3d
       -0.14268064 0.19659632 0.04688973 0.034218002
000180 e1 59 f7 3d 1f 38 a1 be ac ac 2f be 84 1f a7 bc
       0.1207769 -0.3148813 -0.17155713 -0.02040077
000190 53 a9 86 3c b1 fd 89 3e bd e3 53 3e f0 61 49 be
       0.016438162 0.26951364 0.20692344 -0.19666266
0001a0 46 f2 ce be 39 18 82 3d a0 c1 60 3e 54 6e ce 3d
       -0.40419215 0.06352276 0.21948862 0.10079637
0001b0 3a 05 1f bd f3 4a d3 be 73 72 1b 3e 5a 02 1c be
       -0.038823344 -0.4126812 0.15180378 -0.15235272
0001c0 94 cc 4a be 78 c7 25 bd ba ce c6 bd fd e7 82 bd
       -0.19804603 -0.04047343 -0.09707399 -0.063919045
0001d0 d1 07 48 be 19 84 5e 3e 96 86 01 be 53 72 07 3e
       -0.19534232 0.21730079 -0.12648997 0.13227205
0001e0 4d 95 4b bd 68 6e 65 3d 09 36 6d 3e 2a 45 1a 3c
       -0.04970293 0.056013495 0.23165144 0.009415904
0001f0 e0 62 01 bd eb 67 9c 3d a0 3e fc bd 6b ce 9f 3e
       -0.031588435 0.07637008 -0.12316632 0.31212172
000200 3d 99 a9 3e dc c2 a6 3e dd 42 8a 3d 5a b1 5e 3e
       0.33124724 0.3257054 0.067510344 0.21747342
000210 2f dc 54 be b6 f0 f5 bd b9 4d 76 be da 0a 81 be
       -0.20787118 -0.120088026 -0.24053086 -0.25203592
000220 de 5f 6b bc 2d b9 fa bd d2 f7 52 be ba 29 d2 3d
       -0.014366118 -0.12242351 -0.20602348 0.10261865
000230 ca 5f 06 3e d6 41 40 3e 88 cc 81 bd cd 56 33 3e
       0.13122478 0.18775114 -0.06337839 0.1751358
000240 41 eb 01 3e aa 0d 93 3d db 7a 69 3e 1e 78 ff bd
       0.12687398 0.071803406 0.22800772 -0.124740824
000250 d7 92 4c be d2 a2 94 3e 13 7f cd bd db 81 98 be
       -0.1997789 0.29030472 -0.10034003 -0.29786572
000260 20 ff 0d 3c 96 63 27 be 3a 8f 7c 3b 42 6c 34 be
       0.008666784 -0.16346583 0.0038537518 -0.17619422
000270 07 12 32 be 86 41 31 3e f6 7c 96 be 5a 5b 57 3d
       -0.1738969 0.17310151 -0.29392213 0.052577354
000280 70 8a 3f be e5 47 1e be 58 ab 59 3d 62 64 e8 3d
       -0.18705153 -0.15457113 0.05314192 0.113472715
000290 9b 3e 45 bc 99 7b b6 3c 8f ff 26 3d a2 a0 b9 3d
       -0.012038852 0.022275733 0.040771063 0.090638414
0002a0 15 21 c3 3d 46 f9 68 3e af d4 84 bd 6c 21 5d bd
       0.09527794 0.2275134 -0.06485879 -0.05398695
0002b0 c1 9e 25 be 1d cb 78 be 83 71 1f 3e f6 13 98 3d
       -0.16173841 -0.24296232 0.15570645 0.07425682
0002c0 8a b7 1b 3e 65 63 3b be c3 84 14 3e e8 c7 8d 3e
       0.15206733 -0.18299635 0.1450377 0.2769158
0002d0 5e 7e b1 3d ab a7 60 3e 7e 6b 9a 3e 55 c2 5c 3e
       0.08666681 0.2193896 0.30160135 0.21558507
0002e0 ee 15 22 be b7 dd 3a 3e f9 6a 6b be f3 d9 61 be
       -0.15828678 0.1824864 -0.22990026 -0.22055797
0002f0 1a 49 71 3e 2e 01 6f 3e 5f 2e 1c 3e 02 fb 01 be
       0.23563042 0.23340294 0.15252064 -0.12693408
000300 74 23 93 be 98 98 4b 3e 80 0d c7 3d 20 a3 1a be
       -0.28737986 0.19882429 0.09719372 -0.1510129
000310 fe a0 aa 3d a3 64 01 bf d8 56 83 3e 27 03 a6 bd
       0.08331488 -0.50544184 0.25652194 -0.0810607
000320 71 ff dd 3d a4 68 e0 bc 43 40 fa bd f0 06 87 be
       0.10839737 -0.027393647 -0.12219288 -0.2637248
000330 de 13 ae be aa 20 98 3d a6 09 df bd 9c b0 10 3e
       -0.33999532 0.07428105 -0.10890512 0.14129871
000340 64 d1 18 be 6f 5b 3e 3d 30 ca ac be ae 75 d9 3d
       -0.14923626 0.046473917 -0.33748007 0.10618149
000350 66 f8 20 3e f5 3e 18 be e0 4a 60 be 18 d3 6c bd
       0.15719756 -0.14867766 -0.21903563 -0.057818502
000360 4a b3 e8 3c 44 b9 6e 3d 66 24 6b be e8 c1 24 be
       0.028405804 0.05828215 -0.22963104 -0.16089594
000370 c0 6b 18 3e 48 e5 4e 3e ea 6d 50 bd 9f fe 26 be
       0.14884853 0.20204651 -0.050886072 -0.16308068
000380 43 a0 27 bd 2a ae d6 3d ce 74 7a be 9a 44 57 be
       -0.04092432 0.10482438 -0.2445862 -0.21022263
000390 44 52 66 3c 45 c0 dc 3d 1d b4 67 3e b9 34 82 be
       0.0140577 0.1077886 0.22627302 -0.2543085
0003a0 89 35 fb 3c e8 67 df 3d 00 df 41 be 4d 78 3d be
       0.030665176 0.109084904 -0.18932724 -0.18502922
0003b0 37 c7 76 3e 83 9a 8b be 30 95 71 3e a5 7d 85 3e
       0.24099432 -0.2726632 0.23592067 0.26072422
0003c0 5f 62 11 3d 38 f9 67 3d 88 21 a8 3c 03 35 09 bc
       0.035494205 0.056634158 0.020523801 -0.008374455
0003d0 39 01 29 3e 06 29 22 3e 27 fe 59 3e 06 39 4e 3e
       0.16504373 0.15835962 0.21288358 0.2013894
0003e0 38 61 5a 3e 81 aa 33 be 57 bc 07 3e a6 01 f5 3b
       0.21326149 -0.17545511 0.1325544 0.007477003
0003f0 5e 2b 5c 3e e2 80 54 3c c7 c9 98 bd 32 ef 88 3e
       0.21500918 0.012970181 -0.07460361 0.26744992

fc2.weight f4 [4, 256]
000000 8b 27 22 3f 7d 99 76 3e f2 00 3f 3e 73 21 ad 3e
       0.6334159 0.24081989 0.18652704 0.33814582
000010 97 ff 1a 3e 3a 18 1d 3b 4c 54 62 3e 51 74 fa 3e
       0.15136562 0.002397074 0.22102469 0.48916867
000020 48 46 26 3e 7d 3f 31 bd b5 23 8d bd a9 36 96 3f
       0.16237748 -0.043273438 -0.06891576 1.1735431
000030 fa 53 a6 bc 05 ea 03 bf cc b1 a1 be b8 ef 11 3f
       -0.020303715 -0.5152896 -0.3158096 0.57006407
000040 5b 41 06 3e a9 95 7e bd 1a 49 b9 be 26 3c 55 bd
       0.13110869 -0.062154446 -0.36188585 -0.052059315
000050 03 2b d8 be a3 07 f3 bd 7c 48 85 bd e3 d3 f4 3d
       -0.42220315 -0.11866691 -0.06507966 0.11954477
000060 e0 69 93 bb ce 49 9f 3e 71 99 b8 3e bb e7 20 3d
       -0.0044987053 0.31110996 0.36054567 0.039283495
000070 4a fa b9 be 24 28 1e be 27 3a 63 3e 65 9c a4 be
       -0.36323768 -0.15445 0.22190152 -0.3215057
000080 b2 21 ea 3d c9 e6 ba bf 64 14 f5 be 9c c5 30 be
       0.11432208 -1.460168 -0.4786712 -0.17262882
000090 b0 62 9a 3f bd b4 52 3e 19 d1 af be f5 32 4b bf
       1.2061367 0.20576759 -0.34339216 -0.7937463
0000a0 3c 0c 1a 3f 10 0c 22 bf 3f e6 34 3e 7a ab 37 be
       0.6017492 -0.63299656 0.17665957 -0.17936507
0000b0 b8 e8 e8 bf e2 f3 18 c0 04 37 28 bb 99 36 e3 3e
       -1.819602 -2.3898854 -0.0025667557 0.44377592
0000c0 aa a1 87 bf e3 5a 56 bf 15 f3 11 3e cd c6 05 be
       -1.0596211 -0.8373243 0.14252885 -0.13064118
0000d0 21 2e 89 3d e7 d7 68 3b 6c fd 9c bc 6d 2b 6b be
       0.066982515 0.0035529078 -0.01916381 -0.22965784
0000e0 51 e9 c6 bd 3b cd e2 3e fe 43 01 3d 60 37 ea 3d
       -0.0971247 0.44297203 0.031558983 0.11436343
0000f0 ca a8 64 bd f6 4c cc 3c 7f af c3 3c 67 9e ed be
       -0.055825032 0.024939042 0.023887394 -0.46409914
000100 7d 2e 76 bd cf 16 d3 3d 38 ff 21 3f d5 5f b0 be
       -0.06010293 0.10307085 0.6328006 -0.34448114
000110 23 32 8c 3e c2 7c 63 3f 2e be fe ba ff 91 7b bd
       0.27382 0.8886224 -0.001943534 -0.06141853
000120 42 43 7c 3e ff cc 37 3e cc a4 a0 bf f6 e7 34 3f
       0.24635032 0.17949294 -1.2550292 0.70666444
000130 2d 9b f1 3e 5a a5 a6 be 1d d6 a7 bf 6a dc 88 3e
       0.47188702 -0.32548028 -1.3112217 0.26730663
000140 17 47 ac bd 72 51 aa ba 0a b7 38 be ac f7 91 3a
       -0.08411997 -0.0012994243 -0.18038574 0.0011136434
000150 3f d1 2e 3f ba ef b0 bc 5f cb b5 3e 68 6f 3a be
       0.68288034 -0.021598686 0.35506722 -0.1820656
000160 ad 71 f8 3e 6e 24 0e 3c ca 46 1f 3f e6 49 99 bb
       0.48524228 0.008675678 0.6221739 -0.004677999
000170 5a 2c 8e 3e f3 0a 4c 3f 9c c8 af be 75 0d 43 3e
       0.27768213 0.7970421 -0.3433274 0.19048102
000180 51 64 d3 be d6 39 7b 3f 75 03 62 3f 62 bf de be
       -0.41287473 0.98135126 0.88286525 -0.43505388
000190 a9 02 c3 bd 21 91 82 3d 90 38 67 bc 29 bc 68 bf
       -0.09521992 0.063753374 -0.014112607 -0.9091211
0001a0 17 3f a1 be 7d 3e 99 3d 74 31 92 3f f7 19 fe 3c
       -0.31493446 0.07482622 1.1421342 0.03101824
0001b0 dc 82 dc bd f6 36 4b 3f 95 3c 82 3c f8 95 3a 3a
       -0.10767147 0.7938074 0.015898028 0.0007117684
0001c0 fe 06 bb ba a6 52 ae be 62 1f f3 3e b0 1e 93 bf
       -0.0014269052 -0.3404743 0.4748488 -1.149374
0001d0 f9 b8 c2 ba e7 1d 8b bd c0 8e f6 bd 93 61 b9 bc
       -0.0014856152 -0.06792813 -0.12038946 -0.022629535
0001e0 62 4c 66 be 3b 44 58 bf 63 b6 8e 3c 8c bf ec 3e
       -0.22490075 -0.8447911 0.017420953 0.4623989
0001f0 db cf f4 3b 51 28 39 be 47 84 ce 3e 15 a2 88 bb
       0.0074710674 -0.18081786 0.40335295 -0.0041697123
000200 c9 44 29 3e a6 4c 3e 3e d9 95 e0 bf 0c 01 a0 3e
       0.16530146 0.18583927 -1.754573 0.312508
000210 0f 97 de 3e ea b7 cf be 21 dd 28 3e 72 4f a1 3e
       0.43474624 -0.40570003 0.16490604 0.31505924
000220 b1 09 ad be ee ae 5c bf 62 d7 0b bf 47 e6 b0 be
       -0.33796456 -0.8620442 -0.54625523 -0.34550688
000230 e6 b0 b5 bc 69 61 19 be 50 48 60 3f f2 b9 41 3e
       -0.022179078 -0.14978565 0.8761034 0.18918589
000240 e0 24 7f 3e 92 ea 7c bf 2d 84 8f be 4a d2 ec be
       0.2491641 -0.98795426 -0.2803053 -0.46254188
000250 3f c4 16 bd c8 26 a5 3d 6c 08 87 bf fd 98 65 bf
       -0.03680825 0.080640376 -1.0549445 -0.89686567
000260 b8 98 73 3d 06 9b 3d 3b dc 4a 62 3e 40 70 94 bf
       0.059471816 0.0028931512 0.22098869 -1.1596756
000270 bc f0 b0 3a af e9 3b be 6e 5f 66 bc 3c 78 b8 3d
       0.0013499479 -0.18350862 -0.014060838 0.09007308
000280 b8 7c bf b9 12 f0 e1 bb c0 6c bf bd 98 18 44 3c
       -0.00036523282 -0.0068950737 -0.09346914 0.011968754
000290 e7 1e 9b 3f ca 2b 34 3e 54 ac d2 3d 23 83 8f 3e
       1.2118806 0.17594829 0.10286775 0.28029737
0002a0 1c cd a2 3e 6a 7d c3 3c 6d 36 4a 3d 1e a8 12 c0
       0.3179711 0.023863513 0.04936831 -2.291511
0002b0 f8 10 a5 3d 92 58 71 3f a9 58 b1 be f3 b2 51 bd
       0.08059877 0.9427577 -0.34637955 -0.05119605
0002c0 af 89 8c 3d ac d8 29 be 8b ea e8 3d 7d c8 0a 3e
       0.068621986 -0.1658656 0.113728605 0.13553043
0002d0 61 76 a4 be 9d dd 59 3e 79 c6 8d 3d 9f cb 4c 3c
       -0.32121566 0.21275945 0.06922621 0.012499719
0002e0 80 28 56 38 c1 99 a1 be 12 9c 37 bf e9 01 48 bf
       5.1059294e-05 -0.31562617 -0.7172252 -0.78127915
0002f0 c7 3a 89 3d ac 3b 0a be a9 e7 37 3e 5b 4b a8 bb
       0.06700664 -0.13499326 0.17959465 -0.005135936
000300 5d b7 0b be 43 79 bd 3d 1a 55 ae 3d ba ce 29 bb
       -0.13644166 0.092516445 0.085123256 -0.0025910572
000310 87 2d fe 3d ee 61 e1 bc 1b ec 0d 3f 4f 36 a8 3f
       0.124110274 -0.027512517 0.55438393 1.3141574
000320 a7 f9 8f 3d 63 e7 e1 3d 2b 83 22 3f 5c 8f 8c bf
       0.07030039 0.11030462 0.63481396 -1.098125
000330 d0 bc be bf 00 4e bc 3e 98 87 8a bf fa cd 7a 3e
       -1.4901371 0.3677826 -1.082263 0.24492636
000340 c2 35 82 be 6c 0c c2 bf 11 a0 34 bf a6 95 1c bc
       -0.2543164 -1.5160041 -0.7055674 -0.009557163
000350 74 49 35 bd fe 54 d7 be c2 bb d5 bf cd ab 4b bf
       -0.044259503 -0.4205703 -1.6697924 -0.7955902
000360 27 46 0a be c6 e8 1b 3e 60 c1 c2 3f 7e c3 78 3f
       -0.13503323 0.15225515 1.5215263 0.971733
000370 09 dc 74 be 3b 72 29 bf c0 de b2 3e e8 19 7e ba
       -0.23912062 -0.66189927 0.3493557 -0.00096931914
000380 06 86 6b 3f 8e 4d a9 bb d4 8c d3 3e 96 92 95 bf
       0.9200138 -0.005166716 0.4131838 -1.168536
000390 6c 56 89 bf 47 d8 0d be 0e e5 18 3e c1 d7 28 3e
       -1.0729499 -0.13852035 0.14931127 0.16488554
0003a0 a0 89 bf 3d 32 d3 2d 3e 32 b9 2c 3b a8 13 2c bb
       0.09352422 0.16975096 0.0026355502 -0.0026256833
0003b0 ba 0b 1e 3f 00 55 7e bf db fd ce 3d 11 ac 8d 3d
       0.61736643 -0.9934845 0.10107013 0.06917585
0003c0 52 11 30 3f 7e 1b 90 3e 0f 5b f1 be cd c2 94 bb
       0.6877643 0.28145975 -0.47139785 -0.0045398236
0003d0 74 59 1b 3f 90 1c 44 bd dc 28 1f 3e c0 9f 16 3e
       0.6068337 -0.0478788 0.1554293 0.14709377
0003e0 33 6f 0c 3d 78 f0 81 bf 73 71 a2 3e 57 ee 93 3e
       0.034285735 -1.015151 0.3172718 0.28892776
0003f0 69 0a 4e 3e a2 57 fc be 24 bf b0 3e c9 80 4f 3d
       0.20121159 -0.4928561 0.3452083 0.05065993

fc2.bias f4 [4]
000000 11 06 61 3e ad 33 c4 3d 52 61 6b 3c 23 e9 06 3e
       0.2197497 0.09580169 0.014366465 0.13174872
