09_actor_critic/ddpg/ddpg-bipedal/checkpoint_critic.pth (torch_old, 426228 bytes, 7 tensors)

fcs1.weight f4 [256, 24]
0	0x3d92f621	0.071758516
1	0x3d7ede22	0.06222356
2	0xbdcc6263	-0.09979703
3	0x3d06e08f	0.032929
4	0x3d427522	0.047474988
5	0xbc9d1928	-0.019177034
6	0xbce7c705	-0.028293142
7	0xbd94242e	-0.07233463
8	0x3cfd2bc2	0.030904654
9	0xbd35ed64	-0.044415846
10	0xbcf6ba56	-0.030118149
11	0x3cad3b1a	0.021146346
12	0x3b3d8144	0.002891616
13	0x3d05ed63	0.032697093
14	0xbd15bdc4	-0.036557928
15	0xbcf5d7aa	-0.030010063
16	0xbd4fb479	-0.05070922
17	0x3c2c89b3	0.010530877
18	0xbd433cb5	-0.047665317
19	0xbc983c72	-0.01858351
20	0xbd39e07c	-0.0453801
21	0xbd14d2f9	-0.03633401
22	0xbd4d7331	-0.050158683
23	0xbd8fc968	-0.07020837
24	0xbdd37454	-0.10324922
25	0xbcac1079	-0.021003949
26	0xbca63508	-0.02028896
27	0xbd8d3a89	-0.0689593
28	0x3d61b9e7	0.05510893
29	0xbe8d3aea	-0.2758401
30	0xbd3c7676	-0.04601141
31	0xbd03c1b9	-0.03216717
32	0x3e281e10	0.16417718
33	0xbbf852b3	-0.007578218
34	0x3d3c0165	0.045899767
35	0x3cdf19ca	0.027233977
36	0x3df88512	0.12134756
37	0x3dcc125b	0.099644385
38	0xbd87431a	-0.066045955
39	0xbc732e4f	-0.014842584
40	0xbceb615d	-0.02873295
41	0xbca97a9f	-0.020688353
42	0xbcd2c966	-0.0257308
43	0xbd9cc47c	-0.07654664
44	0xbc5c5cfc	-0.013449904
45	0x3b549df8	0.003244279
46	0xbdb98306	-0.09058194
47	0x3c2ed684	0.010671262
48	0xbca31bd8	-0.019910738
49	0xbdefa9ae	-0.11702286
50	0x3e2bf1f9	0.16791524
51	0xbdb53496	-0.088479206
52	0x3c918ced	0.017767394
53	0x3d6de212	0.058076926
54	0xbd969056	-0.07351749
55	0xbc81d388	-0.015847936
56	0x3e13daa4	0.14438874
57	0xbc9f10bd	-0.019417161
58	0xbcddc511	-0.027071508
59	0xbda58759	-0.08082456
60	0x3d6cd7b8	0.057822913
61	0xbb50fd01	-0.0031889083
62	0xbd12eeb3	-0.035872173
63	0xbc537265	-0.012905692
64	0x3d39841e	0.045292012
65	0x3d4d0980	0.050057888
66	0x3ca1d90a	0.019756813
67	0xbc38ec1c	-0.011286762
68	0xbcade084	-0.021225221
69	0xbc34ae72	-0.011027919
70	0x3cf5bbc7	0.029996766
71	0xbc1f77a9	-0.009733119
72	0xbd308518	-0.043095678
73	0x3b94de3d	0.0045430944
74	0x3dacf67c	0.08445451
75	0x3ced8400	0.028993607
76	0xbd59a168	-0.053132445
77	0xbc3d8737	-0.011567882
78	0x3c19ca30	0.009386584
79	0xbc5b4597	-0.013383291
80	0xbba11aad	-0.00491651
81	0x3b2edb4d	0.0026681006
82	0x3d61c731	0.055121604
83	0x3caddd38	0.02122365
84	0xbde451a4	-0.11148384
85	0x3e31292d	0.17300864
86	0xbdd8b311	-0.10581029
87	0xbd7de310	-0.06198412
88	0xbd9df1a1	-0.07712103
89	0xbcf13d24	-0.0294481
90	0xbdbee8da	-0.09321757
91	0xbdf60aff	-0.12013816
92	0xbd41709c	-0.047226533
93	0xbe0bad32	-0.13640288
94	0xbdb1cb4b	-0.08681353
95	0xbd3783ab	-0.044803303
96	0xbe32c46b	-0.1745774
97	0x3cde87ff	0.027164457
98	0xbdf233a7	-0.11826258
99	0x3ca365ef	0.019946067
100	0xbd462832	-0.048378177
101	0xbe031a78	-0.12803066
102	0xbd63ac30	-0.055584133
103	0xbd62fb59	-0.055415485
104	0xbcad206a	-0.02113362
105	0x3c6296f0	0.013829932
106	0x3e1a7597	0.1508392
107	0xbb44b20c	-0.003001335
108	0x3cde73ba	0.027154792
109	0xbba9e2f4	-0.0051845256
110	0x3cacc5c7	0.021090401
111	0x3ca23647	0.019801272
112	0x3cdc5249	0.026894705
113	0x3dd35eae	0.10320793
114	0x3dc7cf9a	0.09756394
115	0x3dfe1158	0.12405652
116	0x3dca722b	0.09885057
117	0x3dc8b7bd	0.0980067
118	0x3dfa5186	0.122225806
119	0x3dead31b	0.114660464
120	0x3d45cb83	0.048289787
121	0x3e3fd8cf	0.1873505
122	0xbdd81976	-0.10551731
123	0x3d63482b	0.055488747
124	0xbd2a94de	-0.041645877
125	0xbe52f480	-0.20601082
126	0x3de8d94a	0.113695696
127	0xbeb3c817	-0.35113594
128	0x3e1a2401	0.15052797
129	0xbda2cf47	-0.07949691
130	0xbe364bd8	-0.1780237
131	0xbd78066b	-0.060552996
132	0xbe1b3478	-0.15156734
133	0xbbeec8e2	-0.0072871307
134	0x3dc75206	0.097324416
135	0x3d962dc8	0.07332951
136	0x3d91ff4d	0.07128773
137	0x3e11c7a6	0.14236316
138	0x3dac9d44	0.084284335
139	0x3db97004	0.090545684
140	0x3d12e39f	0.035861608
141	0x3d791373	0.060809564
142	0x3dca33ec	0.098731846
143	0x3d8abf01	0.06774712
144	0xbdfd3f67	-0.12365609
145	0xbc9cd8b5	-0.019146303
146	0xbe155122	-0.14581731
147	0xbdaf8ae4	-0.08571413
148	0x3d56ce89	0.05244306
149	0xba374d95	-0.00069924566
150	0x3da54d3e	0.080713734
151	0x3c82c075	0.015960911
152	0xbd674c2d	-0.05646913
153	0x3d6831f0	0.05668825
154	0x3e0c045b	0.13673536
155	0x3cf92828	0.030414656
156	0x3d7c5b43	0.06161047
157	0x3e86c2c8	0.2632048
158	0xbc549cab	-0.012976806
159	0xbd9bfb8d	-0.07616339
160	0xbd34de64	-0.0441574
161	0xbdb6d879	-0.08928008
162	0xbd722517	-0.059117403
163	0x3bdb10bf	0.006685346
164	0xbd9cc7c0	-0.07655287
165	0xbd364bdf	-0.04450595
166	0x3c2618af	0.010137721
167	0x3ca35cce	0.019941714
168	0xbd15b844	-0.036552683
169	0xbce2c729	-0.027682858
170	0x3daeb5ca	0.08530767
171	0x3d0ebc25	0.034847397
172	0xbaca4377	-0.0015431483
173	0xbd956902	-0.07295419
174	0xbd0c2b2b	-0.034220856
175	0x3d6061ba	0.0547807
176	0x3d12f890	0.03588158
177	0x3c856111	0.016281636
178	0x3e3e1cdd	0.18565698
179	0x3d400d50	0.046887696
180	0x3db10f69	0.086455174
181	0x3c6d085e	0.014467327
182	0xbd1372d3	-0.035998177
183	0xbdb98908	-0.0905934
184	0xbd369dd7	-0.04458412
185	0xbd375dc2	-0.04476715
186	0xba06f441	-0.0005148091
187	0xbc894c20	-0.016759932
188	0xbcd22a28	-0.025654867
189	0xbdd11e4e	-0.10210858
190	0xbdbab5d9	-0.09116716
191	0xbd007c42	-0.0313685
192	0xbdadea27	-0.08491927
193	0xbddc6274	-0.10760966
194	0x3e6a2eaf	0.22869371
195	0xbd9010d9	-0.070344634
196	0x3d4916e3	0.049094092
197	0x3c66175d	0.014043656
198	0xbc57457d	-0.013139126
199	0x3d1a579b	0.037681203
200	0xbaefd169	-0.0018296662
201	0xbd362710	-0.044470847
202	0x3ae955e6	0.0017802089
203	0xbd762aa2	-0.06009925
204	0x3d11f018	0.035629362
205	0x3da2636c	0.079291195
206	0xbd2ceaf6	-0.042216264
207	0xbda1fcd1	-0.07909549
208	0xbd8ca4e9	-0.068673916
209	0xbd315692	-0.04329545
210	0xbd6230f5	-0.05522247
211	0xbd9070e2	-0.07052781
212	0xbccb94ab	-0.024851164
213	0xbd47a374	-0.048739865
214	0x3bbc67a2	0.0057496587
215	0xbabd7089	-0.0014453094
216	0x3de98bc4	0.11403611
217	0xbd02ceaa	-0.03193537
218	0xbde5eac2	-0.11226417
219	0x3d07415c	0.033021316
220	0x3c9b46cc	0.018954657
221	0x3e04c2ba	0.12964907
222	0xbd2224b7	-0.039585795
223	0x3e0c0137	0.13672338
224	0x3d3f16a2	0.046652444
225	0x3cc5d392	0.024148736
226	0x3c9f2564	0.019427009
227	0x3c2b21be	0.0104450565
228	0x3d78749a	0.060658075
229	0x3d0069a7	0.031350758
230	0x3d49b828	0.04924789
231	0x3d95423e	0.07288025
232	0x3c590cf5	0.013247718
233	0x3da80266	0.082035825
234	0x3d2a9b28	0.041651875
235	0x3dc8ecf9	0.09810824
236	0x3cc69a2d	0.024243439
237	0x3d6b5caa	0.05746142
238	0x3d67bcea	0.056576647
239	0x3ccd819e	0.02508622
240	0x3cb50ff1	0.022102328
241	0xbd12b264	-0.035814658
242	0xbe748257	-0.23877846
243	0xbd814bfe	-0.063133225
244	0x3db0723f	0.08615541
245	0xbd1ca415	-0.03824242
246	0x3cd6bb55	0.026212374
247	0x3c640bba	0.013918811
248	0xbc71f90f	-0.014768853
249	0xbcc842a2	-0.024445836
250	0xbdcd839a	-0.10034867
251	0x3dbe7028	0.09298736
252	0xbd535616	-0.05159577
253	0xbca1d826	-0.019756388
254	0x3db6422a	0.088993385
255	0x3df7361e	0.12070869

fcs1.bias f4 [256]
0	0xbe82fe2f	-0.25584552
1	0xbdde160c	-0.10844049
2	0x3e4d106c	0.20025796
3	0xbd6c7712	-0.05773074
4	0x3de34289	0.11096675
5	0xbe407e74	-0.18798238
6	0xbe0794d3	-0.13240366
7	0xbda19f9b	-0.078917705
8	0x3d6666c6	0.056250356
9	0xbd618c37	-0.05506536
10	0xbde5e70b	-0.112257086
11	0x3c40e402	0.011773111
12	0xbccdc5fa	-0.025118817
13	0xbe6c3aae	-0.2306926
14	0x3df6fd2a	0.12060006
15	0xbe472e1c	-0.19451183
16	0xbd94707a	-0.07248016
17	0x3e1486a1	0.14504482
18	0xbe27570c	-0.163418
19	0xbdff957b	-0.12479683
20	0x3dba8798	0.09107894
21	0xbe0c8583	-0.13722806
22	0x3e279655	0.16365941
23	0x3e66436f	0.22486661
24	0xbe2e3fc5	-0.17016514
25	0x3dadff84	0.08496001
26	0x3db17857	0.08665531
27	0xbd8bdbe4	-0.0682905
28	0xbc65f7ae	-0.014036102
29	0x3d91ac7c	0.07112977
30	0x3da239b2	0.07921161
31	0x3e533419	0.20625342
32	0x3e85e07c	0.2614783
33	0x3e0057f7	0.12533556
34	0x3e363ca4	0.1779657
35	0xbe1d5d29	-0.15367569
36	0xbbd2eb40	-0.0064367354
37	0xbd58b649	-0.052908216
38	0x3db29509	0.087198325
39	0xbe1c0d3e	-0.15239426
40	0x3dc22a88	0.094807684
41	0xbd6dc762	-0.058051474
42	0x3e7b41af	0.24536775
43	0x3dbd03ba	0.092292264
44	0xbd0c76a7	-0.034292843
45	0xbdda0261	-0.10644985
46	0xbdeb1729	-0.11479027
47	0xbd936c49	-0.07198388
48	0xbd912d75	-0.07088748
49	0xbcf62cb9	-0.030050622
50	0x3dc61c7f	0.09673404
51	0xbe676b2d	-0.22599478
52	0xbe14f2aa	-0.14545694
53	0x3e5e3e82	0.21703532
54	0x3cb49023	0.022041386
55	0xbdeb6876	-0.11494534
56	0xbdb5e72d	-0.08881984
57	0xbda47d4f	-0.08031713
58	0xbd2f6d44	-0.042828813
59	0x3e7ab034	0.24481279
60	0xbd9386ca	-0.07203443
61	0x3d83107d	0.06399629
62	0x3dba14d5	0.09086005
63	0xbd706b77	-0.058696236
64	0x3e83f082	0.2576943
65	0x3e33998b	0.1753904
66	0x3d1d0a9d	0.0383402
67	0xbd57e33d	-0.052706946
68	0x3d204b31	0.039134208
69	0x3e556670	0.20839858
70	0xbe5d7723	-0.21627478
71	0x3e315267	0.1731659
72	0x3d264fb8	0.04060337
73	0x3dcff1c4	0.10153535
74	0xbd34ddf5	-0.044156987
75	0x3e663844	0.22482401
76	0xbe74c94d	-0.23904915
77	0xbdca7437	-0.098854475
78	0xbe2c9c94	-0.16856605
79	0x3e6b6b78	0.22990215
80	0x3bf0e6a0	0.0073517114
81	0xbe5e0b1e	-0.21683928
82	0xbe234258	-0.15943277
83	0xbe25ae78	-0.16179836
84	0x3e100436	0.14064106
85	0x3e5518e2	0.20810273
86	0xbd0a1578	-0.03371188
87	0xbdf0c96c	-0.11757168
88	0xbdbe3422	-0.09287287
89	0x3d1b983b	0.037986975
90	0xbd089683	-0.033346664
91	0xbe8209af	-0.25398013
92	0x3d8bf3c2	0.068336025
93	0x3de8046e	0.1132897
94	0xbde1d560	-0.11027026
95	0x3e6ca3bb	0.23109333
96	0x3d1ca2db	0.03824125
97	0xbe7dce96	-0.24785838
98	0xbe2247ec	-0.15847749
99	0xbd4ce677	-0.050024476
100	0x3cb1bbca	0.02169599
101	0x3e61af0f	0.22039436
102	0xbcb7757b	-0.022394886
103	0x3d829a54	0.06377092
104	0xbdeb6203	-0.114933036
105	0xbcc96f4d	-0.024589205
106	0x3e1ff7e8	0.15621912
107	0x3db0bcbc	0.08629748
108	0xbdac7259	-0.084202476
109	0xbe076107	-0.13220607
110	0xbe49db79	-0.19712628
111	0xbd69b808	-0.05706027
112	0xbe773a53	-0.24143343
113	0xbdf1652c	-0.11786875
114	0xbe5ca2b0	-0.21546435
115	0x3e7581f5	0.23975356
116	0xbe41be2f	-0.18920206
117	0x3e89c4e6	0.26908034
118	0xbe006d9a	-0.1254181
119	0xbb20f720	-0.002456136
120	0x3c8079c0	0.015683055
121	0x3dbc9959	0.09208936
122	0x3d962922	0.07332064
123	0x3d661dd7	0.0561808
124	0xbdbfbf21	-0.09362627
125	0x3cfc8660	0.030825794
126	0xbcf3b012	-0.029747043
127	0x3e850c18	0.2598579
128	0x3e805a52	0.2506891
129	0x3e802b78	0.25033164
130	0x3e6ca313	0.23109083
131	0x3e1a0e03	0.15044408
132	0xbdd3949f	-0.103310816
133	0x3cee283a	0.029071916
134	0xbb5f69ce	-0.0034090164
135	0xbde13cf8	-0.10997957
136	0x3e83c524	0.25736344
137	0x3d026b32	0.03184051
138	0xbe0e40b0	-0.13891864
139	0x3d9a8220	0.075443506
140	0x3d3347be	0.04376959
141	0x3db7cdd6	0.08974807
142	0x3dd0e24d	0.101994134
143	0x3e3c059a	0.18361512
144	0x3ce99446	0.028513085
145	0x3e3decc6	0.18547353
146	0x3e624a08	0.22098553
147	0x3e165ff4	0.1468504
148	0xbd9b952d	-0.075968124
149	0x3e86ffde	0.26367086
150	0x3e96af8b	0.29430804
151	0xbce93617	-0.028468175
152	0x3cfe461a	0.031039286
153	0xbe3016ae	-0.17196152
154	0x3dfd5a58	0.12370747
155	0xbd2469c0	-0.040139914
156	0xbe1967f6	-0.14981064
157	0x3c4e8a55	0.012606223
158	0xbde1ad28	-0.11019355
159	0xbdeb39bb	-0.114856206
160	0xbe2c7695	-0.1684211
161	0xbe3cad52	-0.18425491
162	0x3e21b6e0	0.15792418
163	0xbc041db8	-0.008063726
164	0x3e5c9394	0.21540672
165	0x3e156457	0.14589058
166	0xbd76fd45	-0.06030013
167	0x3e81496d	0.25251332
168	0xbd99ea81	-0.07515431
169	0x3e5eb3e2	0.21748307
170	0xbdada9f8	-0.084796846
171	0xbd34d30d	-0.044146586
172	0xbdb74d6b	-0.08950313
173	0x3d0e6b37	0.034770217
174	0x3e27c735	0.16384585
175	0xbd5ea639	-0.05435774
176	0x3e4c1842	0.19931129
177	0xbdedacb8	-0.11605209
178	0x3e655ae1	0.22397949
179	0x3e764a7b	0.2405185
180	0xbdb42a8f	-0.0879718
181	0xba97b8f6	-0.0011575508
182	0x3e64f916	0.22360644
183	0xbb9a5aa3	-0.004710512
184	0xbe1f4dfb	-0.15557091
185	0x3d109400	0.035297394
186	0xbe077aad	-0.13230391
187	0xbde3a6a8	-0.111157715
188	0x3e664369	0.22486652
189	0x3e45f0cb	0.19330136
190	0x3e3a8e56	0.1821836
191	0xbdb9ad13	-0.090662144
192	0xbe2a134e	-0.16608927
193	0x3d76cb4b	0.06025247
194	0x3e40d00d	0.18829365
195	0xbe5307b5	-0.20608409
196	0xbd825970	-0.06364715
197	0xbe3e9a0a	-0.18613449
198	0x3e10abf5	0.14128096
199	0xbe17eeb7	-0.14837156
200	0x3de1bb15	0.11022011
201	0xbd39cc91	-0.045361105
202	0xbe05ab08	-0.13053524
203	0xbe51c8bc	-0.2048673
204	0xbdf721b0	-0.12066972
205	0xbd8cef11	-0.06881536
206	0xbd657216	-0.056017004
207	0x3df96094	0.12176624
208	0xbdd31b51	-0.103079446
209	0xbc8d41ba	-0.017243255
210	0x3be5ca7d	0.007012664
211	0xbc99e91c	-0.018787913
212	0x3e272ec6	0.16326436
213	0xbe3b11f0	-0.18268561
214	0xbe15171c	-0.14559597
215	0xbe1224dd	-0.14271875
216	0x3db6495a	0.089007095
217	0x3e2bef10	0.16790414
218	0xbe108219	-0.14112128
219	0x3e3273bd	0.17426963
220	0x3ddbd16b	0.10733303
221	0x3e0ce0b5	0.13757594
222	0xbe2e66d5	-0.17031415
223	0xbe3e6d0a	-0.18596283
224	0x3cb45863	0.022014802
225	0xbe4fe6eb	-0.20302932
226	0xbdbffb07	-0.093740515
227	0xbe1cdbaa	-0.1531817
228	0xbc808f33	-0.015693283
229	0x3cc2ba68	0.023770526
230	0x3e4b9c42	0.19883826
231	0xbe618e90	-0.2202704
232	0xbd621741	-0.055197958
233	0x3e88e061	0.26733688
234	0xbe500cfe	-0.20317456
235	0xbe61d354	-0.22053272
236	0x3df0939b	0.117469035
237	0xbd969b63	-0.073538564
238	0x3e2432ab	0.16034953
239	0x3e1c996a	0.15292898
240	0xbca65c1c	-0.020307593
241	0xbe052174	-0.13001043
242	0x3c05335c	0.008129921
243	0xbd1891e4	-0.037248507
244	0x3ca9b20b	0.02071478
245	0x3b501997	0.0031753534
246	0x3e2b62f3	0.16736965
247	0x3e2e00eb	0.16992538
248	0x3e08d068	0.1336075
249	0x3e13f852	0.14450195
250	0x3e40fda4	0.18846756
251	0xbe29d74c	-0.16586035
252	0xbd857395	-0.06516186
253	0x3e0b28b2	0.13589743
254	0x3df9deae	0.12200676
255	0x3e6b02cb	0.22950284

fc2.weight f4 [256, 260]
0	0xbc4ec433	-0.01262002
1	0xbc805d85	-0.015669594
2	0xbc7c0ffd	-0.015384671
3	0xbdd6de26	-0.1049159
4	0x3d4f87dd	0.05066668
5	0x3e6c2a0d	0.23062916
6	0xbe1c4fd4	-0.15264827
7	0xbd5d4f13	-0.05403049
8	0xbd9d04d2	-0.07666935
9	0x3e5d1340	0.21589375
10	0x3e2ba835	0.16763385
11	0xbc93f99b	-0.018063357
12	0xbc9d5298	-0.019204423
13	0x3cfb321c	0.030663542
14	0xbc2cf42c	-0.010556262
15	0xbc9d9971	-0.019238206
16	0x3d319472	0.04335446
17	0xbb7997e5	-0.003808492
18	0xbe1d4ad2	-0.15360573
19	0xbe149a32	-0.14511946
20	0x3cd77ef2	0.02630565
21	0xbc86cacb	-0.016454121
22	0x3cac66b6	0.02104507
23	0x3c19ace6	0.009379601
24	0xbd9b38e3	-0.0757921
25	0xbcca3e90	-0.024688035
26	0x3e20c17a	0.15698805
27	0xbce12fe4	-0.027488656
28	0x3e869034	0.26281893
29	0x3e34f29d	0.17670675
30	0xbb80f8b8	-0.0039358996
31	0xbd64fb10	-0.055903494
32	0xbd381ec1	-0.044951204
33	0xbd672e10	-0.056440413
34	0xbdbf4da2	-0.09340979
35	0xbde80d48	-0.11330658
36	0x3e5d62f4	0.21619779
37	0x3dc3e652	0.095654145
38	0x3e05a1e1	0.13050033
39	0xbdafa6cf	-0.08576738
40	0x3e09a956	0.13443503
41	0xbcaa6238	-0.020798787
42	0xbd81fc4b	-0.06346949
43	0x3d1b8030	0.037964046
44	0x3dda555b	0.106608115
45	0x3e137858	0.14401376
46	0xbda3dc2e	-0.0800098
47	0x3e3ded7a	0.18547621
48	0x3e04995c	0.12949127
49	0x3e47cebc	0.19512457
50	0x3e311a3b	0.17295162
51	0x3e95705e	0.29187292
52	0xbd657e57	-0.05602869
53	0xbca32ae9	-0.019917922
54	0x3c4607d7	0.01208683
55	0x3e366135	0.17810519
56	0x3e18317b	0.14862625
57	0xbcd06a96	-0.02544145
58	0x3e1390dc	0.14410728
59	0x3a9c6572	0.0011932089
60	0xbd1f57e1	-0.038902167
61	0xbe30c9d1	-0.17264487
62	0x3da5cdd9	0.08095903
63	0xbd668605	-0.056280155
64	0xbcbd65d4	-0.023119844
65	0xbc1a2d5e	-0.00941023
66	0xbe0833a7	-0.13300954
67	0x3e0c8fb4	0.13726693
68	0x3e0515e8	0.12996638
69	0xbc48c0ee	-0.012253029
70	0xbc0b018f	-0.008484258
71	0xbdbb8a41	-0.09157229
72	0x3e1421db	0.1446604
73	0x3e01e84f	0.12686275
74	0xbde13696	-0.109967396
75	0xbd07bcfe	-0.03313922
76	0xbe840c41	-0.257906
77	0x3e130dec	0.1436078
78	0x3de5f54b	0.112284265
79	0x3c94d6fa	0.018168915
80	0x3e0e6f29	0.13909592
81	0x3e5444d6	0.20729384
82	0x3db2ba94	0.08726993
83	0xbc570b01	-0.013125182
84	0xbd3aaeb0	-0.04557675
85	0xbda1fbdf	-0.07909369
86	0xbc294d06	-0.010333305
87	0xbd8efcc7	-0.06981807
88	0xbdd39cfc	-0.10332677
89	0x3e610e37	0.21978079
90	0x3bbcd55c	0.005762739
91	0xbddbc014	-0.10729995
92	0xbdefd70c	-0.11710939
93	0xbd8cbe66	-0.06872253
94	0xb9c61242	-0.00037779106
95	0x3d316567	0.043309595
96	0xbdfef753	-0.12449517
97	0xbe6c5d22	-0.23082402
98	0x3e5ccad9	0.21561755
99	0x3e46ebfc	0.19425958
100	0x3c070901	0.008241893
101	0x3d1a4636	0.037664615
102	0x3e5849af	0.21121858
103	0x3e35958b	0.17732827
104	0x3ded8e99	0.11599464
105	0x3e452c25	0.19255121
106	0x3d169da3	0.036771428
107	0x3c00f0ac	0.007869881
108	0xbdabe582	-0.083933845
109	0xbd69d807	-0.057090785
110	0xbb228dee	-0.0024803835
111	0x3e92e07d	0.28686896
112	0xbe8371d8	-0.25672793
113	0xbdd7fd6c	-0.10546383
114	0xbc95b8ba	-0.018276561
115	0xbbc68580	-0.006058395
116	0x3e2e6a93	0.17032842
117	0x3ca7371a	0.020412017
118	0xbd7b2619	-0.06131563
119	0x3e1670cd	0.14691468
120	0xbc1372ae	-0.00899951
121	0xbdcb7455	-0.09934298
122	0xbccbb004	-0.024864204
123	0x3e6f9d53	0.23399858
124	0x3d594e02	0.05305291
125	0x3e34a42d	0.17640753
126	0x3de77a8f	0.11302673
127	0x3c4c26b3	0.0124603985
128	0xbde202b8	-0.11035675
129	0x3d1a3b89	0.037654433
130	0x3c037ef1	0.008025871
131	0x3d3de41e	0.046360128
132	0xbde5765e	-0.112042174
133	0x3c087f4b	0.00833113
134	0x3eb22f6f	0.34801814
135	0xbdba8043	-0.09106495
136	0x3c7be0ba	0.015373403
137	0xbb80ad15	-0.003926883
138	0xbdedfd7d	-0.11620615
139	0xbde52100	-0.11187935
140	0x3e54648a	0.20741478
141	0xbd861846	-0.065475985
142	0x3b8ca72f	0.004292391
143	0xbc897fff	-0.016784666
144	0x3e169d4d	0.14708443
145	0x3dbf2fed	0.09335313
146	0xba506ab2	-0.0007950469
147	0xbe3d7d9f	-0.18504952
148	0xbcfb45bc	-0.0306729
149	0xbd198aed	-0.037486006
150	0xbd3a6c30	-0.045513332
151	0x3c6a575c	0.014303055
152	0x3e093da2	0.13402417
153	0xbd7fa0eb	-0.062409323
154	0x3b8b2b2f	0.0042470912
155	0xbdfed93a	-0.124437764
156	0x3e8156d0	0.25261545
157	0xbc806e62	-0.015677635
158	0x3e74ff14	0.2392543
159	0x3dda13a0	0.106482744
160	0xbda981bc	-0.08276698
161	0x3e371491	0.17878939
162	0xbd492114	-0.04910381
163	0x3e154b02	0.14579394
164	0x3d25dff2	0.040496774
165	0x3ccf12db	0.025277546
166	0x3e36b99d	0.17844243
167	0x3d18be93	0.03729112
168	0xbdad6ab4	-0.08467618
169	0xbdacfa72	-0.08446206
170	0xbcccdeec	-0.025008641
171	0x3d39a391	0.045322005
172	0xbe05ae4b	-0.13054769
173	0xbd4a0ccd	-0.049328614
174	0xbd888cc6	-0.066674754
175	0x3e36a697	0.17836986
176	0xbd53ae0f	-0.051679667
177	0xbd028ddc	-0.03187357
178	0xbc85eb60	-0.016347587
179	0x3d9a0b54	0.07521692
180	0xbddb5d33	-0.10711136
181	0xbdb4633b	-0.08807989
182	0x3c3a8525	0.011384283
183	0x3e46df2f	0.19421075
184	0x3e83990a	0.25702697
185	0x3ccaed3f	0.02477133
186	0xbde77c05	-0.11302952
187	0xbddd8e8c	-0.10818204
188	0xbd312c34	-0.043255046
189	0xbd3cb743	-0.04607321
190	0xbdaf75eb	-0.08567413
191	0x3e0582dd	0.13038202
192	0x3cfc2363	0.030778592
193	0x3cae8c66	0.021307182
194	0xba9b6797	-0.0011856434
195	0xbd822492	-0.063546315
196	0x3dc5ffcf	0.09667932
197	0xbdfddce2	-0.12395646
198	0xbd792eff	-0.060835835
199	0x3e28b392	0.1647475
200	0xbd25a592	-0.040441103
201	0x3e96acfe	0.29428858
202	0x3c2d4b1a	0.010576988
203	0x3dd1cc85	0.10244087
204	0xbc366800	-0.011133194
205	0x3d3c361f	0.04595005
206	0xbd31d546	-0.043416284
207	0xbd444f3d	-0.04792713
208	0x3e91b025	0.284547
209	0x3e0ef06f	0.13958906
210	0xbc086777	-0.008325449
211	0x3deaf1a1	0.11471868
212	0xbc5b8775	-0.013398995
213	0xbc92e94a	-0.017933507
214	0xbb965a76	-0.0045884205
215	0xbcdb20e8	-0.02674909
216	0xbb646103	-0.0034847863
217	0xbd21d7d3	-0.039512467
218	0x3e2e89e5	0.1704479
219	0xbcaddf76	-0.021224719
220	0x3c9959a6	0.018719506
221	0x3c83e322	0.016099516
222	0x3e47d0e4	0.19513279
223	0xbe30c32d	-0.17261954
224	0x3d158130	0.036500156
225	0x3e1c5860	0.15268087
226	0x3e6e38b4	0.23263818
227	0x3dfde099	0.12396354
228	0x3e337dd4	0.17528468
229	0xbdfa9f9d	-0.12237475
230	0x3bb2f8bc	0.0054617804
231	0xbd044923	-0.03229631
232	0x3ccdd399	0.025125312
233	0x3c0a76ec	0.008451205
234	0x3e2fe4b4	0.17177087
235	0xbe45efed	-0.19329806
236	0xbde891ee	-0.11355959
237	0x3e4c23a8	0.19935477
238	0xbd85597f	-0.06511211
239	0x3e327928	0.1742903
240	0x3e5dcdba	0.2166051
241	0x3e87d0ee	0.26526588
242	0xbc0256d3	-0.007955271
243	0xbdcf14f7	-0.101114206
244	0xbdd1575d	-0.10221741
245	0xbcb1c162	-0.021698657
246	0xbe14e115	-0.14538987
247	0x3e2f29ce	0.17105791
248	0x3e31f2a6	0.1737772
249	0xbc00edf5	-0.007869233
250	0x3cd18ed9	0.02558081
251	0x3ca652fb	0.02030324
252	0x3dc0ac94	0.09407917
253	0xbc61d07f	-0.0137826195
254	0xbd16f388	-0.036853343
255	0xbd21dde6	-0.03951826

fc2.bias f4 [256]
0	0x3beec87f	0.0072870846
1	0xbcd6e966	-0.02623434
2	0x3d51226d	0.05105822
3	0x3d8625f7	0.0655021
4	0x3d59627b	0.053072434
5	0xbd903a22	-0.07042338
6	0xb7c4d2ce	-2.3463184e-05
7	0xbd295129	-0.041337166
8	0x3d7ef2ea	0.06224338
9	0x3ccc4f31	0.024940105
10	0x3cd38f75	0.025825242
11	0xbdd9ee5a	-0.10641165
12	0x3ca4d102	0.020119194
13	0x3d465419	0.048420046
14	0x3df23b15	0.11827675
15	0x3adda95f	0.0016911438
16	0xbd8776e4	-0.066144735
17	0x3d0ad0c0	0.033890486
18	0x3de8d078	0.11367887
19	0x3d795cd8	0.06087956
20	0x3dd1ccee	0.10244165
21	0x3e0695e2	0.13143113
22	0x3bef10f8	0.007295724
23	0x3dcd8fc1	0.100371845
24	0x3d38fd18	0.045163244
25	0xbd895993	-0.06706538
26	0x3c850642	0.016238336
27	0xbdc27709	-0.094953604
28	0x3c21ff1e	0.009887485
29	0x3dee0129	0.11621315
30	0x3de528fe	0.11189459
31	0x3ca98b01	0.020696165
32	0x3dcf56bd	0.10123966
33	0x3cbd6bdd	0.023122722
34	0xbcc7005a	-0.02429216
35	0xbcaabe2f	-0.02084264
36	0x3dd64760	0.104628325
37	0x3dbb5dc5	0.091487445
38	0x3d85e3d2	0.06537594
39	0x3bb1cb0e	0.0054258173
40	0x3d2e882b	0.04261033
41	0x3d98aba6	0.07454614
42	0x3d51abee	0.051189356
43	0x3dd2344e	0.102638826
44	0xbd0e6054	-0.034759834
45	0x3c59cef5	0.013293971
46	0xbdb989cf	-0.09059488
47	0xbd3cb33a	-0.04606936
48	0x3d5eb249	0.054369245
49	0x3d54c5c1	0.051946405
50	0x3dee449a	0.116341785
51	0x3d9447e2	0.07240273
52	0x3e035d02	0.12828448
53	0x3db2992c	0.087206215
54	0x3ddbffac	0.10742125
55	0x3d469bab	0.0484883
56	0x3d5a47dc	0.053291187
57	0xbd18ffc3	-0.03735329
58	0x3dc6f1f0	0.09714115
59	0x3d548a57	0.051889744
60	0x3d5269f2	0.05137057
61	0x3dfe8056	0.12426822
62	0x3de8e52c	0.11371836
63	0xbe09a5c9	-0.13442148
64	0xbd8d7565	-0.06907157
65	0xbc9872e5	-0.018609473
66	0xbd40a976	-0.04703661
67	0x3d6e4021	0.058166627
68	0xbd839a75	-0.06425945
69	0x3be87e54	0.0070951376
70	0x3ccefe36	0.025267702
71	0xbc1452e9	-0.00905297
72	0x3c905175	0.017616967
73	0x3de4a6b1	0.11164606
74	0xbda092a4	-0.078404695
75	0xbc477b9d	-0.012175468
76	0x3c761246	0.015019005
77	0x3e018e1e	0.1265187
78	0x3d3d88a6	0.046272896
79	0x3d4b1f48	0.04959038
80	0x3da17815	0.07884232
81	0x3dd13e3e	0.1021695
82	0x3ded3234	0.11581841
83	0x3d58524e	0.052812867
84	0x3dd18b84	0.102316886
85	0x3df627e5	0.12019328
86	0x3c61f12b	0.013790409
87	0x3deab670	0.114605784
88	0x3d20a42d	0.03921907
89	0x3d90f704	0.070783645
90	0x3db108f6	0.08644287
91	0x3cde2014	0.027114905
92	0xbc8c2bff	-0.017110823
93	0x3d0b2091	0.033966605
94	0x3d33255d	0.043736804
95	0xbb39cec4	-0.0028352002
96	0x3d8648ce	0.06556855
97	0x3d74d5fe	0.05977439
98	0x3dce9428	0.10086852
99	0x3d8c7443	0.06858113
100	0x3d75ebce	0.060039334
101	0x3bffc241	0.0078051393
102	0xbdf21510	-0.118204236
103	0xbd59c0a8	-0.053162247
104	0x3d669d4a	0.056302346
105	0x3ddbc95d	0.107317664
106	0xbdd00da3	-0.10158851
107	0xbc450de3	-0.012027237
108	0xbb82ac15	-0.003987799
109	0x3d8dfe74	0.06933299
110	0x3d950c0e	0.0727769
111	0x3dd77bd5	0.10521666
112	0xbd115363	-0.035479914
113	0xbcd5b68d	-0.026088024
114	0x3dfd8116	0.12378137
115	0x3e0112bd	0.12604804
116	0x3e33dc47	0.17564498
117	0x3d0f93a0	0.035052896
118	0x3d6bbf3c	0.057555422
119	0xbc3dc3e1	-0.011582346
120	0x3bee29ff	0.00726819
121	0x3db6ca06	0.08925252
122	0xbdc184d2	-0.094491616
123	0xbd848921	-0.06471468
124	0xbd339430	-0.043842494
125	0x3d86e3c6	0.06586413
126	0x3e0981c9	0.13428415
127	0xbc25de3e	-0.010123787
128	0x3b83ab91	0.004018255
129	0x3d4a6b9b	0.049419027
130	0xbc72e871	-0.014825926
131	0x3d60e7d7	0.0549086
132	0xbc39b88f	-0.011335506
133	0xbbfba4b3	-0.007679546
134	0x3d45721a	0.04820452
135	0x3dfb51f8	0.12271494
136	0xbce6b9d1	-0.028164776
137	0x3dff16ac	0.12455496
138	0xbdd39ee2	-0.10333039
139	0x3d322ed0	0.043501675
140	0x3c3aae01	0.011394025
141	0x3ccc4239	0.024933921
142	0x3daee9fa	0.08540721
143	0x3c0ef110	0.008724466
144	0xbdd5bee8	-0.10436803
145	0x3c06cf7a	0.008228177
146	0x3db7ba35	0.08971063
147	0xbdf00e91	-0.11721528
148	0x3daaefb8	0.08346504
149	0x3c91a6da	0.017779756
150	0xbde59029	-0.11209137
151	0x3d96554c	0.07340488
152	0x3de449bb	0.111468755
153	0x3dd3d309	0.10342986
154	0x3d96f884	0.07371619
155	0x3d37aac4	0.04484059
156	0x3dcde808	0.10054022
157	0xbd50429b	-0.05084477
158	0x3c2977a3	0.010343465
159	0x3d6a5cf0	0.05721754
160	0x3d653356	0.05595716
161	0x3d9b1e3e	0.075741276
162	0x3a9ccc4a	0.0011962738
163	0x3d7ca427	0.061679985
164	0x3d34930d	0.04408555
165	0x3d39d15e	0.045365684
166	0xbd3c3879	-0.045952294
167	0xbdb9884f	-0.09059202
168	0x3e15ddf5	0.14635451
169	0xbccdc2dd	-0.025117332
170	0x3d121be4	0.03567113
171	0x3dad0b39	0.08449406
172	0x3de45ee6	0.11150913
173	0x3cf2813e	0.029602643
174	0x3d8d84c6	0.0691009
175	0xbde4d34a	-0.11173113
176	0x3dafa79c	0.08576891
177	0xbadf649e	-0.0017043536
178	0x3c8e31dc	0.01735776
179	0x3d4f512a	0.050614513
180	0x3e181683	0.14852338
181	0x3deaf387	0.114722304
182	0x3db29caf	0.08721291
183	0x3dc19e47	0.09454017
184	0x3bd3f26b	0.0064681075
185	0x3d4b49d6	0.049630962
186	0xbd94ae94	-0.07259861
187	0x3d7d0cac	0.061779663
188	0x3de63eb0	0.112424254
189	0x3c6b9385	0.014378433
190	0x3ce84ac9	0.028355973
191	0xbdda3593	-0.1065475
192	0xbd8887a8	-0.066664994
193	0xbb9a7df9	-0.004714724
194	0x3c02b893	0.007978576
195	0x3dde8998	0.10866088
196	0x3dba10ad	0.09085212
197	0x3d282206	0.041048072
198	0x3d1798fe	0.03701114
199	0x3dd2cbc2	0.1029277
200	0xbd14d635	-0.036337096
201	0x3c10d2bc	0.0088393055
202	0xbc80c39c	-0.015718274
203	0x3df5364b	0.11973246
204	0x3cb96db7	0.022635324
205	0xbdbfff2b	-0.09374841
206	0x3c82ce3b	0.015967479
207	0x3d26b2e2	0.04069794
208	0xbd4773cb	-0.048694413
209	0x3d8c99a9	0.06865246
210	0x3dd1a090	0.10235703
211	0xbda9a341	-0.08283091
212	0xbdd700ce	-0.104982
213	0xbd2dbf7e	-0.04241895
214	0x3d87c32b	0.06629022
215	0xbd50701b	-0.050888162
216	0xbd7d45cc	-0.06183414
217	0x3d431715	0.047629435
218	0x3c85f661	0.016352834
219	0x3d1643c7	0.03668573
220	0x3d8c04c8	0.068368495
221	0xbd1d908b	-0.038467925
222	0x3d746e21	0.05967534
223	0x3db05ce9	0.08611471
224	0x3cad9dea	0.021193463
225	0x3cb49f2f	0.02204856
226	0xbcc9f319	-0.02465205
227	0x3dc45d92	0.095881596
228	0x3d68029e	0.05664312
229	0xbd9a767f	-0.075421326
230	0xbd6f2e39	-0.05839369
231	0x3d861e59	0.06548757
232	0x3d4a5b48	0.04940346
233	0x3d662dda	0.05619607
234	0x3d50b1ce	0.050950818
235	0x3dcaff32	0.09911956
236	0x3d49e9ce	0.04929524
237	0x3d104511	0.035222117
238	0x3dbebe19	0.09313602
239	0xbde6028e	-0.11230956
240	0x3cdd2a35	0.026997665
241	0x3e001cbd	0.12510963
242	0x3baa2549	0.005192433
243	0xbd3a123e	-0.045427553
244	0x3d75f713	0.06005008
245	0x3d5017a0	0.05080378
246	0x3da9f7d2	0.08299221
247	0x3d963202	0.07333757
248	0xbc8f8fc1	-0.017524602
249	0x3d49d5e9	0.049276266
250	0xbd9091f4	-0.07059088
251	0x3d9be82f	0.07612645
252	0x3dcfa675	0.10139171
253	0x3bcb9401	0.006212712
254	0x3de0ae02	0.10970689
255	0xbcf5de68	-0.030013278

fc3.weight f4 [128, 256]
0	0xbe557d70	-0.20848632
1	0x3d4fb06b	0.050705355
2	0xbe242c0f	-0.16032432
3	0xbe13ef74	-0.14446813
4	0xba27b9a7	-0.0006398209
5	0x3d27ae96	0.040937982
6	0xbd84c9ba	-0.06483789
7	0xbe3baa79	-0.18326749
8	0xbe55e5a3	-0.2088838
9	0xbd534b0f	-0.051585253
10	0xbe0b8682	-0.1362553
11	0x3db43f56	0.08801143
12	0xbd413e1f	-0.047178384
13	0xbdcb0339	-0.09912724
14	0xbd244b2c	-0.040110752
15	0x3c62af99	0.013835811
16	0x3d347c63	0.044063937
17	0xbde950de	-0.11392377
18	0xbdf686c8	-0.12037426
19	0x3cf2ae7c	0.029624216
20	0xbd1b449b	-0.037907224
21	0xbd274857	-0.040840473
22	0xbcd5cfbb	-0.02610003
23	0xbd6ae3f3	-0.057346296
24	0xbdce9ff2	-0.10089101
25	0x3d860651	0.065441735
26	0xbcc13dd1	-0.023589047
27	0x3dc8beff	0.098020546
28	0xbe191cd3	-0.14952402
29	0x3bd442fe	0.0064777127
30	0xbd5ec4c1	-0.054386858
31	0xbc7f2ad9	-0.0155741805
32	0xbe0c9e29	-0.13732208
33	0xbe22cbf1	-0.1589811
34	0xbe2f50dd	-0.1712069
35	0xbdf5f349	-0.120092936
36	0xbb701d72	-0.0036638645
37	0xbddd8f7a	-0.108183816
38	0x3c759899	0.014989995
39	0xbcbeb824	-0.023281164
40	0xbe10003f	-0.14062594
41	0xbda88e03	-0.082302116
42	0xbe095f82	-0.1341534
43	0x3ba94884	0.0051661152
44	0xbdda0f68	-0.1064747
45	0xbd023def	-0.031797346
46	0x3dd54ee0	0.10415435
47	0xbe27b18e	-0.16376325
48	0xbcc2683b	-0.023731342
49	0xbdab30fc	-0.083589524
50	0xbd99c43a	-0.0750813
51	0xbd388734	-0.045050815
52	0xbd4e38de	-0.0503472
53	0xbc0b7b5a	-0.008513296
54	0xbdee9fa1	-0.116515405
55	0xbdfd06bb	-0.12354799
56	0xbcf47ac6	-0.0298437
57	0xbe5d7846	-0.21627912
58	0xbd8bfee9	-0.0683573
59	0xbe465abd	-0.19370551
60	0xbdc7fc4d	-0.097649194
61	0xbc79af09	-0.015239486
62	0xba7b92ae	-0.0009596747
63	0x3dc3ed4a	0.09566744
64	0x3d471170	0.048600614
65	0xbe4fb5e1	-0.20284225
66	0xbe4017e7	-0.18759118
67	0xbe44eb91	-0.19230486
68	0x3db1ae6c	0.086758465
69	0x3cb96db0	0.02263531
70	0x3c2e362f	0.010633036
71	0xbe2186bf	-0.15774058
72	0xbe082963	-0.13297038
73	0xbcd2d9d8	-0.025738642
74	0x3dacb437	0.08432811
75	0xbe5bcd72	-0.2146509
76	0xbd20205d	-0.039093364
77	0xbd59b5d5	-0.053151924
78	0xbd538bd9	-0.05164704
79	0xbdf6e80e	-0.1205598
80	0xbd58eda5	-0.05296101
81	0xbe3c3b2d	-0.18381949
82	0xbdb5760c	-0.08860406
83	0xbd701462	-0.05861319
84	0xbde99939	-0.11406178
85	0xbdfd7b90	-0.12377083
86	0xbe2b2d58	-0.16716516
87	0xbc76af71	-0.015056477
88	0xbde495e2	-0.111614004
89	0xbe3bb4a2	-0.18330625
90	0xbe06b127	-0.13153516
91	0xbe3d6006	-0.18493661
92	0x3d887e0e	0.06664668
93	0xbdd6e748	-0.10493332
94	0xbc19f537	-0.009396843
95	0xbdf57cdc	-0.11986706
96	0xbdca7423	-0.098854326
97	0xbd083aa1	-0.033259038
98	0xbdfb8fa1	-0.122832544
99	0x3c5722ad	0.013130826
100	0xbd10eda2	-0.035382874
101	0xbe56a42c	-0.20961064
102	0x3d1df4ac	0.038563415
103	0x3d3a1d09	0.045437846
104	0xbe458d03	-0.19292073
105	0xbd0d497c	-0.03449391
106	0x3d4c6633	0.049902152
107	0xbe3768a8	-0.17911017
108	0xbaf44ded	-0.0018638946
109	0xbe0c3232	-0.13691023
110	0xbaef4743	-0.001825549
111	0xbdadabdf	-0.084800474
112	0xbe61950c	-0.22029513
113	0xbe2874dc	-0.16450828
114	0xbe00d6b4	-0.12581903
115	0xbe195d75	-0.14977057
116	0xbe0b3b6f	-0.13596891
117	0xbc7faa52	-0.015604572
118	0xbbf088d9	-0.0073405323
119	0xbe40b54d	-0.18819161
120	0xbddf2677	-0.108960085
121	0xbcb78493	-0.022402084
122	0x3d94b8c6	0.07261805
123	0x3db9ca4e	0.0907179
124	0xbdb2a272	-0.0872239
125	0xbd83575d	-0.064131476
126	0xbdf245e1	-0.118297346
127	0x3afb04b4	0.0019151182
128	0xbd0d594a	-0.03450898
129	0xbdffbdbd	-0.124873616
130	0xbe32e405	-0.17469795
131	0xbdced95b	-0.10100051
132	0xbe44230d	-0.19153996
133	0xbdb0a381	-0.08624936
134	0xbd4d0932	-0.050057597
135	0xbde24a52	-0.11049332
136	0xbe04bf17	-0.1296352
137	0xbd083825	-0.03325667
138	0x3d9d1239	0.07669491
139	0x3c659011	0.014011399
140	0xbe044007	-0.1291505
141	0xbe3fab33	-0.18717651
142	0xbda96709	-0.082716055
143	0xbe21ace0	-0.15788603
144	0x3dc66766	0.096876904
145	0x3a8d98eb	0.0010803019
146	0xbd30cd31	-0.043164436
147	0x3d55e347	0.0522187
148	0xbc1fd908	-0.009756334
149	0xbdd04c02	-0.10170747
150	0x3ddf39a9	0.1089967
151	0xbddb0bac	-0.106955856
152	0xbd9acbe1	-0.07558418
153	0xbd5908ca	-0.052986898
154	0xbe3ff6c1	-0.18746473
155	0xbe003788	-0.12521183
156	0xbd1e4bf0	-0.03864664
157	0xbde78d97	-0.11306303
158	0xbe16166a	-0.14656988
159	0xbd78f672	-0.060781904
160	0xbe1e168a	-0.15438285
161	0xbb7dcd9d	-0.0038727291
162	0x3b37bd53	0.002803643
163	0xbe54149f	-0.20710991
164	0xbdfe8b06	-0.1242886
165	0xbe2722bb	-0.16321842
166	0x3db9a639	0.090649076
167	0x3dabc36d	0.08386884
168	0xbe3913eb	-0.18074004
169	0x3d2a4ffa	0.041580178
170	0xbdcd939c	-0.1003792
171	0xbd2e50b8	-0.04255745
172	0xbc7cce8b	-0.015430103
173	0xbe0a0f7e	-0.13482472
174	0xbe030764	-0.12795788
175	0x3db91937	0.090380125
176	0xbdf02a55	-0.11726824
177	0xbe0d1f57	-0.13781486
178	0xbe22cb8f	-0.15897964
179	0xbe45d925	-0.19321115
180	0xbdc0929f	-0.09402966
181	0x3c3e782e	0.011625333
182	0xbda3a29d	-0.079900004
183	0xbdeef802	-0.116683975
184	0xbdffa1b5	-0.12482015
185	0xbd0ed051	-0.034866635
186	0x3d6bc3fe	0.05755996
187	0xbcf8fc1d	-0.030393654
188	0xbe041335	-0.12897952
189	0xbe4983d2	-0.19679192
190	0xbddad30a	-0.10684784
191	0x3e2eda04	0.17075354
192	0x3df63a18	0.12022799
193	0xbe3743d2	-0.17896965
194	0xbe0ace6e	-0.13555309
195	0xbc3dd96c	-0.011587482
196	0xbd829c38	-0.063774526
197	0xbe57d98a	-0.21079078
198	0xbdd1aed2	-0.102384225
199	0xbc7e563b	-0.015523489
200	0x3d8f7e71	0.07006539
201	0xbd0ce040	-0.03439355
202	0xbc997d0c	-0.018736385
203	0xbd023fb0	-0.03179902
204	0xbe1e20a7	-0.15442143
205	0x3d854687	0.06507593
206	0x3d540d7a	0.051770665
207	0xbc9e48c2	-0.019321803
208	0x3cb9213a	0.022598851
209	0xbdf27c34	-0.11840096
210	0xbe3b6296	-0.18299326
211	0x3da20cd3	0.07912602
212	0x3db98c67	0.09059983
213	0xbddb928b	-0.1072131
214	0xbe717c2f	-0.23582529
215	0x3dd40b9a	0.10353775
216	0x3d7840f8	0.060608834
217	0xbde4b78c	-0.11167821
218	0xbc22b065	-0.009929751
219	0xbe19bc97	-0.15013348
220	0xbe3c7fe0	-0.18408155
221	0x3d868ca8	0.06569797
222	0xbdcc1ea7	-0.09966784
223	0xbd82b996	-0.06383054
224	0xbd77a78f	-0.06046253
225	0xba86aded	-0.0010275223
226	0xbe26c412	-0.16285732
227	0x3bc9cb23	0.006158249
228	0xbd2a70f4	-0.041611627
229	0x3d90af59	0.07064695
230	0x3d9c0065	0.07617263
231	0xbd88f0a1	-0.06686521
232	0xbc1ccb70	-0.009569988
233	0xbdd2e051	-0.10296691
234	0xbcb4fd4d	-0.02209344
235	0xbdc1a169	-0.09454615
236	0x37a32cf0	1.945204e-05
237	0xbd7ffe29	-0.062498245
238	0xbd1baee0	-0.03800857
239	0x3d9cbb7e	0.07652949
240	0xbceac2e2	-0.02865738
241	0xbcd792cf	-0.026315121
242	0xbe0b7dea	-0.13622251
243	0xbdd676a4	-0.10471848
244	0x3b7a4214	0.0038186358
245	0xbd567028	-0.052353054
246	0xbd95630f	-0.072942846
247	0xbd9c4d38	-0.07631916
248	0xbdfa536e	-0.12222944
249	0xbdb2f0c3	-0.08737328
250	0x3ddf3f16	0.109007046
251	0xbd4df06c	-0.050278112
252	0xbdb7fb18	-0.08983439
253	0xbe271fc3	-0.1632071
254	0xbd821a07	-0.063526206
255	0xbe61df58	-0.22057855

fc3.bias f4 [128]
0	0xbe10f203	-0.1415482
1	0x3d9be0c5	0.07611231
2	0xbe1d321e	-0.1535115
3	0x3d0f5e5a	0.03500209
4	0x3e1c125b	0.15241377
5	0xbe2a62fc	-0.16639322
6	0x3d558e20	0.052137494
7	0x3d366237	0.04452726
8	0x3d996ed5	0.07491843
9	0x3c2b3645	0.010449951
10	0x3e084614	0.13307983
11	0x3d96b340	0.07358408
12	0xbe09c438	-0.13453758
13	0xbe2bc0af	-0.16772722
14	0xbe0bff4c	-0.13671607
15	0xbe27dbb8	-0.1639241
16	0x3dde6caf	0.108605735
17	0x3d76c5c8	0.060247213
18	0xbdbd8f34	-0.092558295
19	0xbdd54a86	-0.10414605
20	0xbe2fb656	-0.171594
21	0x3d351519	0.044209573
22	0x3da51fbf	0.08062696
23	0x3d94061f	0.0722773
24	0xbe39efb1	-0.18157841
25	0xbd60f329	-0.054919396
26	0x3d5f4824	0.054512158
27	0x3e0c2f3b	0.13689892
28	0x3e94b179	0.2904165
29	0x3dff5e81	0.12469197
30	0xbe0af47f	-0.1356983
31	0x3e5982c2	0.21241286
32	0xbdb535aa	-0.08848126
33	0x3db02be8	0.086021245
34	0x3d4fdd32	0.050748058
35	0x3d93c42b	0.072151504
36	0xbe373b82	-0.17893794
37	0xbd8ed0b3	-0.069734
38	0x3da8595d	0.0822017
39	0x3daa7604	0.08323291
40	0xbe24b4d3	-0.16084604
41	0x3d8b33be	0.067969784
42	0x3e062b35	0.1310242
43	0x3e1802d1	0.14844824
44	0xbc07f24e	-0.008297516
45	0xbd96d829	-0.07365448
46	0x3b746cbf	0.0037296263
47	0x3e09956d	0.13435908
48	0x3e018da9	0.12651695
49	0x3dab6831	0.08369482
50	0x3df4542b	0.11930116
51	0xbd2bcbaa	-0.041942276
52	0xbdf456bc	-0.11930606
53	0x3d16ad27	0.036786225
54	0x3dee4cb7	0.11635726
55	0x3dccafaa	0.09994443
56	0x3c989546	0.018625867
57	0x3dbb1e9f	0.091367
58	0x3c0718e3	0.00824568
59	0x3d7f5388	0.06233552
60	0x3dbb18d0	0.09135592
61	0xbe1f8b93	-0.15580587
62	0x3d30bae0	0.043146968
63	0xbe26fb37	-0.16306768
64	0xbe3ab05d	-0.1823134
65	0x3d6255fd	0.055257786
66	0x3d6a4fb6	0.057204925
67	0x3dd8050e	0.10547839
68	0xbd5f938f	-0.054584082
69	0x3bee6533	0.0072752475
70	0xbd540033	-0.051758002
71	0x3d0a9d24	0.033841267
72	0x3dab197c	0.0835447
73	0xbd94a9c3	-0.07258942
74	0xbcb3397b	-0.021877995
75	0x3da486da	0.080335334
76	0xbe25c891	-0.16189791
77	0x3da3790d	0.07982073
78	0xbe234852	-0.15945557
79	0xbde4b3b8	-0.11167091
80	0x3d842f88	0.06454378
81	0xbdd4a5c2	-0.10383178
82	0x3da4313f	0.080172054
83	0x3cc2d088	0.023781076
84	0x3e079f42	0.13244346
85	0x3d168be5	0.036754508
86	0x3db1431a	0.08655377
87	0x3d97a27f	0.074040405
88	0x3dc177fe	0.09446715
89	0xbd75d4c8	-0.060017377
90	0xbe25e5a1	-0.16200878
91	0x3d1f6941	0.038918737
92	0xbddd664f	-0.108105294
93	0xbde0e69b	-0.109814845
94	0x3dfc4367	0.123175435
95	0xbe172aed	-0.14762469
96	0xbd95e93d	-0.07319877
97	0x3e0c0d21	0.13676883
98	0x3daaf0a8	0.08346683
99	0x3d22c085	0.039734382
100	0x3db775f1	0.089580424
101	0xbdc9c5d2	-0.09852184
102	0xbe33f606	-0.17574319
103	0x3db28f1a	0.08718701
104	0x3d856a96	0.0651447
105	0x3cb50d1d	0.02210098
106	0x3e96e874	0.29474223
107	0xbcfe70c5	-0.031059632
108	0xbd5d03bd	-0.053958643
109	0x3d553aa2	0.05205787
110	0x3da1c7db	0.078994475
111	0xbe0c29db	-0.13687842
112	0xbe2696bc	-0.16268438
113	0x3d584491	0.052799765
114	0xbe220640	-0.15822697
115	0xbb499ead	-0.0030764744
116	0x3d69e27a	0.05710075
117	0x3ea20073	0.31640968
118	0x3e094c0b	0.13407914
119	0xbe391259	-0.18073405
120	0xbdf77e55	-0.12084643
121	0xbd796d59	-0.060895298
122	0x3dbc9c26	0.092094705
123	0xbdde2a9e	-0.10847972
124	0xbe2e34a6	-0.17012271
125	0xbda9be6d	-0.08288274
126	0xbe2bd764	-0.16781384
127	0xbe0ef803	-0.13961796

fc4.weight f4 [1, 128]
0	0x3e737aff	0.23777388
1	0xbdc6ff97	-0.09716719
2	0x3e59401c	0.21215862
3	0xbdd51487	-0.10404306
4	0xbde04e45	-0.10952429
5	0x3e6b4a2d	0.22977515
6	0xbd959c53	-0.07305207
7	0xbdc14523	-0.09437015
8	0xbd9d5cc4	-0.07683709
9	0xbdb19ce7	-0.08672505
10	0xbde326c9	-0.11091382
11	0xbdd9e16e	-0.106387004
12	0x3e6dc78a	0.2322065
13	0x3e68b7b8	0.22726333
14	0x3e5a117a	0.2129573
15	0x3e6baf29	0.23016037
16	0xbda956af	-0.08268487
17	0xbd9ddc80	-0.07708073
18	0x3e808d50	0.25107813
19	0x3e7de4b1	0.2479427
20	0x3e6b7a3f	0.22995852
21	0xbdacfa8a	-0.08446224
22	0xbda4d414	-0.08048263
23	0xbdbba874	-0.09162989
24	0x3e6bbba5	0.230208
25	0x3e785a81	0.24253275
26	0xbd9badf5	-0.07601539
27	0xbde1c18a	-0.11023243
28	0xbed4aa10	-0.41535997
29	0xbdb4ae24	-0.08822277
30	0x3e6be591	0.23036791
31	0xbe91655b	-0.2839764
32	0x3e711f3a	0.23547068
33	0xbda3c275	-0.07996074
34	0xbdd7f5ad	-0.10544906
35	0x3e919feb	0.2844232
36	0x3e67928d	0.22614498
37	0x3e7fdb8a	0.24986091
38	0xbdf6a6c4	-0.12043527
39	0xbdd7c7d1	-0.10536159
40	0x3e677558	0.22603357
41	0xbdacde17	-0.08440798
42	0xbdd1add5	-0.10238234
43	0xbdc946e0	-0.098279715
44	0xbdc4bf9d	-0.0960686
45	0x3e773593	0.2414153
46	0xbd87f5be	-0.066386685
47	0xbdc96390	-0.09833443
48	0xbdcf8349	-0.101324625
49	0xbdb0d432	-0.08634223
50	0xbdddf08d	-0.10836897
51	0x3e7929e9	0.24332394
52	0x3e74adf6	0.23894486
53	0xbdb89c87	-0.0901423
54	0xbdcc65e8	-0.099803746
55	0xbd995ef9	-0.07488818
56	0xbdd6ef7b	-0.10494896
57	0xbdd6aecb	-0.10482558
58	0xbd993c93	-0.07482257
59	0xbdd8e982	-0.10591413
60	0xbd9e625d	-0.07733605
61	0x3e691dcb	0.22765271
62	0xbddae512	-0.10688223
63	0x3e76190a	0.24032989
64	0x3e7834c7	0.24238883
65	0xbd9f6135	-0.07782213
66	0xbd964da8	-0.073390305
67	0xbda7f315	-0.08200661
68	0x3e7ba7b5	0.24575694
69	0xbde0fd85	-0.10985855
70	0x3e73243a	0.23744288
71	0xbdd1de34	-0.1024746
72	0xbdda5df7	-0.106624536
73	0x3e70bc0e	0.23509237
74	0x3e896018	0.26831126
75	0xbda80a41	-0.08205081
76	0x3e63557f	0.22200583
77	0xbdcc3708	-0.09971434
78	0x3e61fd9a	0.22069398
79	0x3e6ab962	0.2292228
80	0xbdb2a5ba	-0.08723016
81	0x3e6a1589	0.22859778
82	0xbdb699e2	-0.089160696
83	0xbdb07e32	-0.0861782
84	0xbddba82f	-0.10725438
85	0xbda1a197	-0.07892149
86	0xbdd59431	-0.10428656
87	0xbddb1747	-0.10697799
88	0xbdb7d231	-0.08975638
89	0x3e6006ca	0.2187759
90	0x3e6be075	0.23034842
91	0xbde08b64	-0.10964087
92	0x3e795f1b	0.24352686
93	0x3e7b9203	0.24567418
94	0xbddd5b11	-0.10808385
95	0x3e79f4e1	0.2440982
96	0x3e800152	0.25001007
97	0xbddc90e0	-0.1076982
98	0xbdda9571	-0.10673035
99	0xbddb9ac4	-0.107228786
100	0xbdba85f6	-0.09107582
101	0x3e654276	0.22388634
102	0x3e6338fe	0.2218971
103	0xbde14f1e	-0.110014185
104	0xbdbd073e	-0.09229897
105	0x3e8a9bf3	0.27072105
106	0xbed36be5	-0.41293254
107	0x3e8b9303	0.272606
108	0x3e782811	0.24234034
109	0xbd96a355	-0.07355372
110	0xbddd4f72	-0.108061686
111	0x3e6e4de3	0.23271899
112	0x3e62b2d8	0.22138536
113	0xbdd96101	-0.10614205
114	0x3e6845c7	0.22682868
115	0xbda34fe1	-0.0797422
116	0xbde4bb75	-0.11168567
117	0xbebdba99	-0.37056425
118	0xbdd5413e	-0.104128346
119	0x3e7600ba	0.24023715
120	0x3e6438ec	0.22287339
121	0x3e6f63ca	0.2337791
122	0xbd9f7c06	-0.077873275
123	0x3e637ceb	0.22215621
124	0x3e6cb653	0.23116426
125	0x3e57eda4	0.21086746
126	0x3e6a5735	0.2288483
127	0x3e75566a	0.23958746
