09_actor_critic/ddpg/ddpg-bipedal/checkpoint_critic.pth (torch_old, 426228 bytes, 7 tensors)

fcs1.weight f4 [256, 24]
000000 e6 7b 96 3e 30 50 0f 3f d9 81 5a bf 28 1d 9e be
       0.29391402 0.5598173 -0.8535438 -0.3088162
000010 f0 6c 69 3e a4 ca 52 3e c6 a7 5d 3e 34 4f dd 3d
       0.22795463 0.20585114 0.21646032 0.108061224
000020 49 d8 82 3d 44 cc 77 3e 82 44 ef 3d d1 02 b9 bd
       0.06388909 0.24199015 0.11682989 -0.0903374
000030 f1 a2 3b 3e c3 7d 7d 3e 3d ca 14 be 8e 9a 14 be
       0.18323876 0.24755006 -0.14530273 -0.14512083
000040 30 be 15 be 0a a2 12 be 44 81 16 be 8e 91 14 be
       -0.14623332 -0.14319625 -0.14697748 -0.1450865
000050 b0 42 19 be 37 b2 17 be e3 f7 23 be a8 96 29 be
       -0.14966846 -0.14814077 -0.1601253 -0.16561377
000060 52 6a 9c be fd 6d 1e be 5d ab 8f 3e 75 42 6a 3e
       -0.30549866 -0.15471645 0.28060427 0.22876914
000070 27 e9 fd bc 9f 43 7d be 98 b8 dd be 61 fb c0 3e
       -0.030994965 -0.24732827 -0.43304896 0.37691787
000080 52 63 94 3e 90 5c 1c 3d d1 e3 34 3e fd be 0e 3c
       0.28982025 0.038174212 0.1766503 0.008712527
000090 ea 60 7f 3d 5d d4 2d 3c df d9 5a bd bf 89 3d bc
       0.062348284 0.010609713 -0.053430434 -0.011568486
0000a0 f8 5a be bc 6b 65 8b bc 7d 51 bb bc a3 50 8d bd
       -0.023236737 -0.017016133 -0.022866005 -0.06900146
0000b0 cd b5 84 bc 02 8e 92 bb 17 d9 c5 bd 53 ab 75 3c
       -0.01619997 -0.004472495 -0.09660547 0.01499446
0000c0 f5 82 4e bd ea c9 fa be 04 33 5a 3e f2 1c ca be
       -0.05041786 -0.48982173 0.21308523 -0.3947521
0000d0 fa 1d 40 3d cd a6 5c bd ac 79 53 bd e1 ae 76 bc
       0.046903588 -0.05387001 -0.051629707 -0.015056343
0000e0 67 bf 57 3d 71 07 70 bd 58 33 2a bd ab 51 e9 3c
       0.05267277 -0.058600847 -0.04155287 0.028481325
0000f0 98 b4 53 3d 75 97 b9 bd 83 e3 29 bd 9b ed a4 bc
       0.0516859 -0.09062091 -0.041476738 -0.02013283
000100 3f d8 0e 3d 98 5a 1f 3d cd d7 17 3c 37 34 ac bc
       0.034874197 0.038904756 0.0092677595 -0.021020992
000110 29 3c f9 bc f6 f2 80 bc 56 48 dd 3c ed 78 4f bd
       -0.030424194 -0.015740853 0.027012032 -0.050652433
000120 58 04 cd 3d 79 c4 23 be 55 a0 af 3e 91 ac 09 3e
       0.10010594 -0.15992917 0.3430201 0.13444735
000130 12 67 c9 3c 04 67 ae 3e ac f1 2b be 05 8e 4f 3d
       0.02458528 0.3406297 -0.16791409 0.05067255
000140 f7 fa 94 bd 69 56 bf be bf 3c 81 3d 10 88 88 3e
       -0.0727443 -0.37370613 0.063104145 0.26666307
000150 d7 41 c5 be 87 63 72 3e ef 85 a9 bd 30 9e 55 bd
       -0.38526794 0.23670779 -0.08277499 -0.052152812
000160 da 3c 82 bd e6 35 f8 bc 75 2e a1 bd 07 18 d1 bd
       -0.06359263 -0.030299138 -0.07870189 -0.10209661
000170 ad 30 45 bd 8f 9e 00 be b7 d5 c1 bd 33 58 3e bd
       -0.048142124 -0.12560485 -0.09464591 -0.046470832
000180 2f 4a 36 be e0 f8 c1 bd 88 ff 83 be 7d 21 21 3c
       -0.17801736 -0.09471297 -0.25780892 0.009834644
000190 c9 72 5a bd ef a4 10 be b7 db 31 be cc 74 5d bd
       -0.053332124 -0.14125417 -0.17368971 -0.054066464
0001a0 c1 54 c0 bc 4a e9 07 3a a1 aa cc 3d 4e 9a d3 3d
       -0.023477914 0.0005184604 0.099934824 0.10332166
0001b0 7d 70 93 3d c3 2d 8a bd 5c c9 01 bd e4 b1 08 bd
       0.0719919 -0.067470096 -0.031686172 -0.033372775
0001c0 b8 82 df bc 72 0a 39 3d 82 38 22 3d ed e7 85 3d
       -0.027284011 0.045175977 0.03960467 0.06538377
0001d0 e5 7f 29 3d 26 96 30 3d 0a da 2d 3d dd 9f ac 3d
       0.041381735 0.043111943 0.042444266 0.08428929
0001e0 7a e1 9b be 2f 42 11 bf 18 d6 0c bf d9 48 20 3f
       -0.30445462 -0.56741613 -0.5501418 0.62611157
0001f0 74 9b 44 3d 38 6f 70 be 03 69 cf 3d fc 29 fa bd
       0.047999814 -0.23479927 0.10127451 -0.12215039
000200 87 99 80 3e ce a4 c7 bd fc 40 48 be c1 a0 30 be
       0.25117132 -0.09748231 -0.1955604 -0.17248823
000210 9a 1f a3 bd 58 08 a2 bd 87 aa 51 3d 85 ef e9 3c
       -0.07965012 -0.07911748 0.05118802 0.028556595
000220 41 35 dd 3c a0 19 c4 3d 2b c3 26 3d 57 8e 41 3d
       0.027002933 0.095752 0.04071347 0.047254886
000230 6e 64 97 bb 2b 78 97 3c f8 e7 db 3c c8 96 be bb
       -0.0046201264 0.018489918 0.02684401 -0.0058163144
000240 c4 25 cf be 07 16 e5 3d d9 e6 b1 be 5e e1 15 be
       -0.404585 0.11185842 -0.34746435 -0.14636752
000250 c3 76 61 3e df 95 71 3d 0c 95 80 3c 8c 4c 04 3d
       0.2201796 0.05898082 0.015696071 0.032299563
000260 96 a8 7f bd b7 67 94 3d 41 bc d2 3d 7f cf 6b 3e
       -0.062416635 0.072463445 0.10289813 0.23028372
000270 aa ef 98 3d 6e ca 90 3d b0 f2 88 bd 1d 12 eb bd
       0.07467587 0.070698604 -0.06686914 -0.11478064
000280 ba 49 b6 bd 6a 2e 00 be 24 14 d2 bd b0 77 4f bd
       -0.08900781 -0.12517706 -0.10257748 -0.050651252
000290 00 24 fb bd 22 90 dd bd 97 a9 24 bd 75 ac 51 3d
       -0.12262726 -0.10818507 -0.040200796 0.05118986
0002a0 aa b7 5c 3e 8f 39 17 3f 39 00 90 be 56 ca 8b bf
       0.21554437 0.590722 -0.2812517 -1.0921123
0002b0 c5 4e 21 be c1 77 cb bd fb cc 6e bd a0 a1 2f be
       -0.15752704 -0.099349506 -0.058300953 -0.17151499
0002c0 35 52 9c bd 49 4a d4 be 37 ed 20 3e 3b 02 28 3e
       -0.07632867 -0.41462925 0.1571549 0.16407101
0002d0 51 3d 46 3f b7 a4 8b 3c 17 77 2c be 02 d7 57 be
       0.7743731 0.017046316 -0.16842304 -0.21078113
0002e0 b4 ce 33 be 88 bd 34 be 4e 4b 11 be 40 a4 1f be
       -0.1755932 -0.17650425 -0.14188883 -0.1559
0002f0 76 0a 28 be 2d da 6d be e4 b2 66 be 75 c4 c6 bd
       -0.1641024 -0.23227759 -0.22529179 -0.0970544
000300 ec d8 a8 be 2f de 8c bf 7d 26 00 3f e4 ba 3a ba
       -0.32977998 -1.1005305 0.5005873 -0.0007123186
000310 91 58 8b 3d 6f 3f 5e 3d e1 25 98 3b 7d ca 12 3d
       0.06804002 0.054259714 0.0046431874 0.03583764
000320 fe 0b 15 3d f1 af 38 be 30 8c 3e 3b a1 04 1c be
       0.03638839 -0.18035866 0.0029075257 -0.15236141
000330 67 a2 44 3d 7c 93 5e 3c 2b 63 93 3b 54 a4 02 bd
       0.04800644 0.013584968 0.0044979057 -0.031894997
000340 d2 d4 b7 bc d1 60 b8 3a b9 94 33 bc ee 6c de bc
       -0.022440348 0.001406694 -0.010960751 -0.027151551
000350 5e 0e 8b 3c f5 72 93 bb c4 19 5c 3d 1e ee 7f bd
       0.016974624 -0.004499788 0.05373551 -0.062482946
000360 21 d2 71 3e 61 fb 35 be 0c 5e 0a bf 50 47 c8 bd
       0.23615314 -0.17771675 -0.54049754 -0.09779227
000370 d4 05 15 be 0c 89 17 bd 96 70 05 3b b8 e1 10 bd
       -0.14553005 -0.036995932 0.0020361296 -0.035371512
000380 b9 85 26 be 9a 32 0e 3e a1 dc 1d 3e a0 48 d5 bd
       -0.16261949 0.1388649 0.15416194 -0.10414243
000390 ee ce 54 3d dd 79 1e 3d 56 38 98 bd 30 83 56 bd
       0.051955156 0.038690437 -0.0743262 -0.052371204
0003a0 c5 b0 dd bd 0c 6a 33 bd c6 b9 a7 bd 2d d4 e5 bc
       -0.10824732 -0.043802306 -0.0818973 -0.028055275
0003b0 71 21 c9 bd 3b 1a 83 bd d8 8a bb bc 09 74 c4 3d
       -0.098208316 -0.064014874 -0.022893354 0.095924444
0003c0 5f 51 a7 3e 06 a7 b4 3f d4 a6 f9 bd ac 0a 3f bd
       0.3267927 1.4113472 -0.12190023 -0.046641037
0003d0 48 c5 d2 3e c4 14 a4 3d 50 3a 6e bd 9c 3a 5e 3c
       0.4116614 0.08011773 -0.05816108 0.013563778
0003e0 eb 57 00 3c b8 65 31 3d ee 04 8d 3d bd b9 53 3c
       0.007833461 0.043309897 0.06885706 0.012922701
0003f0 2c 65 38 bd bc 52 81 bd 4c 0b 12 3d 68 98 88 3d
       -0.04501836 -0.063146085 0.035655305 0.06669694

fcs1.bias f4 [256]
000000 4d 6d 88 bd dd a3 1f be f0 92 54 3e 35 fe 48 bd
       -0.066614725 -0.15589853 0.20759177 -0.049070556
000010 ea b8 00 3e e1 91 86 be 85 b5 69 be 7a 8d 8b bd
       0.12570539 -0.26283172 -0.2282315 -0.06814094
000020 5e 84 f1 3b 6e 33 cc 3b 4a 29 46 be fd fe dd bd
       0.0073705157 0.006231717 -0.19351688 -0.10839651
000030 18 30 35 3c b5 d7 a2 be 6c c3 da 3d a2 94 92 be
       0.01105883 -0.31805196 0.10681805 -0.28629023
000040 8c c4 4b be 26 59 c4 3d 64 00 9a bd 2a eb b7 bc
       -0.19899195 0.09587316 -0.07519606 -0.022451002
000050 09 af 90 3d be 72 7d be a2 e3 d2 3d c2 ba 42 3e
       0.07064635 -0.24750802 0.10297324 0.19016555
000060 a7 4b 40 be 4f 35 0c 3c 49 9b 8b 3d df cf 2d be
       -0.18778859 0.008557632 0.06816728 -0.16973828
000070 aa 28 66 3d 38 5b c5 3d ac ce 71 bd 1b 10 83 3e
       0.056191124 0.09636539 -0.05903499 0.25598225
000080 a3 17 a3 3e fc ed f6 3d 94 68 5f 3e 10 7f e1 bd
       0.3185397 0.12057111 0.21817237 -0.110105634
000090 a7 7d 00 3d ba f6 99 bd 7c 6b 25 bd ac 3a fb bc
       0.03136983 -0.075177625 -0.04038571 -0.030667625
0000a0 46 9e 01 3e a9 ba fb bd 9d 1a cf 3e 4b 4d b0 bb
       0.12658033 -0.12291462 0.40449992 -0.005380308
0000b0 b1 41 5d be 1a 42 31 be 62 b9 90 be f6 dd 47 be
       -0.2160709 -0.17310372 -0.28266436 -0.19518265
0000c0 78 b2 df bd 04 c3 9d 3c ba 0c 00 3e 64 25 96 be
       -0.10922712 0.01925803 0.12504855 -0.29325402
0000d0 72 45 a6 be 5f b6 37 3e 4b c6 76 bd 67 73 1b be
       -0.32474858 0.17940663 -0.0602477 -0.15180741
0000e0 69 81 80 be cb a1 0a be e1 21 37 bd e3 81 a1 3e
       -0.25098732 -0.13538282 -0.044710044 0.31544408
0000f0 0d 8f 45 3d 4c 1f aa 3d a1 ad 16 3e 34 00 3f bd
       0.048232127 0.08306751 0.14714672 -0.046631053
000100 63 28 68 3e f7 c6 0e 3e 52 a8 98 3d 66 34 69 be
       0.22671656 0.13943087 0.074539796 -0.22773895
000110 b8 47 13 3d a5 15 52 3e 4d 41 b9 be a4 74 8c 3d
       0.03595707 0.20516069 -0.36182633 0.06858185
000120 31 5c 1f 3d 72 37 37 3e 96 60 c0 bd 87 28 60 3e
       0.03890628 0.17892244 -0.09393422 0.2189046
000130 01 af 4f be 29 4d d2 bd 14 16 97 be 1c 97 9c 3e
       -0.20281602 -0.102686234 -0.29509032 0.30584037
000140 11 49 14 bd 59 47 94 be db 3e b8 be ed a6 a4 bd
       -0.036202494 -0.28960684 -0.35985455 -0.08039651
000150 4e b4 df 3d b3 9a 5c 3e 1c 01 ce bd f8 cb 9c be
       0.10923062 0.21543388 -0.10058805 -0.30624366
000160 36 51 c7 bd 4b ee 18 bc e8 29 a2 bd bc 7e be be
       -0.09732287 -0.009334157 -0.07918149 -0.37206066
000170 30 2e e9 3d 76 73 c4 3d d6 f9 85 be 96 1f 47 3e
       0.11385763 0.09592335 -0.26167172 0.19445643
000180 a4 64 03 3c 6c e2 68 be f2 72 61 be 87 61 fb bd
       0.0080196 -0.22742623 -0.22016504 -0.12274461
000190 b0 b8 5f bc bd 36 56 3e 60 a8 bd 3d 8e 65 f7 3c
       -0.013654873 0.20919318 0.092606306 0.030199792
0001a0 db 7f 87 bd 18 b5 c6 bd e5 9a 42 3e a6 b0 49 3d
       -0.06616183 -0.0970251 0.190044 0.04924073
0001b0 50 62 13 be ff 70 60 be 59 c0 f9 bc 7b 0d 48 3d
       -0.14392972 -0.21918105 -0.030487226 0.04884098
0001c0 16 24 98 be 26 fb e1 bc 42 43 4a be 02 e0 8f 3e
       -0.2971503 -0.027585577 -0.1975222 0.28100592
0001d0 0d e6 71 be 55 67 80 3e 50 dd 22 bc 44 4a f9 3c
       -0.23622914 0.25078836 -0.00994046 0.03043092
0001e0 b4 9a 04 bd bb db ac bd 43 24 79 3e b5 d6 a9 bd
       -0.0323741 -0.08440348 0.24330239 -0.08292905
0001f0 64 f7 1d be 5c ba 2c 3d 0a 0b e1 bd ac 6c 92 3e
       -0.15426403 0.042169914 -0.10988434 0.28598535
000200 76 11 8b 3e 59 53 8a 3e 31 12 2c 3e 34 0a 86 3d
       0.2716176 0.27016714 0.16803814 0.06544915
000210 66 08 e5 bd f7 2d 33 bd 97 b4 b1 bc c0 c2 7b be
       -0.111832425 -0.043745007 -0.021692557 -0.2458601
000220 14 46 b6 3e 03 ad 19 bd 9c 74 98 bd f6 e4 e0 3d
       0.3560034 -0.037518512 -0.074441165 0.10981171
000230 8b d3 1f 3d a9 a9 f2 3d 5f 1e ac 3c aa d3 59 3e
       0.039020102 0.11848766 0.021010576 0.2127215
000240 de d8 00 3d 41 ac 80 3e db 09 b8 3e d5 ab 2d 3e
       0.03145682 0.2513142 0.3594502 0.1696008
000250 8f bf 87 3d 6c 85 aa 3e ff 0c ad 3e 40 d7 06 bd
       0.06628334 0.33304918 0.33798978 -0.032920122
000260 4c a7 4e 3d b5 cd 4b be a1 d9 81 3e d9 06 55 3e
       0.050452515 -0.1990269 0.2536135 0.20803393
000270 5c d1 4c be d9 6d e5 bc 14 66 f3 bd 9a fc 58 be
       -0.2000174 -0.028006481 -0.11884704 -0.2119011
000280 25 f0 58 be da ef 33 be 27 5e 05 3e 1a 88 5f 3c
       -0.21185358 -0.17571965 0.13024198 0.013643289
000290 82 ce 83 3e 62 f4 21 3d 14 c7 86 bd 95 22 d2 3e
       0.2574349 0.039539702 -0.0658094 0.4104201
0002a0 5f 6e 0f be 47 4f 5f 3e 10 6d 8a 3d f3 41 eb 3c
       -0.14006947 0.21807586 0.06759083 0.02871797
0002b0 3b f0 5c be 69 bc db 3d 73 6e f1 3d 99 0c 30 be
       -0.21576016 0.10729296 0.11788645 -0.17192306
0002c0 f6 07 19 3e 0a 8c 04 be 45 c7 a3 3e 3f 0e ea 3e
       0.14944443 -0.12944046 0.31987968 0.45713994
0002d0 3a 12 05 be 3d 8f 32 3e e6 09 5a 3e 7b 59 23 be
       -0.12995234 0.17437454 0.21292838 -0.15952103
0002e0 5d 76 f6 bd 5c b4 14 3e 59 e6 29 be 14 1c 14 be
       -0.12034295 0.14521927 -0.16591777 -0.14463836
0002f0 5c 1d 80 3e 36 06 b9 3d 5a ff 4b 3e 4b 7d f9 bd
       0.250224 0.09034388 0.19921628 -0.12182101
000300 79 69 95 be 68 bb 99 bb 9a 89 9d 3e a7 72 b0 be
       -0.29182032 -0.00469153 0.30769044 -0.34462473
000310 6e c4 04 be c1 d1 c8 bd 52 9a 33 3e 8c 4c 95 be
       -0.12965557 -0.098056324 0.17539337 -0.29159963
000320 d2 3e e1 3d 68 25 cc bc 11 e4 69 be 0a 3f a0 be
       0.1099831 -0.02492018 -0.22840907 -0.31298095
000330 fa ea 5a 3c 57 d6 02 be 0b f7 ce bd 39 97 eb 3d
       0.013361687 -0.12777077 -0.101057135 0.11503453
000340 5a 0a de bd c5 04 8a 3d 37 20 75 bd 69 01 7e bd
       -0.10841818 0.06739191 -0.059845176 -0.062013064
000350 cf 84 7e 3e 54 d9 a3 be 36 c9 54 be f7 6d a9 be
       0.2485535 -0.32001746 -0.20779881 -0.3309171
000360 a6 93 c0 3d 5c f7 a0 3e 07 70 65 be 97 0e c7 3d
       0.09403162 0.3143872 -0.22406016 0.0971958
000370 65 0b 81 3d df dc 09 3e 26 a6 14 be fa 3c 59 be
       0.063010015 0.13463162 -0.14516506 -0.21214667
000380 fa 88 94 bd 91 0b 7f be 7a 0d ad bd 9d 5d 23 be
       -0.07252689 -0.24906756 -0.08449836 -0.1595368
000390 93 19 05 bd ab 57 1e 3e 7a 38 0f 3e 7d 76 ab be
       -0.032495093 0.1546313 0.13986388 -0.33488837
0003a0 61 4e 19 bd 22 46 9f 3e 53 f0 1b be 59 5b c5 be
       -0.037428264 0.31108195 -0.15228395 -0.38546255
0003b0 8d 90 05 3e 4c 39 06 be 6c b0 e4 3d 0c 98 f5 3d
       0.13043423 -0.13107795 0.11166462 0.11991891
0003c0 4d 0f 98 3c d4 38 ed bd 9e 43 3e bc 79 0d ed bd
       0.018561983 -0.11583105 -0.011612801 -0.11574835
0003d0 80 24 a0 bc 02 4a 24 be 9b 04 00 3e 3f 54 40 3e
       -0.019548655 -0.16043857 0.12501757 0.18782137
0003e0 23 27 5d 3e 12 d7 83 3e be 53 16 3e 9f cd 36 be
       0.2159696 0.25750023 0.14680383 -0.17851876
0003f0 94 a2 ca bd 79 e1 91 3c 10 21 c3 3d 5f fe 57 3e
       -0.098942906 0.017807709 0.095277905 0.21093129

fc2.weight f4 [256, 260]
000000 c5 9a cd bd 0e bc 95 bd 60 ac df 3d 9d f5 5a be
       -0.100392856 -0.07311259 0.1092155 -0.21382757
000010 0f d5 43 3e 18 0f 76 3e c5 ad 67 3b b9 0e 16 bf
       0.19124244 0.24029195 0.0035351377 -0.58616215
000020 b6 b6 97 be 82 3e d2 bb e3 b4 41 3e 56 fc 7c bd
       -0.29631585 -0.006416143 0.18916659 -0.061764084
000030 b9 49 48 3d 45 6f 8b bc f5 6a fb 3c be ef 87 bc
       0.048898432 -0.01702083 0.03069065 -0.01659381
000040 64 03 98 3c 55 2b b6 be 85 14 2c 3d 20 d6 ec 3d
       0.018556304 -0.35579935 0.042011756 0.115642786
000050 7e 60 d7 3d 56 83 b9 bb 68 15 d2 bd 3e 74 68 bd
       0.10516451 -0.0056614084 -0.10257989 -0.056751482
000060 a3 2d 43 3e 59 8a cf be c2 ea 8d 3d 6b 68 13 3d
       0.19060378 -0.40535238 0.06929542 0.035988253
000070 8d 4e dd 3d 4b 5e a0 3e 3b 79 79 bd 03 a7 e1 3d
       0.10805998 0.3132194 -0.06090663 0.11018183
000080 87 1c 3f 3c 12 70 4c be 7e f9 99 bc 0f c6 24 be
       0.011664516 -0.19964626 -0.018795725 -0.16091178
000090 d3 ca 39 be 3c e9 96 bc 6d 8c 8a be 4a 13 9c 3e
       -0.18143778 -0.018421762 -0.2706026 0.30483466
0000a0 19 7b d9 3d cb 63 18 bd 74 52 73 be 88 aa bb be
       0.10619182 -0.037204545 -0.23761922 -0.36653543
0000b0 ed 5a 96 3e de d2 c4 3e 8a d7 0e 3e 59 49 8b 3e
       0.29366246 0.3844213 0.13949409 0.27204397
0000c0 8b ca 63 bd ff 19 58 3e 2a 23 09 3e 92 60 49 3e
       -0.055613082 0.21103667 0.1339232 0.19665745
0000d0 3f 6c 74 bc aa 7a 24 be 93 f1 b0 bd 79 73 66 3e
       -0.014918386 -0.16062418 -0.086398266 0.22504987
0000e0 2a 39 ec 3d d2 2a 61 3e 53 6e 2c 3d 9f 51 27 3b
       0.11534341 0.21988991 0.0420974 0.0025530828
0000f0 6e 53 ab 3e 36 35 6f 3e 05 6e 95 3c e8 65 f2 be
       0.3346209 0.23360142 0.018240938 -0.47343373
000100 d9 2e 01 be d6 1a 2d ba ff ff 4f 3e be c2 d1 3d
       -0.12615527 -0.0006603425 0.20312499 0.10242222
000110 04 cd 92 3e 9a 8d ca bd 72 ef 9c 3d df 60 2c be
       0.2867204 -0.098902896 0.07662858 -0.16833828
000120 d7 f6 b3 3d 44 1c 47 be 13 8e c4 3d e9 dc 02 3d
       0.08787315 -0.19444376 0.09597411 0.031948958
000130 72 be a2 be 26 ec 68 3e 04 95 a7 3d 6d 12 43 bc
       -0.31785923 0.22746333 0.08182719 -0.0119062485
000140 df 9e 07 3e d8 66 fe 3d 00 21 55 3c d5 eb a3 3e
       0.13244198 0.1242196 0.013008356 0.32015863
000150 0f 28 b1 bb 96 96 96 be 20 f5 67 bd 71 65 40 3e
       -0.0054063867 -0.29411763 -0.056630254 0.18788697
000160 e7 71 52 3d 12 a8 69 3e 7e 7c e6 3d 25 06 ad 3c
       0.051378157 0.2281802 0.11254214 0.021121094
000170 2c e4 61 3d 32 fc 30 be b5 52 c5 bd f1 e9 ca bc
       0.055149242 -0.17283705 -0.09634916 -0.024769755
000180 07 ef fb 3c 99 6c e4 3c 38 16 19 3e 60 e0 03 3e
       0.030753626 0.027883815 0.14949882 0.12878561
000190 8e 41 00 3d 68 1c 17 3d 9a 65 dc 3d 71 fd f4 3d
       0.031312518 0.036892325 0.107615665 0.119624026
0001a0 b7 23 09 3d 09 c3 6e 3e d8 c8 9a 3e 95 06 45 be
       0.033481326 0.23316588 0.30231357 -0.19240792
0001b0 3f 65 9b bd a5 36 a3 bc e7 90 ca bb fc be 4b 3e
       -0.075876705 -0.019923517 -0.0061818245 0.19897074
0001c0 6d 7b a2 3c 9e 4a 1d 3e 58 c5 f0 be 1f e5 67 3c
       0.019834245 0.15360495 -0.4702556 0.014153748
0001d0 60 fe 67 bc 79 08 1f bd 83 31 00 bb 22 e9 53 3c
       -0.014159769 -0.03882644 -0.0019560761 0.012934001
0001e0 1d 19 a4 bd bb 22 80 bd 5c 60 41 be 12 d6 7c bd
       -0.080126025 -0.06256624 -0.18884414 -0.06172759
0001f0 c0 9f 56 bd b9 d9 c5 3d a9 ca 2a 3e 38 de 4b be
       -0.052398443 0.09660668 0.16678871 -0.19908988
000200 ca 12 93 bd 8d 62 11 bc 10 0c f8 bd 70 5f ab 3b
       -0.07181318 -0.008873594 -0.12111676 0.005229883
000210 b5 93 7e 3d b0 bc 94 be 68 78 30 3e db 03 60 3c
       0.062152583 -0.29050207 0.17233431 0.013672794
000220 d0 fd a8 3d c8 e1 00 3d 75 6d 3e 3e 3c 7f 93 bd
       0.08251536 0.03146532 0.18596442 -0.072020024
000230 cd b5 f0 3e c0 a7 e1 bd 9c 52 c8 be 8f dc bf bc
       0.47013703 -0.11018324 -0.39125526 -0.0234206
000240 14 a1 62 3e b9 80 16 bd e4 2e 56 bd ef e9 da 3d
       0.22131759 -0.036743853 -0.052290812 0.106891505
000250 ea 6f 93 3c c1 da e1 3c 72 eb 0f bc 5d 4a 69 3d
       0.0179977 0.02757013 -0.008784162 0.056955684
000260 29 54 f8 3d 48 69 22 3c 6a 6e 5c 3e 38 e5 3e be
       0.12125427 0.009912796 0.21526495 -0.18642128
000270 7b fe c4 3d 88 f1 b7 3d c6 be 0f 3e f9 76 8c bd
       0.09618851 0.08981615 0.14037618 -0.0685863
000280 84 52 d2 3d 8a c2 e1 bd 0b 88 c1 be da 69 80 3e
       0.10269645 -0.110234335 -0.37799105 0.25080758
000290 b0 d9 1f be 58 fa 6b bb 03 ae 0a 3e bc a3 f4 bd
       -0.15610385 -0.003600737 0.13542943 -0.11945292
0002a0 5b 1f dc bd 89 77 25 bd 44 7f bc 3d 4b a2 ae 3c
       -0.10748168 -0.0403972 0.092039615 0.021317622
0002b0 a7 61 ba bd 73 cd f7 3d 9e 3d a4 be 92 2d 71 3e
       -0.09100657 0.12099733 -0.3207826 0.2355254
0002c0 fe 44 8b be 3e 32 19 bc 18 21 b1 3b bb 67 b5 be
       -0.27201074 -0.009350358 0.0054055564 -0.35430703
0002d0 dc 3c 08 be c0 c7 20 3e 6d 20 8b 3d c2 bb 4c 3e
       -0.13304466 0.15701199 0.06793294 0.19993499
0002e0 1a 92 68 3e 21 4d 1a bd b9 10 24 3c ce 2a 94 3d
       0.22711983 -0.037671212 0.010013753 0.07234727
0002f0 62 5d 2c bd 7d 74 b4 bd 89 ab 7f bd 0a 1d dd 3c
       -0.042081244 -0.08811281 -0.062419448 0.026991386
000300 00 ee de 3d 2e 40 9f be 77 69 c7 be d6 45 b5 3d
       0.10885239 -0.31103653 -0.3894765 0.08851211
000310 b5 43 dd 3d 2d 3b 1c bd 6f 7c 62 be 75 2f 51 be
       0.1080393 -0.038142372 -0.2211778 -0.2042826
000320 ae ef 41 be 9a 2c 3d 3e be 74 9c 3c d5 12 23 3e
       -0.18939087 0.18474045 0.019098636 0.15925153
000330 59 d3 0c be b0 7b 84 3d 2f 57 39 3e c1 8f b7 bd
       -0.13752498 0.06468904 0.18099664 -0.08962966
000340 5a b4 15 bb c8 ac 18 3e ad 59 e6 bd ce c7 c9 3d
       -0.0022843094 0.14909661 -0.11247573 0.09852563
000350 ad 8b dd 3d c6 f7 c5 3d d6 fe d0 bb 65 b7 96 3e
       0.10817657 0.096664 -0.006378035 0.29436794
000360 e1 29 70 be 82 e5 17 be 4a a4 90 3d de f4 8b be
       -0.23453476 -0.14833644 0.07062586 -0.27335256
000370 37 4f 1b bd 1c 29 62 3d 21 16 8f bd bf ef 4c 3e
       -0.037917342 0.055214986 -0.06986643 0.20013331
000380 e7 37 4a be a9 bc 74 bd 57 07 c2 3d 44 26 45 3e
       -0.19747888 -0.059750233 0.09474056 0.19252878
000390 14 0f f8 3e ea f6 da bc 37 7d 22 bd 7d ec 57 bd
       0.48449004 -0.026729066 -0.039670195 -0.052715767
0003a0 49 e6 e4 3d d2 5d 59 3d 5a 26 94 3d 62 d2 13 3b
       0.11176736 0.05306799 0.072338775 0.0022555818
0003b0 42 64 df 39 72 e5 a1 3e 19 c7 30 be 09 74 2f be
       0.00042608572 0.31620365 -0.1726345 -0.17134108
0003c0 ae 43 f4 3d ec 1e 80 3d 20 8d 80 3e 44 14 af 3d
       0.119269714 0.06255898 0.2510767 0.08548787
0003d0 c8 4b 38 bb f4 8d 33 bd 04 7c 9e be 1d 6f a7 3b
       -0.002812134 -0.04383655 -0.3095399 0.0051096813
0003e0 54 9e 87 bc 2d 7f e4 3e af 06 b8 3d 39 e6 9f 3d
       -0.016554989 0.44628277 0.0898565 0.07807583
0003f0 04 b6 da 3e ba 77 98 be 80 42 b4 3d 42 87 8d bd
       0.42716992 -0.29778844 0.08801746 -0.06910564

fc2.bias f4 [256]
000000 21 ee 8a 3d bf 41 30 bd e8 32 10 bd e8 a5 ed bb
       0.06783701 -0.04303145 -0.035204798 -0.0072524436
000010 fd 2c cb 3e 3a 11 b8 3c 52 75 25 3e fd 9d 8b be
       0.3968276 0.022469152 0.16158035 -0.27268973
000020 0c 59 42 3c b9 51 bd 3d 5d 2b 5b be 46 2a 6f bd
       0.011862051 0.09244103 -0.2140326 -0.058389924
000030 62 a6 a2 3c 1a 72 b3 3d 3f 81 d5 3e 26 2c a5 3c
       0.019854728 0.087619975 0.4170017 0.020162653
000040 0d 55 93 bc a6 e5 a9 bc 3b 83 46 3e 3b a4 a2 3d
       -0.017984891 -0.020739388 0.19385998 0.07941481
000050 ce 63 72 3e 77 0c 7e 3e 56 79 11 3e f8 68 63 3d
       0.23670885 0.24809442 0.14206442 0.055520028
000060 84 ae af bc d3 d4 c2 3d 28 68 0b 3d 4b 6c 45 bd
       -0.02144552 0.09513249 0.034034878 -0.04819898
000070 17 7f 0e 3d 60 97 f8 3e 97 9d c1 3d 5f 4c 48 3d
       0.03478917 0.4855299 0.09453886 0.04890096
000080 c1 ee b2 3d 99 1b 80 3c 9d c8 d1 bd 81 e9 fd 3d
       0.08736945 0.01563816 -0.10243342 0.12398053
000090 68 78 5e 3e e8 cf a6 3e c4 7c 4e 3e b4 e9 34 be
       0.21725619 0.32580495 0.20164782 -0.17667276
0000a0 e4 a9 d6 3d 96 84 ab 3d 03 22 9f 3b d1 56 82 3e
       0.10481623 0.08374898 0.0048563494 0.2545686
0000b0 de aa 20 3e 54 4e 82 3d 66 cb 37 3c 42 0d 0b be
       0.1569018 0.06362596 0.011217928 -0.13579276
0000c0 33 92 ab 3d 65 77 61 3d f3 38 9b 3d 94 35 60 3e
       0.08377495 0.055045504 0.075792216 0.21895438
0000d0 17 c6 ea 3e b7 b6 78 3e 9a 77 9b 3d 43 43 86 3d
       0.45854256 0.2428845 0.075911716 0.06555798
0000e0 1b dc f2 bd ac 8c e1 bd 3f fe f6 3d 0e 00 2c 3c
       -0.11858388 -0.11013159 0.12060212 0.01049806
0000f0 44 6e 20 3e 5f 4a e1 3d 72 a6 f0 3e a2 db 7e bd
       0.15667063 0.11000513 0.47001988 -0.062221177
000100 ed 2d 93 bd 55 49 0a bd 01 90 d2 bd 01 3e d0 3d
       -0.07186494 -0.03376134 -0.10281373 0.10168076
000110 8a e4 78 bc ec 7f a1 3c b2 20 93 3e 7c 4e 90 bd
       -0.015191207 0.019714318 0.28735882 -0.0704622
000120 7f 91 f4 bc 69 63 54 3e 5c 0d f2 bd cf d2 8b 3c
       -0.029854534 0.20741047 -0.11818954 0.017068295
000130 0b 30 4f 3d 0f 56 34 3e c1 34 d7 3d 44 ef b4 3d
       0.050582927 0.17610954 0.10508109 0.08834699
000140 4a 70 fc 3d 8b 0d 66 3e 29 4e c6 3d 9b 17 a0 3d
       0.12326105 0.22466104 0.096828766 0.078170024
000150 21 b6 10 3e 26 41 f9 3d d7 12 14 3c 52 68 85 3e
       0.14131977 0.12170629 0.009037695 0.26056153
000160 83 f3 80 3d 66 e1 cb 3c 36 af 88 3c dc 73 92 bd
       0.06296446 0.024887752 0.01668511 -0.07151005
000170 a9 4b 6c 3d 9b 6d 22 3d 4f 46 1a bd db 5e 1d 3e
       0.057689343 0.03965531 -0.037664708 0.15368216
000180 73 78 69 3e b2 4b 40 3e 95 04 35 3e 52 72 de 3e
       0.22799854 0.18778875 0.17677529 0.43446594
000190 b9 bf e8 3d dc 8c eb bb 91 d1 49 bd e7 09 97 3d
       0.11364693 -0.0071884226 -0.049272124 0.073749356
0001a0 fb 42 39 bd c9 fb a3 3d 24 a1 27 be 08 0c 6a be
       -0.045229893 0.080070086 -0.16370064 -0.22856152
0001b0 bb e3 85 3e 6d 8d dd 3d 24 f4 34 3d 45 36 0a 3e
       0.26150307 0.108179905 0.044178143 0.13497265
0001c0 44 91 17 bd b8 65 cc 3d 94 1d a8 3e 26 d3 02 bd
       -0.03700377 0.09980339 0.32835066 -0.031939648
0001d0 12 99 b8 3e 73 08 68 3e 8c 47 d4 3d 2e a3 72 bc
       0.36054283 0.22659473 0.10365209 -0.014809413
0001e0 02 f0 96 3d 6d 05 62 3e fb 88 0a be bb 19 a5 3d
       0.073699966 0.22072382 -0.13528816 0.08061548
0001f0 c1 28 b4 3d f8 62 81 3e e9 c7 d3 3e 7a 73 b3 be
       0.08796836 0.2527082 0.41363457 -0.3504904
000200 01 3b 51 be 8c 88 8e bd 46 36 4f bd 7f 64 a8 3e
       -0.20432664 -0.06959638 -0.05058887 0.32889172
000210 d5 24 10 bc 7d 0f 13 3e 07 31 8b 3e d1 dc 95 3d
       -0.008797844 0.14361377 0.27185842 0.07317508
000220 50 22 01 bd 20 3d 90 3d fa af 58 be 5a dd 2c 3e
       -0.031526864 0.07042909 -0.2116088 0.16881314
000230 be 33 db bd cc 38 5b bd 15 22 a8 3d af 93 97 bc
       -0.107032284 -0.053520963 0.08209626 -0.018503038
000240 88 ff 97 3d b7 e5 0f 3d f0 15 a7 3d 7c 41 12 be
       0.074217856 0.035131183 0.08158481 -0.14282793
000250 24 69 35 3e 6d 9e 2f bd 04 9f 36 bd f7 38 c0 3d
       0.17715889 -0.042875696 -0.044585243 0.09385865
000260 ef 8c 43 3e 22 e2 01 3e 12 80 08 3e 45 02 10 be
       0.1909673 0.12683919 0.13330105 -0.14063366
000270 a0 6b d6 3d a2 81 fa 3d 7a d9 f4 bd 2a d8 d9 3c
       0.104697466 0.12231757 -0.11955543 0.026592333
000280 2e 07 34 3d 38 21 2a 3e c4 1d 15 3e d2 7c 66 bb
       0.04395216 0.16614234 0.14562136 -0.0035169614
000290 72 9d 46 bd c1 bd 05 3e 93 e9 35 bd cd 99 0d be
       -0.048489995 0.13060667 -0.044412207 -0.13828202
0002a0 3f 72 b1 3d a6 81 14 3e 5a f4 d1 3d d1 3e 0d 3e
       0.08664369 0.14502582 0.102516845 0.13793494
0002b0 3e 9b fe 3d 58 0c 1b 3d e9 cf c8 3d ed f0 38 bd
       0.12431954 0.03785357 0.09805281 -0.04515164
0002c0 34 aa 9c 3e bc 75 e1 3d a2 a4 84 bc 4b 6f 69 3d
       0.30598605 0.11008784 -0.016191784 0.056990903
0002d0 fe e2 fd 3d 85 74 4a 3e e0 e1 ca 3e 37 51 b7 3e
       0.12396811 0.19771011 0.39625454 0.3580415
0002e0 45 69 82 bd 49 75 c4 3e 92 62 bc bd 04 51 ef 3d
       -0.06367735 0.3837073 -0.09198488 0.116853744
0002f0 6a c7 07 3e fc c2 ad bc 35 63 9c bd c7 ab 3f bc
       0.13259664 -0.02121114 -0.0763611 -0.01169867
000300 a7 c3 bb 3b c9 fe 97 bd f5 71 d0 3d 65 31 12 3e
       0.0057301107 -0.07421643 0.101779856 0.14276655
000310 93 11 f8 3d 27 af e9 3b 68 49 10 3e 5f 8d 08 3e
       0.12112727 0.0071314755 0.14090502 0.13335179
000320 6d d1 c8 bd f9 a0 ab 3d 76 e8 bb be b0 b7 38 3e
       -0.0980557 0.083803125 -0.3670079 0.18038821
000330 d5 bb 91 bd c7 83 9e 3d 28 db 56 3e f4 79 2f 3d
       -0.07115904 0.07739978 0.20982039 0.042840913
000340 eb 92 e7 bd 83 68 99 bc cd fe 8d 3d 4f 99 a2 3d
       -0.11307319 -0.018726593 0.06933365 0.079393975
000350 ee c4 6b bc 4b c3 8c 3d 86 a3 60 3d f0 71 d3 3d
       -0.014390213 0.06873187 0.054843448 0.10324466
000360 89 c0 29 bd f5 7d eb 3d 11 62 2b be 1c b6 5b 3e
       -0.04144338 0.11498634 -0.16736628 0.21456188
000370 a3 3d 10 bc b7 bb 52 3d b3 e5 1a 3d 5d ae a8 3d
       -0.008803758 0.05144855 0.037816714 0.08236382
000380 85 13 d8 3d 1f 95 36 bd 21 eb 80 3d 43 29 a9 3c
       0.10550598 -0.044575807 0.06294847 0.020649558
000390 4e 2a 9a 3e d2 6d 87 3d 3e cd 29 3d 15 55 8a 3d
       0.301104 0.066127434 0.0414555 0.06754509
0003a0 23 20 84 3d 70 5f df bc ee a8 a3 3e ae dd c1 3e
       0.06451442 -0.027267188 0.3196482 0.3786444
0003b0 88 8c ea 3c d1 67 29 3e 5c b3 4f 3e f0 28 41 bd
       0.028631464 0.16543509 0.20283264 -0.04715818
0003c0 63 0d 1d 3d 33 a0 6e 3e 08 ce 89 3d 0d 53 b8 bc
       0.038342845 0.23303299 0.067287505 -0.02250054
0003d0 c3 4c 2a 3e b6 99 d7 bc 67 82 a1 bc bc aa 01 3e
       0.16630845 -0.026318412 -0.019715501 0.12662786
0003e0 da a4 ec bd 92 44 c9 bd b2 68 4e 3c ad e5 97 3d
       -0.115548804 -0.09827532 0.0125982035 0.07416854
0003f0 4a 16 38 3e 6d 59 c9 3d 14 07 20 3e 17 6d 73 bc
       0.17977253 0.0983151 0.156277 -0.014857552

fc3.weight f4 [128, 256]
000000 5d 2b 03 bc 5c 66 e3 ba 96 e4 00 3a 2a da 9b 38
       -0.008005944 -0.0017349231 0.00049168745 7.431612e-05
000010 33 81 e2 bb eb 78 c5 bb 6d 94 5d 39 62 41 12 3a
       -0.0069123744 -0.0060263774 0.00021131495 0.0005579201
000020 2e ed 7e b8 66 41 8a 39 ed 61 dd 39 12 5d ca bb
       -6.077921e-05 0.00026370137 0.00042225365 -0.0061756456
000030 03 43 00 b8 df f2 00 bc 24 17 91 bb 13 75 c3 37
       -3.0579988e-05 -0.007870405 -0.0044278074 2.3300328e-05
000040 6e 55 4d 3a 68 03 92 b6 72 b5 55 38 8c 10 b6 39
       0.00078328594 -4.3515356e-06 5.095214e-05 0.00034726073
000050 89 fd ec 38 90 17 f3 39 1d c8 c6 38 e4 56 9d 38
       0.000113005815 0.00046366127 9.47865e-05 7.502528e-05
000060 96 ec 3a b8 6a a7 a8 bb 04 88 0b 38 29 19 a7 39
       -4.4566194e-05 -0.0051469104 3.3266857e-05 0.00031871468
000070 37 2c d2 bb ee ba 08 bc 04 ea 4e 36 e8 b2 b9 b9
       -0.006413962 -0.008345349 3.0832607e-06 -0.00035419245
000080 f3 5e a1 b7 cf a8 c2 39 ad 59 49 ba 5f d2 ec bb
       -1.923691e-05 0.00037128336 -0.0007680904 -0.0072272266
000090 c9 82 02 3a be bc d7 39 65 7a 93 38 db 39 81 39
       0.0004978595 0.0004114862 7.032304e-05 0.00024647903
0000a0 89 02 e6 b8 c0 31 28 39 bc 0f 20 39 a8 b3 04 39
       -0.00010967727 0.00016040262 0.0001526465 0.00012655428
0000b0 28 4e b4 bb 4c 07 42 38 7c d4 14 3a da c4 85 39
       -0.005502481 4.626e-05 0.00056774146 0.00025514403
0000c0 c5 e8 b0 39 1b 58 7e 38 b1 e5 bb b6 f9 06 cc 38
       0.00033742763 6.0640374e-05 -5.599774e-06 9.728777e-05
0000d0 49 90 e4 bb 0d bf 4f ba 32 4c ea b7 e9 5d e8 38
       -0.006975208 -0.0007924892 -2.7930455e-05 0.00011080114
0000e0 c1 04 10 39 a2 83 8a bb 42 c4 e2 37 fa 48 eb bb
       0.00013734681 -0.0042271176 2.703269e-05 -0.0071803303
0000f0 f3 ba 62 bb b5 3c 42 38 c8 02 02 bc 42 96 20 3a
       -0.0034596294 4.6309742e-05 -0.007935233 0.0006125906
000100 de 91 0a bb cb 07 4d bb e3 ad 06 bb d8 01 f9 38
       -0.0021144073 -0.0031285163 -0.0020550422 0.00011873589
000110 ff 6b 2e ba 46 57 a6 39 a1 48 67 bb 6e 4c c0 ba
       -0.0006653666 0.0003172701 -0.0035291093 -0.0014671215
000120 12 57 98 b6 54 ff 53 39 c9 a9 1d b9 74 e1 3c b8
       -4.5400893e-06 0.00020217645 -0.00015035937 -4.5032662e-05
000130 87 87 08 b7 fa 08 fb 37 c2 5c 30 39 95 9c ce ba
       -8.137787e-06 2.9925712e-05 0.00016819223 -0.0015763218
000140 ba 90 90 39 e1 01 c4 b7 76 18 9f 37 0f 22 a9 38
       0.0002757365 -2.3365896e-05 1.8965668e-05 8.064892e-05
000150 3a 03 f0 b7 44 9f b2 39 61 50 98 ba fe 90 76 38
       -2.8611732e-05 0.00034069468 -0.0011620634 5.8786005e-05
000160 c5 bb 9c 39 14 9c 0d 38 ad 62 9f 38 52 c2 42 ba
       0.00029894538 3.376238e-05 7.6000906e-05 -0.00074294687
000170 a9 9c 80 bb 1f 1c 14 ba 20 1a 47 39 33 a3 ad bb
       -0.0039249253 -0.00056499423 0.00018987851 -0.005298996
000180 ea 40 87 39 2a 8f 7b 3a 82 d8 9b b7 c7 46 83 bb
       0.0002579757 0.0009596223 -1.857826e-05 -0.00400624
000190 50 99 07 39 c9 dc 07 bb 78 65 5f bb 67 63 16 bb
       0.00012931717 -0.0020730963 -0.003408758 -0.0022947432
0001a0 59 02 10 3a d1 1a 1f ba 26 ad 65 b8 ee 3c 0e 3a
       0.0005493514 -0.00060693646 -5.475911e-05 0.00054259493
0001b0 f0 cc cc bb 09 64 95 3a 7d 67 af 39 aa e5 41 39
       -0.0062500164 0.0011397611 0.00033455706 0.00018491471
0001c0 91 28 f4 bb 83 b1 a1 bb 23 12 c9 39 9e ce 33 34
       -0.007451125 -0.004934491 0.0003835122 1.6745841e-07
0001d0 ce d1 0e 39 2d 7b 32 38 bc a9 fc 37 68 60 c3 39
       0.00013620334 4.2553223e-05 3.011978e-05 0.00037265127
0001e0 a4 10 26 b9 54 d6 ed 39 41 64 4b 3a 44 9b a7 bb
       -0.00015837193 0.0004536385 0.00077587744 -0.0051149447
0001f0 80 16 c8 bb 63 56 07 3a 80 2a a4 bb ee 78 58 39
       -0.006106198 0.0005162714 -0.005009949 0.00020644415
000200 da 67 34 39 fa 93 38 38 da 27 45 39 e2 65 9e bb
       0.00017204825 4.4006832e-05 0.0001880223 -0.0048339227
000210 90 c8 86 ba c8 ae 44 ba 9b 24 ee 38 8a 79 8d 39
       -0.0010283161 -0.0007502851 0.00011355543 0.0002698417
000220 49 d4 0d bc 5c bc fb 36 92 da 4b 37 be 14 8c 39
       -0.00865657 7.502311e-06 1.2150633e-05 0.00026718335
000230 72 a3 aa 39 85 97 56 38 fa 3b ac 37 c6 17 f6 39
       0.00032546703 5.116269e-05 2.0531927e-05 0.0004693849
000240 e9 08 8a bb 54 36 4d 38 d3 05 87 39 21 3f 27 bb
       -0.004212488 4.8926406e-05 0.00025753546 -0.0025519805
000250 18 8f 33 39 b8 85 50 b6 cd f5 a5 bb 35 d5 b2 39
       0.00017124077 -3.107225e-06 -0.005064702 0.00034109657
000260 4c 80 11 37 33 eb 90 39 30 9e 4a bb 3c 6c 39 ba
       8.672545e-06 0.00027641057 -0.003091704 -0.0007073318
000270 ee 70 c3 37 77 59 4f bb 83 23 a6 38 d4 65 8d 39
       2.3298398e-05 -0.0031639019 7.9221114e-05 0.00026969484
000280 91 ab c3 ba bc 98 1a 37 e0 fe 56 39 c1 67 96 39
       -0.001492845 9.2146765e-06 0.00020503579 0.00028687532
000290 13 65 ad b9 ba 44 51 bb 64 ed bb bb b1 72 e9 ba
       -0.00033072438 -0.0031931833 -0.0057350863 -0.001781067
0002a0 3c c5 14 3a aa 81 bf bb 06 a4 8d bb b8 e3 66 39
       0.0005675142 -0.0058443146 -0.0043225316 0.00022019341
0002b0 e1 15 d1 38 cd 61 d7 ba b2 ac 11 39 0d 9e 9e bb
       9.969972e-05 -0.0016432345 0.00013892612 -0.0048406185
0002c0 34 c9 df 39 68 df e7 bb 79 5d 11 3a cf 4a a8 bb
       0.00042683783 -0.0070761926 0.00055452395 -0.005135871
0002d0 56 85 ed b7 23 52 56 39 7b c5 d3 bb ba fc bc ba
       -2.8314691e-05 0.00020439229 -0.0064627505 -0.001441858
0002e0 6f f5 4b b7 4a c9 8d bb 31 d1 65 3a fe 3c 01 38
       -1.2156887e-05 -0.004326974 0.00087668287 3.08128e-05
0002f0 9a ee 0e 39 21 c0 aa b9 33 4c 03 39 ee ce fa 39
       0.00013631061 -0.00032568074 0.0001252152 0.0004783789
000300 47 3c 59 ba a7 8d 15 bb 56 ea a0 bb 0e 4b b5 39
       -0.0008286875 -0.0022820027 -0.0049107475 0.0003457893
000310 7f 4c 07 39 f2 58 0a 39 a7 7e 95 bb 95 db a0 36
       0.000129031 0.0001319384 -0.0045622173 4.7939343e-06
000320 93 cb 09 3a ea d8 81 b8 4e 82 67 39 0e df e9 38
       0.000525647 -6.191603e-05 0.00022078419 0.00011151853
000330 15 35 ed ba 63 e8 cf bb 2d b1 b5 39 b4 ec 87 36
       -0.0018097485 -0.0063448413 0.00034655016 4.0508694e-06
000340 53 26 9e 38 86 21 45 39 06 6a 36 39 3b 19 3d bb
       7.5411655e-05 0.00018799872 0.0001739637 -0.002885415
000350 27 76 53 ba f4 33 52 bb fd 62 48 bb fa 87 2b bb
       -0.00080666173 -0.0032074424 -0.003057658 -0.0026173578
000360 3a 91 2b bb f5 ea b3 3a 70 5f 4f ba a3 c7 1b bc
       -0.002617909 0.0013726639 -0.00079106446 -0.009508046
000370 b3 30 c6 ba d7 49 4c ba df 6f 1b 39 7c e1 6f 39
       -0.0015120715 -0.00077929854 0.00014823627 0.00022876816
000380 47 4c 17 39 02 3e 9e 39 f3 14 2c b9 1f 70 91 38
       0.00014428898 0.00030182308 -0.00016411002 6.935023e-05
000390 06 1e 30 b9 fd 26 91 bb 24 b7 88 ba fc de 6e 39
       -0.00016795853 -0.0044296966 -0.0010430557 0.00022780517
0003a0 e3 03 d8 36 07 ae a3 37 ba f3 bd bb 6c 08 6c bb
       6.437754e-06 1.9512152e-05 -0.0057968767 -0.0036015762
0003b0 1c 05 62 39 70 cd e2 39 28 7f a1 39 c5 d3 4e bb
       0.00021554943 0.00043259142 0.00030803052 -0.003155933
0003c0 f0 93 d5 b7 68 0e 4b 38 1f ca 05 39 33 45 ee 38
       -2.5460467e-05 4.841239e-05 0.00012759164 0.00011361614
0003d0 3c 86 15 38 5d 0c 0b 39 ca b2 7c 38 7b dd d5 39
       3.5649384e-05 0.00013260679 6.0247992e-05 0.00040791542
0003e0 ec 7d ee 38 a5 3c f9 39 23 c4 09 bc 05 fc 5e 39
       0.00011372179 0.00047538165 -0.008408579 0.00021265454
0003f0 ad b4 b4 39 9f 5d 04 bc d3 07 b1 38 84 9d ef bb
       0.0003446689 -0.008078962 8.441475e-05 -0.0073124785

fc3.bias f4 [128]
000000 b7 13 6f bb 88 e8 4c ba 5d 8a 3f bc 8c ac 9a 3e
       -0.0036480257 -0.0007816632 -0.011690703 0.30209768
000010 1d 84 89 3e e8 a3 c4 b8 65 aa 4d 3e e4 c2 8d 38
       0.26858607 -9.376538e-05 0.20084532 6.759705e-05
000020 e9 75 6d 3e ba 53 28 3e a3 4a 61 3e bd a4 ab 3e
       0.2318951 0.16438189 0.22001128 0.33524123
000030 52 49 10 bc 3b fa 9e ba d5 28 97 bd 05 99 fa 38
       -0.008806543 -0.0012129018 -0.07380835 0.00011949431
000040 0b e4 fb 38 21 52 82 bb d9 a1 45 3e 98 c2 8e bb
       0.00012011089 -0.0039770757 0.19300021 -0.0043566935
000050 2a 04 6c bc 49 6f 47 3e 94 34 41 3e 02 d7 83 3e
       -0.01440529 0.19476046 0.18867713 0.25749975
000060 a6 5a 02 bb 52 82 e2 bb 9e 9a 5c 3e dc 46 81 3e
       -0.0019890456 -0.006912508 0.21543357 0.25249374
000070 94 70 36 3f 68 57 80 3e 7a 00 86 b7 f2 b9 92 3e
       0.7126553 0.25066686 -1.5974267e-05 0.2865749
000080 fe 8b 33 39 b9 74 5e 3e 6b 84 8b 3e 15 f3 ba 3e
       0.00017122921 0.21724214 0.27249464 0.36513582
000090 fd c7 c6 b8 a2 7e ee bb 59 07 0e 3e e2 5e 8e 3e
       -9.4786265e-05 -0.0072782794 0.1386999 0.27806765
0000a0 2e 6d 82 3e 72 09 62 3e 50 ef 93 3e d9 20 a7 3e
       0.25473922 0.22073916 0.28893518 0.32642248
0000b0 18 9e 92 3e 8c 81 6a bb fd a7 89 3e ff 93 6a 3e
       0.2863624 -0.0035782782 0.26885977 0.22908019
0000c0 75 78 b6 3e 4a 3e 13 3e c4 01 9d 3e ad 46 58 bc
       0.35638776 0.1437923 0.3066541 -0.013200444
0000d0 99 dd 50 bc fd 37 ec 3d 7d 0d 89 3e 2e 8c 70 3e
       -0.0127481455 0.115341164 0.26768103 0.23490974
0000e0 bf 16 4f bb cf 5f 4a 3e ee ef 0e 3e 4c 35 83 3e
       -0.003159925 0.1976311 0.13958713 0.256266
0000f0 ab 42 80 3e 53 18 ac 39 db 20 c8 3d ea 61 8c b9
       0.25050864 0.0003282452 0.09771892 -0.00026775833
000100 20 25 35 b8 ff 50 3a 3e 20 53 c6 3d 02 13 61 3e
       -4.3188338e-05 0.1819496 0.096838236 0.21979907
000110 00 b7 c8 38 bf a0 50 3d f2 aa 54 bb 83 bb 86 3e
       9.5708296e-05 0.05093455 -0.0032450524 0.26314935
000120 bb a4 99 3e 11 e9 1c bc 71 08 23 39 3e d6 99 bc
       0.30008492 -0.009577052 0.00015548036 -0.018778916
000130 b0 09 09 bb 92 04 5e 3e 84 b7 41 39 bd 0f a7 bb
       -0.0020910315 0.21681431 0.00018474279 -0.0050983117
000140 a9 45 25 3c d0 83 0e bb d8 6c 11 bc 08 bf 9b 3d
       0.010087409 -0.0021746047 -0.008876048 0.07604796
000150 58 0b 7d 3e 1a a5 3c bb 42 94 94 3e 70 af 43 3e
       0.24711359 -0.0028784932 0.29019362 0.19109893
000160 62 d3 5a 3e 7d 94 70 b9 99 9e c8 bb 0c 3a 91 3e
       0.21369699 -0.000229435 -0.006122422 0.283646
000170 6e cd 72 3c 6b e7 78 bb aa a3 9a 3e f6 38 c7 ba
       0.014819486 -0.0037979733 0.3020299 -0.0015199471
000180 96 c5 f5 38 cb a2 78 3e 31 34 93 3e cc f6 70 3e
       0.000117193136 0.2428085 0.28750756 0.23531646
000190 89 b9 2a 3e 07 f2 bf bc f9 62 a7 39 51 4e 18 3d
       0.16672339 -0.023430837 0.00031926463 0.037184063
0001a0 74 15 95 3e 64 5d 50 37 90 5e d9 3e 5d 58 04 3e
       0.2911793 1.241951e-05 0.42454958 0.12924333
0001b0 9c f3 9a 37 2e d4 88 3e 2f 82 8c 3e 35 0e 96 bb
       1.847167e-05 0.2672438 0.27443072 -0.0045793303
0001c0 06 dd 0d 39 89 ea a4 3d 8d 96 60 bc 28 59 20 3e
       0.00013529146 0.080525465 -0.013707769 0.1565901
0001d0 62 f0 b3 3d ff ba 13 3f 70 51 be 3e 01 c2 f7 bb
       0.08786084 0.5770721 0.37171507 -0.007560969
0001e0 bc 1b 85 bb 85 2e 83 bb 97 b2 df ba 7b 6c 1a bb
       -0.004062144 -0.0040033483 -0.0017066774 -0.0023563195
0001f0 ac 83 09 bc 31 39 76 3d 50 53 18 ba fd 75 66 bb
       -0.008393209 0.060113136 -0.00058107544 -0.0035165541

fc4.weight f4 [1, 128]
000000 39 1d 3e b9 56 62 65 ba 08 70 c5 3e 1c c6 8f be
       -0.00018130698 -0.000875031 0.38562036 -0.28080833
000010 48 a2 14 be b4 ca 07 b8 83 f0 99 bd 9b 72 a7 38
       -0.1451503 -3.237529e-05 -0.07516577 7.9845275e-05
000020 e5 9d 14 be be a6 02 be 40 ea 93 bd 44 dc d0 be
       -0.14513357 -0.1275892 -0.07222414 -0.4079305
000030 e3 49 f3 3a f3 3c 5a 3b f0 3a 8e 3f ed 99 e2 b7
       0.0018561449 0.0033300489 1.1111736 -2.7012977e-05
000040 a8 a3 90 b7 b5 6d 5c 3c eb e7 45 3f a4 0d de bb
       -1.7242346e-05 0.013453891 0.77307004 -0.0067765284
000050 6a ed 5e bb 4c 1b d3 bd 82 34 c1 bd 5c 32 6e be
       -0.0034016022 -0.10307941 -0.09433843 -0.23261398
000060 61 d6 ce b9 bb ce 00 3c eb 5e 1c be d1 49 b7 bd
       -0.00039451107 0.007861788 -0.15270583 -0.08949626
000070 89 ab 46 bf d9 f8 f8 bd 10 ce af 35 64 fc 22 bf
       -0.7760549 -0.12156839 1.3098488e-06 -0.6366637
000080 d4 90 13 39 0f 0c fd bd 5e c6 85 be e3 93 59 3f
       0.00014072965 -0.123558156 -0.26127905 0.8499128
000090 5b c5 50 b9 e8 a5 3f bb 94 81 11 be 72 0a 89 be
       -0.00019909946 -0.0029243175 -0.14209586 -0.26765782
0000a0 c8 1b 71 3f 62 01 f9 bd d2 60 7f be e0 16 80 be
       0.94183016 -0.12158467 -0.24939278 -0.25017452
0000b0 85 ec f2 be 2f 57 af 38 24 ca 91 be bd e5 02 be
       -0.47446075 8.3608895e-05 -0.28474534 -0.1278295
0000c0 68 10 9b be 6f 1a 3a be ef 3b 84 be 3e f4 c3 bb
       -0.30285954 -0.18174146 -0.25826976 -0.0059800437
0000d0 29 2b ce 3b 25 65 a7 be 36 af 1d be ed c5 0a be
       0.006291766 -0.32694355 -0.15398869 -0.13552065
0000e0 13 60 cd 3b 54 84 72 bd d9 21 a3 bd c2 e4 6b be
       0.0062675565 -0.05920823 -0.0796544 -0.23036483
0000f0 c8 fd 0d be 94 5e 8f b8 82 92 d0 bd a4 67 7d b7
       -0.13866341 -6.836388e-05 -0.10184194 -1.5104106e-05
000100 a6 5c 8e 39 16 5e 0f be a8 5e 40 be 6e aa e8 bd
       0.0002715338 -0.14000735 -0.18786108 -0.11360632
000110 15 c1 9d 35 59 5c 8a bf 0e ce f0 3a 70 1a 0a be
       1.1753606e-06 -1.0809432 0.0018371956 -0.13486648
000120 81 92 87 be 9f 1d 0d 3c 3f 21 5c 3a cd 96 a4 b8
       -0.2647896 0.008613019 0.0008397288 -7.848218e-05
000130 56 6c 2f 3b 22 b0 d4 bd 2c a0 1b b8 44 1b d1 3b
       0.0026767454 -0.10385157 -3.710405e-05 0.006381424
000140 ec 9f c8 be e6 2a 88 37 f4 83 94 bb f0 89 39 bf
       -0.3918451 1.623244e-05 -0.0045323316 -0.724761
000150 9a da 45 bd 45 c2 02 39 fe 85 0b bf 03 cb c2 bd
       -0.048304178 0.00012470137 -0.5450133 -0.09511378
000160 4a 4d f4 bd c8 f1 ad b8 7b 67 b5 3a 7a 4a 1d be
       -0.11928804 -8.294318e-05 0.0013840044 -0.15360442
000170 a2 ad e8 3f 8a 1c e5 b8 8e dc 5f be 3b 75 37 bb
       1.8177989 -0.00010924887 -0.21861479 -0.0027993459
000180 62 09 9c b6 24 7c e8 bd 68 fd 74 be 97 5f 0c be
       -4.6502546e-06 -0.11351803 -0.23924792 -0.1370834
000190 5c 01 ac bd 05 2d b1 3f 47 a0 03 3b 36 c3 16 bf
       -0.08398697 1.3841864 0.0020084546 -0.5889162
0001a0 3e 4f 0b bf 2a 93 ec b9 0f 19 43 bf bf 47 59 3f
       -0.5441779 -0.00045123074 -0.7621011 0.848751
0001b0 67 79 87 37 15 97 5f be a1 15 12 be 0d 78 6e bb
       1.6149786e-05 -0.21834977 -0.14266063 -0.0036387474
0001c0 9e c3 0d 38 bb b8 b8 bf e2 2a 36 bc 47 ca 79 bd
       3.3799202e-05 -1.4431375 -0.0111186225 -0.060983922
0001d0 af 4a 85 bf aa a8 ed be 34 ba 84 be 5e 98 42 bb
       -1.0413417 -0.46417743 -0.25923312 -0.0029692869
0001e0 92 ee 8e b6 25 44 5d bb b8 f4 1e 3a ef 65 0a 39
       -4.259703e-06 -0.003376254 0.00060636876 0.00013198679
0001f0 f5 c9 e3 3b 80 ad d7 3f 69 b0 de b8 c0 4d a4 3a
       0.0069515654 1.6849823 -0.00010618644 0.0012535378
