envditto/checkpoint.pth (torch_old, 19984 bytes, 7 tensors)

fc1.weight f4 [64, 4]
-0.05939887 0.26918703 -0.76359105 -0.397279 -0.1470646 0.12369969 0.046076536 0.4536072
-0.0027901584 -0.00505568 -1.2225358 -0.12618153 -0.6472559 -0.40472046 0.1870422 0.15050472
0.19180517 0.14462225 -1.1795555 -0.19811696 0.36501697 0.41703656 0.0065869982 0.3842246
-0.10439543 -0.011641452 0.839367 -0.42853794 -0.27236852 -0.158896 -0.23400137 0.46373263
-0.33931747 -0.37834096 -0.54779124 -0.33034125 -0.4998165 0.48382905 1.1506132 0.23155127
0.29466918 -0.45339572 -0.9952258 -0.55058485 -0.21440221 -0.263046 0.23639815 0.3466509
-0.11174677 0.0029385868 0.32520473 0.45015424 0.0287295 0.044268426 0.63968045 -0.3296111
0.21963109 -0.27999207 -1.3208542 -0.36093497 0.39440796 0.19971089 -0.3115008 0.24473318
0.14014788 -0.060865656 0.27560052 0.09976995 0.34346807 0.3899312 -0.24318397 -0.09344308
-0.17246327 0.3367061 1.4249806 0.5936815 0.033077907 -0.4319531 0.017469058 -0.4204199
-0.5324285 0.40560272 0.7984061 -0.47998074 0.25900525 -0.14458233 -1.1119189 -0.27056548
0.31608158 -0.30396912 0.3507262 0.3018569 0.38446897 0.19653687 -0.68923 -0.27653918
0.45913437 -0.07617418 -1.7004409 -0.32220414 0.5986728 0.2830059 -0.8438739 -0.11488861
-0.23836905 -0.15271132 -1.3417037 -0.33107758 0.03847632 0.05481399 0.044472817 0.33612585
-0.40092176 0.52934194 0.9975608 -0.40240604 -0.031443812 0.055193465 0.22911157 0.07042377
0.17884105 0.026373794 0.4377452 0.31270856 -0.33485776 -0.3337873 -0.43834102 -0.22603244
-0.28365397 -0.38218525 0.3407849 0.16565308 -0.17242582 0.05370089 0.90792394 -0.12880276
-0.22756602 -0.07395691 0.741291 0.42628115 0.69237846 0.28245223 0.9077052 0.021595232
-0.33127433 -0.2653652 0.30678812 -0.033737253 -0.058846977 -0.42387602 -1.107138 -0.36152205
-0.07794676 0.2529488 0.34240422 -0.4828191 0.36284414 -0.36867076 -0.26785147 -0.26482067
0.045100246 -0.122356124 -0.32962885 -0.3620383 -0.31600788 -0.013230219 0.51936245 0.31681338
-0.37428543 -0.015807893 0.8016828 -0.21406138 0.37331888 0.1413985 0.19076209 0.39326018
0.25424147 -0.2926316 -0.65414494 -0.41044423 0.15731466 -0.12917234 0.32251438 0.11712097
0.563251 0.06296084 -1.0408623 -0.054455668 -0.30002248 0.41207042 1.1966131 0.37356988
-0.50884944 0.044774447 0.36854014 -0.33902803 -0.08727331 0.095436335 -1.3280406 -0.052097164
0.0304632 0.2849781 -0.21166065 -0.26101702 -0.30840048 0.3717124 0.10356586 0.44096628
0.29030165 0.050417483 -0.01153165 -0.1230017 0.14240661 -0.22514111 -0.055175807 0.13945164
-0.27388677 -0.29732555 0.1259434 -0.23383245 -0.02510303 0.5450632 0.48663315 -0.02360885
-0.3643829 0.23038729 -0.26730862 -0.1413779 -0.25397915 -0.10763064 0.37110233 0.51639146
0.05379121 0.46626195 0.5771799 -0.348207 0.36572644 -0.32791686 -0.8308864 0.08655389
0.14014645 0.36483297 -0.53971195 -0.044484634 0.6033125 -0.5814818 -0.42699704 -0.31535578
0.08254418 -0.08871811 -0.50976074 0.06234184 0.6027597 -0.13826016 -0.7234572 -0.13622172
00000000: 3b4c 73bd e2d2 893e b47a 43bf 2768 cbbe
00000010: 1a98 16be 4356 fd3d c0ba 3c3d 343f e83e
00000020: 17db 36bb 1eaa a5bb 0e7c 9cbf bb35 01be
00000030: 90b2 25bf 8537 cfbe fe87 3f3e e91d 1a3e
00000040: 9368 443e db17 143e adfb 96bf 2cdf 4abe
00000050: 81e3 ba3e d185 d53e bfd7 d73b 16b9 c43e
00000060: 45cd d5bd cabb 3ebc c1e0 563f 5369 dbbe
00000070: e373 8bbe a2b5 22be 0e9e 6fbe 5d6e ed3e
00000080: 05bb adbe e8b5 c1be 0c3c 0cbf 7d22 a9be
00000090: f3e7 ffbe 71b8 f73e 4b47 933f c71b 6d3e
000000a0: e1de 963e 7c23 e8be 1ec7 7ebf 21f3 0cbf
000000b0: 418c 5bbe f7ad 86be 5b12 723e 3a7c b13e
000000c0: 7edb e4bd 4e95 403b 3c81 a63e 9e7a e63e
000000d0: 215a eb3c cf52 353d 19c2 233f c9c2 a8be
000000e0: f9e6 603e 1f5b 8fbe c011 a9bf 78cc b8be
000000f0: d7ef c93e 0381 4c3e 087d 9fbe 569b 7a3e
00000100: ed82 0f3e 444e 79bd 831b 8d3e 3054 cc3d
00000110: 0cdb af3e 10a5 c73e 3805 79be 165f bfbd
00000120: 369a 30be be64 ac3e c465 b63f 83fb 173f
00000130: b37c 073d f528 ddbe 451b 8f3c 4741 d7be
00000140: 3c4d 08bf 29ab cf3e 5864 4c3f 09c0 f5be
00000150: 569c 843e 640d 14be 5c53 8ebf 8f87 8abe
00000160: 72d5 a13e d7a1 9bbe 6292 b33e fd8c 9a3e
00000170: 1ed9 c43e f640 493e 6171 30bf 8b96 8dbe
00000180: a913 eb3e 3501 9cbd 0ca8 d9bf f1f7 a4be
00000190: 9f42 193f 26e6 903e 1f08 58bf b84a ebbd
000001a0: 0417 74be 5b60 1cbe f2bc abbf 0083 a9be
000001b0: 5999 1d3d a284 603d 2129 363d b018 ac3e
000001c0: 9e45 cdbe f482 073f 2560 7f3f 2a08 cebe
000001d0: 3acb 00bd 8b12 623d 399c 6a3e 563a 903d
000001e0: 1c22 373e db0d d83c 2420 e03e 561b a03e
000001f0: 7a72 abbe 2be6 aabe 3c6e e0be 0c75 67be
00000200: 183b 91be c9ad c3be 5c7b ae3e f6a0 293e
00000210: 6590 30be 77f5 5b3d b46d 683f dfe4 03be
00000220: 1107 69be b876 97bd 3fc5 3d3f 8641 da3e
00000230: b73f 313f 949d 903e 5e5f 683f 7ce8 b03c
00000240: ca9c a9be f3dd 87be 5513 9d3e 1330 0abd
00000250: 8709 71bd 4706 d9be b3b6 8dbf 6b19 b9be
00000260: 8da2 9fbd 8182 813e 9b4f af3e 1134 f7be
00000270: b5c6 b93e 6ac2 bcbe d423 89be 9396 87be
00000280: 09bb 383d d995 fabd 1dc5 a8be 165d b9be
00000290: c9cb a1be 8fc3 58bc f0f4 043f 5d35 a23e
000002a0: 57a2 bfbe 8e7f 81bc 153b 4d3f e832 5bbe
000002b0: a723 bf3e c5ca 103e 2357 433e 6659 c93e
000002c0: f02b 823e cfd3 95be 0b76 27bf bf25 d2be
000002d0: 1817 213e c145 04be 9b20 a53e 1edd ef3d
000002e0: 3831 103f 9df1 803d fa3a 85bf e80c 5fbd
000002f0: 8c9c 99be e5fa d23e 9e2a 993f 8d44 bf3e
00000300: f543 02bf 6965 373d 4bb1 bc3e 1595 adbe
00000310: 59bc b2bd 2074 c33d 3cfd a9bf d663 55bd
00000320: f68d f93c a6e8 913e 92bd 58be 06a4 85be
00000330: abe6 9dbe 1651 be3e 561a d43d 55c6 e13e
00000340: 6ba2 943e 9082 4e3d 3fef 3cbc 51e8 fbbd
00000350: 0ad3 113e 648b 66be 0700 62bd 69cc 0e3e
00000360: e33a 8cbe 0e3b 98be 4ff7 003e c671 6fbe
00000370: dfa4 cdbc 4389 0b3f fb27 f93e 5967 c1bc
00000380: 6590 babe a5ea 6b3e addc 88be 5ec5 10be
00000390: 8e09 82be 746d dcbd 2001 be3e 3b32 043f
000003a0: 2c54 5c3d e3b9 ee3e 10c2 133f 3048 b2be
000003b0: 7f40 bb3e b8e4 a7be f9b4 54bf 2a43 b13d
000003c0: 8d82 0f3e 63cb ba3e 902a 0abf 8535 36bd
000003d0: b072 1a3f fedb 14bf 5b9f dabe 5076 a1be
000003e0: ec0c a93d d7b1 b5bd ae7f 02bf 285a 7f3d
000003f0: 764e 1a3f 1294 0dbe 7e34 39bf b57d 0bbe

fc1.bias f4 [64]
-0.54485184 0.35330254 -0.19103676 -0.37346837 -0.23748523 0.3776603 0.40834287 0.51995915
0.36853397 0.17960821 -0.2783548 0.28715253 0.62026644 0.21489292 -0.34396166 -0.36849093
-0.5374005 0.24802327 -0.310929 -0.65664923 0.5148807 -0.25503606 0.05954111 0.2684584
0.026043147 -0.34067243 -0.3109851 0.5203143 0.09473643 0.5565418 -0.14178105 0.27439454
-0.12650944 0.18954511 -0.29925048 0.25321442 0.2586523 0.037484992 -0.11243334 -0.26663324
0.4903113 -0.5282777 0.32328525 -0.25292483 -0.22710575 0.30813083 -0.19129483 0.027824653
-0.07590795 -0.23014955 0.25447035 0.3450231 0.28625253 0.003447098 -0.7503338 -0.15076919
0.31586075 -0.16271958 0.20124769 0.5679925 -0.28081858 -0.10979432 0.3723344 0.28999567
00000000: 697b 0bbf 12e4 b43e 249f 43be 3f37 bfbe
00000010: 542f 73be b15c c13e 5112 d13e 0b1c 053f
00000020: 7cb0 bc3e 37eb 373e 8584 8ebe a805 933e
00000030: c8c9 1e3f e40c 5c3e be1b b0be d8aa bcbe
00000040: 1493 09bf d0f9 7d3e 1632 9fbe 2a1a 28bf
00000050: 39cf 033f 1694 82be 61e1 733d 6173 893e
00000060: 7058 d53c 9e6c aebe 7039 9fbe 5133 053f
00000070: 2c05 c23d 8679 0e3f 0d2f 11be 717d 8c3e
00000080: b18b 01be 1d18 423e 5c37 99be 52a5 813e
00000090: 136e 843e dd89 193d 7343 e6bd 2784 88be
000000a0: 150a fb3e 353d 07bf a585 a53e 5d7f 81be
000000b0: 698e 68be 53c3 9d3e cbe2 43be 87f0 e33c
000000c0: a175 9bbd 53ac 6bbe f049 823e dea6 b03e
000000d0: b18f 923e b5e8 613b e015 40bf 3d63 1abe
000000e0: 80b8 a13e f69f 26be e013 4e3e f567 113f
000000f0: 74c7 8fbe d8db e0bd 9da2 be3e 507a 943e

fc2.weight f4 [64, 64]
-0.029666187 0.12655392 -0.52152 -0.13398795 0.005747429 0.15422592 0.16325101 0.11391394
0.112987116 -0.38045454 -0.043460295 -0.05280155 0.23534068 0.14271325 -1.0502574 -0.35305497
0.03862541 0.1391117 -0.40951085 -0.6283121 0.0394888 -0.44710824 0.051438063 0.10385018
-0.038088005 0.06107879 -0.11199768 0.20257229 -0.03163963 0.13700573 -0.11575843 0.16758227
-0.07553931 0.15583478 -0.10799907 0.13755143 0.05365143 -0.015099664 -0.09087743 0.21409109
-0.013933047 -0.49718076 -0.0049952157 0.014231718 0.013596107 0.22689445 -0.016627913 0.0807031
-0.09206431 -0.5304599 -0.06755339 0.25305465 -0.0411641 -0.02811185 -0.52331173 -0.056812502
0.14965445 0.018608054 0.12168697 0.22121361 0.06883193 -0.12864664 0.14150615 0.14081843
0.052023865 0.09648647 -0.03242748 0.13953346 -0.05475321 0.14961357 -0.07501128 -0.05726644
-0.091397546 0.5718903 -0.28790754 0.07427674 0.056115355 -0.17538321 -0.7498994 0.31033018
0.10868041 -0.11714321 0.38656664 0.323002 0.016061062 -0.24538253 0.11843815 -0.118696034
0.26476386 0.19477488 0.10034635 -0.07656977 0.013954148 -0.050584525 -0.07319958 -0.061331328
-0.011121193 0.17261031 0.06796679 0.3905085 0.0067375787 0.09831663 -0.24956518 0.35955012
-0.09656321 0.040345542 -0.018811438 -0.09756881 0.09425767 -0.0021658994 0.026575463 0.13312793
0.19411309 0.2197159 -0.3398457 -0.0726133 0.04040591 -0.13214928 0.32781547 -0.18566188
-0.1727018 -0.09934463 -0.14113998 0.0068199257 -0.09601538 0.44589806 -0.1225711 -0.009408742
-0.08628829 -0.5577391 0.7513794 0.06730543 0.2535303 0.028852671 -0.23536941 0.016421452
0.07055394 0.72483134 -0.08568224 -0.8064038 -0.59568596 -0.22183074 1.253334 -0.13534896
0.039845526 0.05211099 -0.02506032 -0.4937043 -0.20982681 0.5429067 -0.78552234 0.15325841
0.14814728 0.02169894 0.2895525 -0.23040262 -0.30203617 -0.0100460015 -0.0708019 0.16237225
-0.16024737 -0.9474857 -0.10296112 -0.24494776 -0.3882209 0.44804952 -0.07324559 0.032501537
0.02728699 -0.03864725 -0.29491135 -0.014516121 0.026437556 -0.5002869 0.3865464 -0.10968683
-0.19814889 0.4645928 0.10091472 -0.6151352 -0.16633895 -0.5336588 -0.016651293 -0.08719173
0.117969856 -0.06736879 -0.08891505 0.30363944 -0.08230306 0.36164638 0.20207739 0.23788081
-0.032857306 -0.06364909 0.04468314 0.040119454 -0.056190286 -0.0040600793 0.05456936 -0.03164253
0.023773955 -0.04220983 0.05688126 -0.120241046 -0.0934469 -0.0802092 0.16596298 -0.04281245
-0.0003412962 -0.07236837 0.1277312 0.12208377 -0.1122522 -0.085300274 -0.08190185 -0.011912682
-0.03805694 -0.06512544 -0.05276349 0.0060129906 -0.08503808 0.008983507 -0.016595883 -0.07626328
0.01732187 0.053580493 -0.070314914 -0.011292238 -0.06879944 0.13747138 -0.12817356 -0.11983265
0.1086066 -0.079086244 0.0021474801 -0.011033695 -0.039410066 -0.04154744 0.106952816 -0.015709596
-0.13570029 -0.07379502 -0.05303782 0.04795993 -0.09728732 0.12633866 -0.027841166 -0.046239875
0.08171485 0.07936852 0.08991052 0.056023344 -0.042283237 -0.06931335 -0.025663914 0.094068155
00000000: 8106 f3bc 5a97 013e 5682 05bf 2334 09be
00000010: ee54 bc3b 66ed 1d3e 462b 273e b64b e93d
00000020: ca65 e73d f0ca c2be 6c03 32bd 7046 58bd
00000030: 26fd 703e 6c23 123e d66e 86bf 9fc3 b4be
00000040: ae35 1e3d 4c73 0e3e 68ab d1be 10d9 20bf
00000050: 02bf 213d 5feb e4be b8b0 523d 67af d43d
00000060: 2b02 1cbd c12d 7a3d 0a5f e5bd 1c6f 4f3e
00000070: 8f98 01bd 3b4b 0c3e c112 edbd b09a 2b3e
00000080: 5bb4 9abd 2793 1f3e 9e2e ddbd 48da 0c3e
00000090: 9ac1 5b3d 9564 77bc f21d babd b23a 5b3e
000000a0: 6f47 64bc 7a8e febe e8ae a3bb 272c 693c
000000b0: 35c2 5e3c 0557 683e 4337 88bc ab47 a53d
000000c0: 378c bcbd 38cc 07bf 6f59 8abd 6190 813e
000000d0: b09b 28bd d34a e6bc c2f7 05bf 3ab4 68bd
000000e0: 043f 193e eb6f 983c 0537 f93d d285 623e
000000f0: c1f7 8c3d f2bb 03be fde6 103e b532 103e
00000100: fa16 553d b39a c53d add2 04bd dce1 0e3e
00000110: e744 60bd 4d34 193e 849f 99bd 3790 6abd
00000120: a32e bbbd 6767 123f 9e68 93be 671e 983d
00000130: 37d9 653d a897 33be 68f9 3fbf 99e3 9e3e
00000140: d693 de3d c7e8 efbd 10ec c53e 8560 a53e
00000150: 7d92 833c 8f45 7bbe b38f f23d e816 f3bd
00000160: 218f 873e 1173 473e 6382 cd3d 9dd0 9cbd
00000170: f09f 643c b831 4fbd a9e9 95bd 8f36 7bbd
00000180: aa35 36bc c2c0 303e 2c32 8b3d bbf0 c73e
00000190: e8c6 dc3b 3b5a c93d 048e 7fbe f416 b83e
000001a0: efc2 c5bd 5e41 253d 721a 9abc 28d2 c7bd
000001b0: 2a0a c13d c3f1 0dbb c9b4 d93c b052 083e
000001c0: 95c5 463e 34fd 603e 4100 aebe 48b6 94bd
000001d0: ab80 253d 2452 07be 6ed7 a73e 261e 3ebe
000001e0: bed8 30be 3375 cbbd 0087 10be af79 df3b
000001f0: b6a3 c4bd c04c e43e 8f06 fbbd 2027 1abc
00000200: eab7 b0bd fdc7 0ebf 665a 403f 6ed7 893d
00000210: b9ce 813e 705c ec3c ae04 71be 4886 863c
00000220: 967e 903d 8c8e 393f 2c7a afbd 7b70 4ebf
00000230: e07e 18bf 9927 63be 406d a03f eb98 0abe
00000240: 1035 233d 5572 553d 4d4b cdbc cfc6 fcbe
00000250: d7dc 56be effb 0a3f fe17 49bf c6ef 1c3e
00000260: ecb3 173e fac1 b13c 3a40 943e aaee 6bbe
00000270: 7ca4 9abe fc97 24bc 9600 91bd e944 263e
00000280: e317 24be 6c8e 72bf 48dd d2bd 96d3 7abe
00000290: e4c4 c6be bf66 e53e c901 96bd 5520 053d
000002a0: f788 df3c 944c 1ebd 9ffe 96be 06d5 6dbc
000002b0: 9393 d83c cd12 00bf 69e9 c53e 7da3 e0bd
000002c0: 8be7 4abe 1cdf ed3e 60ac ce3d 8079 1dbf
000002d0: c254 2abe dd9d 08bf 4b68 88bc 9491 b2bd
000002e0: 2e9a f13d a6f8 89bd 1819 b6bd a176 9b3e
000002f0: 828e a8bd b729 b93e 60ed 4e3e 0797 733e
00000300: 6295 06bd 745a 82bd ab05 373d 4c54 243d
00000310: c927 66bd 6a0a 85bb 1f84 5f3d 999b 01bd
00000320: 99c1 c23c 37e4 2cbd 53fc 683d f040 f6bd
00000330: 1761 bfbd b944 a4bd 33f2 293e 1c5c 2fbd
00000340: 00f0 b2b9 de35 94bd f8cb 023e 0e07 fa3d
00000350: 7be4 e5bd e9b1 aebd 28bc a7bd 692d 43bc
00000360: 98e1 1bbd 7d60 85bd 871e 58bd 9f08 c53b
00000370: 7228 aebd 8f2f 133c 17f4 87bc ec2f 9cbd
00000380: 98e6 8d3c 3877 5b3d 4401 90bd 1403 39bc
00000390: b9e6 8cbd 4cc5 0c3e ee3f 03be d26a f5bd
000003a0: 236d de3d f8f7 a1bd bdbc 0c3b acc6 34bc
000003b0: 736c 21bd a62d 2abd 140a db3d 69b1 80bc
000003c0: 04f5 0abe d821 97bd 2f3e 59bd a271 443d
000003d0: 933e c7bd ec5e 013e 2813 e4bc 0666 3dbd
000003e0: 1e5a a73d f68b a23d 0223 b83d bc78 653d
000003f0: 3031 2dbd 28f4 8dbd 213d d2bc cea6 c03d

fc2.bias f4 [64]
0.19764152 0.03013835 -0.040568136 -0.090573475 0.07687817 0.014918811 -0.07411492 -0.08004813
0.18954502 -0.13807426 0.030691171 0.12691826 -0.09350115 0.029883087 0.19063364 0.21315216
-0.09808872 0.16609329 0.1428257 -0.012794505 0.03544564 0.13178977 0.12817664 0.1555181
0.10793605 0.04742593 0.09946984 0.056613516 0.17210388 0.14227378 -0.02956395 0.13712876
-0.061520506 -0.07489563 0.12700625 0.13995914 0.003922962 -0.059297934 0.14915392 0.25563946
0.1317029 0.10667176 -0.0073901145 0.15247159 0.13536298 0.17396016 0.028110322 -0.047185335
-0.048143018 0.3371364 0.067325786 -0.12358928 0.03426498 0.2274805 0.1673036 0.017666671
0.11550336 -0.1938442 0.069965966 -0.12584797 0.026292302 -0.01535682 0.12450574 0.17734165
00000000: 8a62 4a3e b3e4 f63c c62a 26bd 967e b9bd
00000010: 4d72 9d3d 076e 743c 90c9 97bd 46f0 a3bd
00000020: 1718 423e 5763 0dbe 0d6c fb3c dcf6 013e
00000030: 887d bfbd 60cd f43c 7735 433e 8f44 5a3e
00000040: bde2 c8bd 5c14 2a3e e640 123e 0ba0 51bc
00000050: 732f 113d e6f3 063e bd40 033e 2340 1f3e
00000060: 930d dd3d b141 423d d8b6 cb3d 93e3 673d
00000070: 003c 303e 38b0 113e 1930 f2bc 7b6b 0c3e
00000080: edfc 7bbd e162 99bd ed0d 023e 7351 0f3e
00000090: 318c 803b 64e2 72bd cebb 183e 2de3 823e
000000a0: 20dd 063e b976 da3d c628 f2bb 8321 1c3e
000000b0: 989c 0a3e 9d22 323e 9e47 e63c 6945 41bd
000000c0: 9d31 45bd 249d ac3e 1ae2 893d 601c fdbd
000000d0: 7059 0c3d a6f0 683e a351 2b3e b2b9 903c
000000e0: 078d ec3d 187f 46be 514a 8f3d 4ade 00be
000000f0: f462 d73c 2c9b 7bbc defc fe3d 0d99 353e

fc_vlayer.weight f4 [1, 64]
0.1592997 -0.25922713 -1.2706568 -0.03947891 0.22068311 0.2223932 -0.6906009 -1.2928853
0.3807022 -0.36210987 0.48911235 0.04758924 0.08697866 0.09445174 0.23651686 0.23269653
-0.53584343 0.5857612 0.24308987 0.0074311923 0.25163585 0.25698525 0.3337375 0.22757362
0.28544146 -0.10442598 0.28983346 0.23537433 0.49178022 0.2429595 0.30264232 0.36856005
-0.0040189605 -0.08405428 0.35530758 0.005993316 -0.8222056 0.07694821 0.32328412 0.4169462
0.07976343 -0.095554225 0.31751028 0.25889447 0.24626826 0.33959958 -0.049381472 0.01597565
-1.1411073 0.597595 -0.106325656 -0.19226454 -0.39360863 0.29447547 0.44912317 0.14169385
0.24497366 -0.74047846 -0.021056898 -0.3116835 -0.025280565 -0.074585155 0.15186782 0.35891715
00000000: 761f 233e 6bb9 84be e2a4 a2bf a3b4 21bd
00000010: c1fa 613e 0bbb 633e 38cb 30bf 447d a5bf
00000020: 66eb c23e 7766 b9be ef6c fa3e efec 423d
00000030: de21 b23d ea6f c13d 7a31 723e 0048 6e3e
00000040: 092d 09bf 72f4 153f 8dec 783e 5c81 f33b
00000050: 6ad6 803e 9293 833e a4df aa3e 0f09 693e
00000060: 6225 923e 4add d5bd 0d65 943e f805 713e
00000070: 9eca fb3e 60ca 783e eff3 9a3e e7b3 bc3e
00000080: 7cb1 83bb a624 acbd e0ea b53e 9463 c43b
00000090: 117c 52bf 0697 9d3d 7f85 a53e f979 d53e
000000a0: 025b a33d efb1 c3bd b590 a23e d18d 843e
000000b0: bf2d 7c3e ffdf ad3e 3a44 4abd 5edf 823c
000000c0: ce0f 92bf fcfb 183f 44c1 d9bd ffe0 44be
000000d0: 1287 c9be 7dc5 963e 79f3 e53e 3118 113e
000000e0: 60da 7a3e ff8f 3dbf 847f acbc fb94 9fbe
000000f0: 3019 cfbc 1ac0 98bd 3d83 1b3e fdc3 b73e

fc_alayer.weight f4 [2, 64]
0.095734745 -0.33022928 -0.7740824 0.0553753 0.07222863 0.15937139 0.3364762 0.12840982
-0.041468956 0.016965335 -0.11302236 -0.3074024 -0.053482905 0.0032110363 -0.21944098 -0.0075328476
0.34610543 0.111184664 -0.020557752 -0.12894168 0.011263945 -0.28452522 0.1576871 -0.00044659275
-0.08035287 -0.031770397 -0.00544404 0.58616143 -0.0009549205 0.18164289 0.02912127 0.05060092
-0.11209509 0.11565875 -0.04223526 0.5128731 -0.7963585 -0.12172884 0.004840459 -0.14203931
-0.56635165 -0.43201402 0.122183904 -0.061122205 0.071783096 0.16858377 0.005246188 -0.085449405
0.25129715 0.08395945 0.062047165 -0.13713568 -0.84758025 0.038216665 -0.20367534 0.08571535
-0.049553502 -0.39296284 0.010293258 0.2030157 0.11548717 -0.08121187 0.16033044 0.150715
0.06671613 0.24813697 0.822685 0.029801005 -0.14041492 -0.12274613 -0.33417222 -0.26460317
-0.051387273 0.08747965 0.07749121 0.31825534 0.0009582788 -0.0637376 0.21775448 -0.054605793
-0.23580575 -0.048631907 0.032749783 -0.07061868 0.04062638 0.444331 -0.07201577 0.059037562
0.04613414 -0.053555276 -0.13092215 -0.49773142 0.017455734 -0.119409785 -0.0012638107 0.02109808
0.052309107 0.10119838 0.038300365 -0.42021164 0.70180005 -0.021093577 -0.1709116 0.16155045
0.6405496 0.4607517 -0.014380211 -0.09542323 -0.13281004 -0.086551204 -0.09318024 -0.08478863
-0.27205154 -0.07889469 0.018476067 0.008537654 0.89451593 -0.2109942 0.02357436 -0.089270696
-0.037241757 0.38458493 -0.044521105 -0.08714444 -0.033937115 -0.058871884 -0.06940386 -0.013575284
00000000: 9410 c43d d013 a9be 442a 46bf 36d1 623d
00000010: 9bec 933d 4132 233e 9c46 ac3e dd7d 033e
00000020: 5adb 29bd e3fa 8a3c 4478 e7bd d963 9dbe
00000030: e410 5bbd 4070 523b 23b5 60be 1bd6 f6bb
00000040: bb34 b13e c9b4 e33d bb68 a8bc 4a09 04be
00000050: 698c 383c 4aad 91be ba78 213e aa24 eab9
00000060: 0c90 a4bd ad21 02bd eb63 b2bb ad0e 163f
00000070: a153 7aba 9800 3a3e bb8f ee3c e942 4f3d
00000080: 1c92 e5bd 7fde ec3d e1fe 2cbd a74b 033f
00000090: 27de 4bbf f84c f9bd b79c 9e3b c172 11be
000000a0: 6cfc 10bf f130 ddbe 8e3b fa3d 475b 7abd
000000b0: 0403 933d 39a1 2c3e 37e8 ab3b 1900 afbd
000000c0: 05aa 803e eff2 ab3d 2b25 7e3d 4c6d 0cbe
000000d0: 05fb 58bf 1489 1c3d 4590 50be 888b af3d
000000e0: 9df8 4abd 6d32 c9be 0ea5 283c 59e3 4f3e
000000f0: 8a84 ec3d 6952 a6bd aa2d 243e 0855 1a3e
00000100: 77a2 883d 9e17 7e3e 7c9b 523f 3d21 f43c
00000110: eec8 0fbe 5362 fbbd 9f18 abbe 117a 87be
00000120: 767b 52bd 8828 b33d b6b3 9e3d 5df2 a23e
00000130: 0035 7b3a dc88 82bd 08fb 5e3e 53aa 5fbd
00000140: 1077 71be 4032 47bd a324 063d 87a0 90bd
00000150: d967 263d 5a7f e33e 017d 93bd 5fd1 713d
00000160: 27f7 3c3d c75c 5bbd 7510 06be a7d6 febe
00000170: 54ff 8e3c 1e8d f4bd 73a6 a5ba e1d5 ac3c
00000180: 1342 563d 1941 cf3d d8e0 1c3d fb25 d7be
00000190: 2ba9 333f 70cc acbc 7303 2fbe 7b6d 253e
000001a0: 0ffb 233f a6e7 eb3e fa9a 6bbc 416d c3bd
000001b0: 5bff 07be c241 b1bd 48d5 bebd a9a5 adbd
000001c0: 574a 8bbe 8a93 a1bd 1f5b 973c 84e1 0b3c
000001d0: fffe 643f dd0e 58be 041f c13c 8ed3 b6bd
000001e0: d08a 18bd 51e8 c43e c35b 36bd c978 b2bd
000001f0: a501 0bbd a523 71bd 9c23 8ebd de6a 5ebc

fc_alayer.bias f4 [2]
-0.047632612 -0.1607912
00000000: 6a1a 43bd 73a6 24be
