05_deep_q_learning/dqn/checkpoint.pth (torch_old, 21023 bytes, 6 tensors)

fc1.weight f4 [64, 8]
0.04671143 -0.20253442 0.21689744 -0.49137524 0.4520361 -0.08929063 -0.14506128 0.3023779
-0.060710713 0.08752982 -0.23520333 -0.13878883 -1.2060103 -0.8836086 -1.0386739 -0.08765641
0.16325909 0.032174665 0.5926402 -0.061535448 0.017937029 0.26793075 -0.035082754 0.17509292
-0.02562338 -1.2031158 0.85407156 0.49741706 -0.46911758 -0.27892843 -0.06417881 0.35266733
0.040608335 -0.596995 0.16825807 -1.1181213 0.93943334 0.115798384 0.07744798 0.11502762
0.97983295 -0.9208148 0.604653 -0.31492847 -0.6077337 -0.4937477 0.37968376 -0.085692346
-0.73133224 -0.2274904 0.20196812 -0.04178024 0.6431602 0.3651522 0.048088968 -0.4830273
-0.043772552 -0.5238822 -0.24200809 0.2155874 0.110683315 0.19839934 -0.15489945 0.1184063
0.19149765 -0.03402875 1.0965375 -0.04793632 0.19215423 0.61857414 -0.25861928 -0.18704404
0.046693366 0.9476088 0.9855862 0.8143643 -0.95383227 -0.102890715 -0.27057716 -0.21583481
-0.60685956 0.7166043 0.3194477 -1.4156319 -0.7570868 1.0147444 0.35370713 0.30079475
-0.46793947 0.00875543 0.17645498 0.39579207 0.63689214 0.26057237 -0.05426092 -0.7942474
-0.33275336 0.35595503 0.45673686 0.12321551 -0.6342198 0.41574812 0.19116741 -0.5486234
-0.6091371 -1.1498895 -0.7066891 -0.8003056 -0.2334657 0.21331471 0.25429082 0.5174598
-0.43382132 0.59757626 0.3643797 -1.639154 -1.4712179 0.42191193 0.5042214 0.46012908
0.14026576 0.16626884 -0.24634193 -0.6153587 1.162055 -0.24968317 -1.2767788 -0.1621732
0.28158912 -0.64272803 -0.47033906 -0.49173862 -0.28906417 -0.65950495 0.11245788 -0.03605423
-0.056115367 0.077262014 1.3198833 0.91278917 -0.5547392 0.0662259 0.6032426 -0.16355845
-0.6286749 -0.4981838 0.009489911 -0.288072 0.98477364 0.07559482 -1.1683419 -0.47968838
0.09188706 0.58526003 0.04830045 -1.2085141 -0.49819052 -1.8752756 0.20315929 0.35581514
-0.46969622 -0.29058117 -0.91191036 0.15370244 1.2498977 0.2002468 -0.5910047 -0.25841293
-0.5640234 -0.86840105 -0.16404863 -1.0631686 -0.008717354 -0.128364 -0.14912863 0.30740765
-0.011244449 -1.0356332 0.54727286 -1.2580242 -0.16321824 -0.23086394 0.31753543 0.13076855
0.9198358 -0.46529245 0.49533084 -0.46478036 0.40746114 -0.31587452 0.06813459 0.15926997
-0.52935046 0.03272355 -0.19534394 0.051429085 1.045766 1.0611289 -0.2839653 0.42959553
0.117909305 -0.12102328 0.08343864 -0.5735415 0.32834265 -0.053523593 -0.09252619 0.299892
0.04131478 -0.43629688 -0.3290067 -0.41336912 0.13198397 -0.34742028 -0.1132197 0.11005863
0.36541805 -0.4846261 -0.15986942 -0.7736391 -0.3534603 -0.15047754 0.016957818 -0.5670342
-0.79561603 0.69197583 -1.4840957 0.3138979 0.54240644 0.023437096 -0.06900573 -0.31167686
-0.042997003 0.71902055 1.575446 -0.3961782 2.0278664 0.019144889 -1.1543889 -0.51835227
-0.03990277 0.16602646 -0.7916643 0.22736476 0.23533404 -0.94165075 0.09418052 -0.26027605
0.054596826 -0.059827086 -0.35740307 -0.24032818 2.862633 -0.08143932 0.10642489 -0.631446
00000000: 7c54 3f3d 2f65 4fbe 5d1a 5e3e 8995 fbbe
00000010: 4771 e73e 01de b6bd f28a 14be 47d1 9a3e
00000020: ccab 78bd d642 b33d 24d9 70be a91e 0ebe
00000030: 8c5e 9abf 2c34 62bf 44f3 84bf 3485 b3bd
00000040: 642d 273e 95c9 033d 45b7 173f 980c 7cbd
00000050: adf0 923c 382e 893e efb2 0fbd 8f4b 333e
00000060: 1fe8 d1bc b3ff 99bf 6fa4 5a3f 73ad fe3e
00000070: 2e30 f0be b5cf 8ebe 2e70 83bd d090 b43e
00000080: ed54 263d aad4 18bf d84b 2c3e 991e 8fbf
00000090: b47e 703f b427 ed3d 0c9d 9e3d 9a93 eb3d
000000a0: 55d6 7a3f 85ba 6bbf 8aca 1a3f 4e3e a1be
000000b0: 7094 1bbf 80cc fcbe e965 c23e 787f afbd
000000c0: 9738 3bbf 3ef3 68be bbd0 4e3e c221 2bbd
000000d0: 26a6 243f 3bf5 ba3e f0f8 443d 5b4f f7be
000000e0: d94a 33bd 251d 06bf f8d0 77be f2c2 5c3e
000000f0: efad e23d 3229 4b3e f69d 1ebe 017f f23d
00000100: f617 443e bb61 0bbd 575b 8c3f e058 44bd
00000110: 14c4 443e e05a 1e3f bf69 84be 7988 3fbe
00000120: 8b41 3f3d 7e96 723f 614f 7c3f 2e7a 503f
00000130: 5a2e 74bf 5eb8 d2bd 1789 8abe cd03 5dbe
00000140: 265b 1bbf 6173 373f a68e a33e 6d33 b5bf
00000150: 71d0 41bf 25e3 813f 1a19 b53e c501 9a3e
00000160: c395 efbe ef72 0f3c 9db0 343e 42a5 ca3e
00000170: 5d0b 233f be69 853e b340 5ebd cc53 4bbf
00000180: a65e aabe bd3f b63e 6ad9 e93e 6a58 fc3d
00000190: 3b5c 22bf f0dc d43e 64c1 433e 9572 0cbf
000001a0: 69f0 1bbf 942f 93bf 94e9 34bf d4e0 4cbf
000001b0: a211 6fbe 2c6f 5a3e 6832 823e 3f78 043f
000001c0: d41d debe c2fa 183f fa8f ba3e cccf d1bf
000001d0: de50 bcbf d704 d83e a714 013f 0a96 eb3e
000001e0: d4a1 0f3e 6142 2a3e 0f41 7cbe 2688 1dbf
000001f0: 38be 943f f2ac 7fbe 7d6d a3bf bb10 26be
00000200: 732c 903e d389 24bf 48d0 f0be 2ac5 fbbe
00000210: 3800 94be 51d5 28bf 5150 e63d 9aad 13bd
00000220: 3ad9 65bd 8c3b 9e3d f0f1 a83f 8dac 693f
00000230: 6303 0ebf 72a1 873d 1b6e 1a3f de7b 27be
00000240: d7f0 20bf f211 ffbe 927b 1b3c 2c7e 93be
00000250: 201a 7c3f 75d1 9a3d 3a8c 95bf b799 f5be
00000260: 482f bc3d 9ad3 153f b1d6 453d 97b0 9abf
00000270: d412 ffbe 0809 f0bf fd08 503e 672d b63e
00000280: 067c f0be 0ec7 94be f572 69bf 2c64 1d3e
00000290: a6fc 9f3f 7f0d 4d3e 164c 17bf b34e 84be
000002a0: d663 10bf 884f 5ebf 5dfc 27be e915 88bf
000002b0: 3cd3 0ebc da71 03be 2db5 18be 8964 9d3e
000002c0: a33a 38bc a18f 84bf 131a 0c3f f006 a1bf
000002d0: af22 27be 9967 6cbe 0194 a23e 31e8 053e
000002e0: 5c7a 6b3f d03a eebe 019c fd3e b1f7 edbe
000002f0: bf9e d03e 4eba a1be 268a 8b3d ab17 233e
00000300: 8383 07bf 2109 063d 3e08 48be 4ea7 523d
00000310: a9db 853f 12d3 873f e663 91be f2f3 db3e
00000320: 6f7a f13d 0edb f7bd e1e1 aa3d 9ed3 12bf
00000330: 871c a83e 8e3b 5bbd 5f7e bdbd 728b 993e
00000340: b039 293d 4e62 dfbe 9173 a8be 1ea5 d3be
00000350: ce26 073e 12e1 b1be bbdf e7bd 6b66 e13d
00000360: 1318 bb3e ea20 f8be cfb4 23be 360d 46bf
00000370: c0f8 b4be c916 1abe 1feb 8a3c 2729 11bf
00000380: 7ead 4bbf 5425 313f d9f6 bdbf 3ab7 a03e
00000390: 26db 0a3f 27ff bf3c e052 8dbd 1c94 9fbe
000003a0: a01d 30bd bb11 383f 37a8 c93f ded7 cabe
000003b0: 90c8 0140 bed5 9c3c 04c3 93bf bcb2 04bf
000003c0: 1671 23bd d702 2a3e 83aa 4abf 4fd2 683e
000003d0: 68fb 703e 0610 71bf b7e1 c03d e742 85be
000003e0: eca0 5f3d 3f0d 75bd 89fd b6be 9718 76be
000003f0: 6135 3740 a9c9 a6bd 4bf5 d93d 72a6 21bf

fc1.bias f4 [64]
-0.5496591 -0.06522707 0.26574814 0.37957957 -0.3371783 -0.3238047 0.39327422 0.28619072
0.43582314 0.5081285 0.61641264 0.25595096 -0.5485001 -0.47609222 0.7623909 -0.034544185
0.34650356 -0.42090324 0.62566936 0.62364334 -0.05117187 0.046442267 -0.4686677 -0.5339298
-0.29232192 -0.54653 0.2724465 0.33422866 0.46005476 -0.041170366 -0.32724693 -0.005296105
-0.51826173 0.47275317 -0.6971896 0.23923348 0.0021609957 0.12145002 -0.33543846 0.29454818
0.3300879 -0.42770746 0.19872604 0.25163275 0.32756007 0.22040239 0.79845536 0.3792949
0.0048351525 -0.48371902 0.024209298 0.78838736 0.20059253 0.16737261 0.23600772 0.4198656
0.2841258 0.75886655 0.33585316 0.18247369 -0.0040584053 0.33143958 0.3492602 0.06714323
00000000: 75b6 0cbf c595 85bd 2410 883e 4158 c23e
00000010: a2a2 acbe bbc9 a5be 3d5b c93e 9787 923e
00000020: 3624 df3e b614 023f 38cd 1d3f 010c 833e
00000030: 816a 0cbf 5cc2 f3be 0d2c 433f 347e 0dbd
00000040: ea68 b13e a180 d7be de2b 203f 17a7 1f3f
00000050: 9899 51bd 3f3a 3e3d 36f5 efbe a0af 08bf
00000060: 38ab 95be 64e9 0bbf 1c7e 8b3e 0520 ab3e
00000070: 4c8c eb3e 42a2 28bd e98c a7be f38a adbb
00000080: cdac 04bf b40c f23e 057b 32bf 9ff9 743e
00000090: 7e9f 0d3b caba f83d 97be abbe 05cf 963e
000000a0: 4801 a93e 79fc dabe d77e 4b3e 02d6 803e
000000b0: f4b5 a73e 2ab1 613e 9267 4c3f f132 c23e
000000c0: 3370 9e3b 05aa f7be 9452 c63c c1d3 493f
000000d0: 2168 4d3e ba63 2b3e 02ac 713e a0f8 d63e
000000e0: f078 913e 1445 423f f2f4 ab3e 62da 3a3e
000000f0: 5ffc 84bb 73b2 a93e 3cd2 b23e 6482 893d

fc2.weight f4 [64, 64]
0.14861985 -0.05038607 0.21237038 0.26152545 0.63559383 0.4399753 0.40404895 -0.083585925
0.33646312 0.76311105 -0.089818105 0.39801872 0.6172059 0.41439402 -0.12102131 0.69481236
-0.15657015 0.79980874 0.62715626 -0.105285585 0.4444457 0.19519062 0.87530136 0.62375724
0.7776027 0.22900806 -0.101191804 0.100318074 0.28739908 -0.30218157 0.057633992 -0.5922876
-0.15718547 0.43292364 0.3823233 -0.034162886 -1.1898887 0.18903145 0.04433936 0.75303787
0.24662793 0.5931516 0.33526888 0.060937643 0.29046872 0.28486085 -0.12699276 0.06485458
0.33098686 0.44277492 -0.5724325 0.013185015 0.21486795 -1.0701376 0.18611111 -0.055579748
-0.024027932 -0.14247108 0.16729121 0.00079308235 -0.057537157 -0.009543252 -0.7677427 0.4401665
-0.093235224 0.008098986 0.020525139 -0.00632451 -0.10057562 0.11161565 -0.08914099 0.08345806
-0.119161 -0.030043304 0.04503822 -0.06819196 0.08529715 -0.10510988 -0.12703235 -0.056364894
0.013767469 0.09803472 -0.06978919 0.028395288 -0.04642815 -0.046001703 0.08773111 -0.11683493
-0.0069035133 0.09836359 -0.016471071 0.076895714 -0.03392278 0.08477093 -0.1363816 -0.025375843
-0.041838404 0.020743148 0.0441931 0.080069065 -0.03142972 -0.026852595 0.085601404 -0.033821642
0.089943275 -0.10274801 -0.022923898 -0.02248328 0.04009557 0.068976186 -0.019812971 -0.11861594
0.061936527 0.023816364 0.050212413 -0.097286254 0.08044945 0.09795921 -0.0036143942 -0.13278231
0.06926374 -0.110300235 0.013006088 -0.002910463 -0.074362256 0.043524444 -0.12501585 0.011616121
0.10608861 0.1518033 0.17983928 0.03322051 0.61085546 0.53459775 0.4770234 -0.15282093
0.28231186 0.40319365 -0.053758107 0.34857666 0.600221 0.4473319 -0.055031624 0.760513
0.20820743 0.6882438 0.44720727 -0.28029972 0.3036334 0.03677203 0.94673795 0.46227953
0.77168024 0.18797179 0.068596855 0.2637254 0.3344353 -0.38354027 -0.068026796 -0.8446496
-0.19333237 0.38242465 0.46672088 -0.04490591 -1.1081065 0.1495579 0.09910545 0.48054254
0.24278228 0.7191587 0.266541 -0.094682276 0.4586759 0.30450088 -0.3187376 0.13441944
0.6787737 0.51088446 -1.1326786 0.024682932 0.3321102 -1.024341 0.15877117 -0.200238
-0.13707995 -0.01630855 -0.04055241 -0.00786786 -0.17675121 0.041513328 -0.78595805 0.30377522
-0.15432389 0.75253826 0.16272298 -0.5194988 0.48566106 0.17699796 0.5559364 0.021852575
0.74581414 -0.15973385 -0.09379761 -0.07043948 0.14714657 0.62008786 -0.10047132 0.6873331
0.041622356 0.38789007 0.48708093 -0.19598876 0.1291438 -0.14330994 0.6520451 0.554128
0.50313795 -0.07557281 0.07130484 0.25988218 0.6557598 -0.6186281 0.4881588 -1.5297738
-0.091042444 0.4001503 0.67960835 -0.092494965 -1.2057228 0.29602525 0.12429814 -0.08514779
0.022437772 0.476909 -0.15510848 0.08085205 0.585631 0.2126776 -0.45702004 0.3219116
0.533509 0.5899511 -2.4920018 0.18379162 0.44592172 -1.1351583 0.19854209 -0.22842818
-0.08927538 -0.040709853 0.07464988 -0.4261266 -0.29259512 0.11195333 -0.6254983 0.043922074
00000000: cd2f 183e a061 4ebd 9f77 593e aae6 853e
00000010: 47b6 223f 7144 e13e 81df ce3e 192f abbd
00000020: e544 ac3e 3f5b 433f 8ef2 b7bd 1cc9 cb3e
00000030: 3501 1e3f 742b d43e 05da f7bd 39df 313f
00000040: ed53 20be 44c0 4c3f 508d 203f f89f d7bd
00000050: 638e e33e 0de0 473e c013 603f 8eae 1f3f
00000060: f810 473f 1781 6a3e a63d cfbd 9073 cd3d
00000070: f925 933e 8bb7 9abe 9f11 6c3d 29a0 17bf
00000080: 3af5 20be 2ba8 dd3e e1bf c33e 62ee 0bbd
00000090: 464e 98bf 7691 413e 309d 353d 17c7 403f
000000a0: 088c 7c3e c9d8 173f 5da8 ab3e c099 793d
000000b0: 51b8 943e 48d9 913e 640a 02be 7ad2 843d
000000c0: 1c77 a93e 65b3 e23e f08a 12bf f605 583c
000000d0: 5806 5c3e 45fa 88bf e993 3e3e 97a7 63bd
000000e0: 3ad6 c4bc f0e3 11be 634e 2b3e dbe6 4f3a
000000f0: 15ac 6bbd 4d5b 1cbc c98a 44bf 815d e13e
00000100: 1cf2 bebd 9cb1 043c 5624 a83c d63d cfbb
00000110: 97fa cdbd bf96 e43d 8d8f b6bd 0fec aa3d
00000120: af0a f4bd 601d f6bc ff79 383d 3aa8 8bbd
00000130: 46b0 ae3d d943 d7bd c514 02be e0de 66bd
00000140: f390 613c 6dc6 c83d a3ed 8ebd 3c9d e83c
00000150: 722b 3ebd 486c 3cbd 5eac b33d 2747 efbd
00000160: de36 e2bb da72 c93d 57ee 86bc 807b 9d3d
00000170: 9df2 0abd 629c ad3d 9ea7 0bbe 00e1 cfbc
00000180: bf5e 2bbd 89ed a93c d303 353d 40fb a33d
00000190: 73bc 00bd f9f9 dbbc ca4f af3d 9088 0abd
000001a0: 2e34 b83d 8c6d d2bd e6ca bbbc db2e b8bc
000001b0: 413b 243d 6343 8d3d d04e a2bc eaec f2bd
000001c0: 28b1 7d3d 891a c33c 88ab 4d3d 043e c7bd
000001d0: aec2 a43d d79e c83d 79df 6cbb 16f8 07be
000001e0: 26da 8d3d 17e5 e1bd 7d17 553c 77bd 3ebb
000001f0: 3d4b 98bd b046 323d 2804 00be 8b51 3e3c
00000200: fc44 d93d 5372 1b3e ca27 383e 3b12 083d
00000210: 0661 1c3f 66db 083f 693c f43e 177d 1cbe
00000220: 2e8b 903e 666f ce3e 7631 5cbd a478 b23e
00000230: 15a8 193f b008 e53e d768 61bd fbb0 423f
00000240: 5434 553e bf30 303f 5af8 e43e 7283 8fbe
00000250: d675 9b3e 459e 163d 6b5d 723f e7af ec3e
00000260: d68c 453f ad7b 403e 827c 8c3d 0407 873e
00000270: 1b3b ab3e 645f c4be a251 8bbd f53a 58bf
00000280: ecf8 45be 2acd c33e 0af6 ee3e 42ef 37bd
00000290: 6fd6 8dbf b525 193e ccf7 ca3d ac09 f63e
000002a0: eb9b 783e c91a 383f 1078 883e c8e8 c1bd
000002b0: 91d7 ea3e 8ae7 9b3e 9331 a3be 40a5 093e
000002c0: 1dc4 2d3f 53c9 023f 9dfb 90bf dc33 ca3c
000002d0: 590a aa3e 9b1d 83bf e994 223e 310b 4dbe
000002e0: b05e 0cbe 8299 85bc 491a 26bd 32e8 00bc
000002f0: 45fe 34be e109 2a3d 8c34 49bf 6d88 9b3e
00000300: 1507 1ebe 59a6 403f daa0 263e e0fd 04bf
00000310: 91a8 f83e f43e 353e d951 0e3f 2c04 b33c
00000320: aded 3e3f 4591 23be f618 c0bd 9342 90bd
00000330: 97ad 163e 14be 1e3f e8c3 cdbd 10f5 2f3f
00000340: 347c 2a3d 8799 c63e ac62 f93e 47b1 48be
00000350: 463e 043e d7bf 12be 6dec 263f 55db 0d3f
00000360: a6cd 003f ebc5 9abd 4608 923d 470f 853e
00000370: e0df 273f 695e 1ebf f3ef f93e a1cf c3bf
00000380: 7674 babd 80e0 cc3e d0fa 2d3f 006e bdbd
00000390: 2055 9abf 9f90 973e 0690 fe3d f761 aebd
000003a0: 6bcf b73c 6b2d f43e c2d4 1ebe c295 a53d
000003b0: eaeb 153f 28c8 593e 88fe e9be 99d1 a43e
000003c0: 0c94 083f 0907 173f f57c 1fc0 df33 3c3e
000003d0: da4f e43e de4c 91bf 9e4e 4b3e 14e9 69be
000003e0: 03d6 b6bd 60bf 26bd 09e2 983d 442d dabe
000003f0: 07cf 95be ca47 e53d a820 20bf a2e7 333d

fc2.bias f4 [64]
-0.073678896 -0.14267397 -0.22101375 0.089473225 0.053774677 -0.05964178 0.1468282 -0.011660277
0.013172623 0.17060569 -0.085712574 -0.12621361 -0.08337997 -0.111676864 -0.10412576 0.91483885
-0.019630613 -0.14464721 0.23702809 -0.055483647 -0.061658442 0.15980583 -0.074586734 -0.12606235
-0.15885174 0.68334097 -0.08910297 -0.1514415 0.112852044 -0.12445785 0.31635305 0.0059543247
-0.08100895 0.33132043 -0.12665242 0.001184385 0.014610605 0.07030177 -0.1658804 -0.028665457
-0.069803014 -0.028158693 0.07853567 0.4885083 -0.10306261 0.09789258 -0.10804665 -0.019483486
-0.036080763 -0.10147122 0.36367893 -0.22764325 0.22872579 0.20790899 -0.012067469 0.9144856
-0.0016531504 0.04806049 -0.09371686 0.005272997 -0.1274244 -0.1558729 -0.03745902 -0.043873295
00000000: f6e4 96bd 2019 12be 6e51 62be bd3d b73d
00000010: d642 5c3d f04a 74bd 225a 163e bf0a 3fbc
00000020: fcd1 573c 42b3 2e3e 138a afbd 243e 01be
00000030: 1ec3 aabd d7b6 e4bd e33f d5bd e132 6a3f
00000040: 61d0 a0bc 661e 14be 7eb7 723e d242 63bd
00000050: 908d 7cbd 24a4 233e eec0 98bd 7d16 01be
00000060: 08aa 22be 6fef 2e3f 9e7b b6bd 7b13 1bbe
00000070: f91e e73d c2e3 febd 07f9 a13e 7f1c c33b
00000080: 05e8 a5bd d5a2 a93e 2cb1 01be 5e3d 9b3a
00000090: 5261 6f3c 60fa 8f3d 8ddc 29be d2d3 eabc
000000a0: e2f4 8ebd 0fad e6bc 4fd7 a03d c31d fa3e
000000b0: 7d12 d3bd e87b c83d 9047 ddbd d59b 9fbc
000000c0: 6cc9 13bd 25d0 cfbd 2034 ba3e 501b 69be
000000d0: 1837 6a3e 18e6 543e a2b6 45bc ba1b 6a3f
000000e0: 86ae d8ba 14db 443d a0ee bfbd 1bc9 ac3b
000000f0: 8b7b 02be 259d 1fbe a16e 19bd 7cb4 33bd

fc3.weight f4 [4, 64]
-0.43008757 0.025581276 -0.5581198 -0.620502 -0.5444798 -0.54519445 1.1599501 0.049476016
-0.09717506 0.29541314 -0.5574164 -0.071880504 -0.99743164 -0.44973212 -0.96368873 1.5319883
0.049098186 -0.5128499 0.85943574 -0.32178926 -0.6203568 -0.7379614 0.089576356 -0.028742043
-0.40653944 1.3925567 -0.11026925 -0.5068225 -0.4604603 -0.71804863 0.11407215 0.06253179
-0.7165791 1.4803354 -0.39421734 0.4823142 -0.24367616 -0.32667106 -0.81498784 -0.5923522
-0.3548043 -0.15361452 -0.21839763 0.46475387 0.04481093 -0.032703206 0.058646794 -0.47361597
-0.5727072 -0.3705882 -1.1720796 -0.32008243 1.1131743 0.06716655 -0.39450034 1.6073271
-1.0635812 -0.33250877 0.02022693 -0.43863493 -0.7276853 -0.38606218 0.06051528 -0.42450315
-0.017426722 0.029581437 -0.22933163 -0.6796786 -1.0502608 -0.48278722 1.4873902 -0.059070148
0.11132081 0.25314492 -0.6540341 -0.04433821 0.39747363 -0.42214555 -0.76527846 1.2626507
-0.030114084 -0.2815201 0.7806229 -0.31695974 -0.5995366 -0.61558264 0.059499297 -0.048509307
-0.5599756 1.4268894 -0.182513 -0.32445198 -0.6386948 -0.7169554 -0.9797964 0.019685954
-0.66473275 1.4916708 -0.44029644 0.6438413 -0.53366154 -0.32942575 -0.3152347 0.22762886
-0.6343603 -0.8192197 -0.20684467 0.730838 -0.067721605 0.010687441 0.10204086 -0.47047818
-0.5442127 -0.6720749 -1.5261819 -0.058678232 1.1710254 -0.28715658 -0.73816663 1.5164149
-1.0882145 0.36031368 -0.016688576 -0.59213865 -0.6730353 -0.2534593 0.096014015 -0.4412458
-0.6070707 -0.10403433 -0.46630183 -0.4500719 -0.28487048 -0.43828833 1.327395 0.05740283
0.085465044 1.5659678 -0.4004406 0.022337275 -0.3352905 -0.46026894 -0.4143835 1.4808887
0.013675034 -0.605363 0.74170595 -0.5053473 -0.4207364 -0.4242482 -0.0520876 0.004030269
-0.37075007 0.5232327 -0.85834795 -0.49283764 -0.3259147 -0.43065834 -0.68383545 0.06916735
-0.4354826 2.628172 -0.35102034 0.60701734 1.4329472 -0.5487098 -0.53539294 -0.568363
-0.5196368 -0.74694574 -0.8875783 0.7368213 0.01586538 -0.0031429976 -0.07443015 -0.44720352
-0.4064432 -0.68981594 -0.5600158 -0.6686515 -0.24113427 -0.6379457 -0.43110916 2.2157993
-0.3929374 -0.51495737 0.059723653 -0.38600263 -0.5585604 -0.37229827 0.060026824 -0.44767278
-0.31326744 0.08749053 -0.30736217 -0.7230437 -0.531419 -0.6536188 1.8815247 -0.05846247
0.0021049082 0.31309932 -0.40398234 -0.0024882853 -1.121064 -0.46006897 0.24093893 1.6827048
-0.014141876 -0.16677177 1.2312065 -0.5080189 -0.60572857 -1.1724718 0.023576258 0.0013021975
-0.4199319 1.2624072 -0.45737514 -0.4530992 -0.5498386 -0.5920557 0.094726965 -0.09069646
-0.5081969 1.5446604 -0.55331546 -0.34222403 -1.1922297 -0.4220423 -0.56667674 -0.53199714
-0.39547634 -0.2365441 -0.5302424 0.23832136 0.102439016 -0.11884415 0.039312147 -0.36397135
-0.5925355 -0.22038315 -0.3906026 -0.45549694 1.3717165 0.6492807 -0.62384814 1.3413788
-0.3410289 -1.0939546 0.033772815 -0.7040891 -0.6083218 -0.8097566 0.049462683 -0.3433908
00000000: 7034 dcbe d38f d13c f0e0 0ebf 38d9 1ebf
00000010: 0763 0bbf dd91 0bbf 3f79 943f 5da7 4a3d
00000020: b803 c7bd 6440 973e d7b2 0ebf 1636 93bd
00000030: ae57 7fbf 4a43 e6be 4eb4 76bf 3118 c43f
00000040: 2e1b 493d 224a 03bf fb03 5c3f 90c1 a4be
00000050: b4cf 1ebf 0aeb 3cbf cf73 b73d 6f74 ebbc
00000060: f025 d0be 4c3f b23f d8d4 e1bd 1fbf 01bf
00000070: 74c1 ebbe 09d2 37bf a99e e93d ab10 803d
00000080: ba71 37bf a17b bd3f dbd6 c9be e3f1 f63e
00000090: 3e86 79be 6e41 a7be 0ba3 50bf 65a4 17bf
000000a0: e9a8 b5be 204d 1dbe a1a3 5fbe 38f4 ed3e
000000b0: aa8b 373d ccf3 05bd 9f37 703d cb7d f2be
000000c0: f09c 12bf bdbd bdbe b406 96bf d8e1 a3be
000000d0: 7f7c 8e3f 9e8e 893d f3fb c9be e5bc cd3f
000000e0: 6e23 88bf 973e aabe f2b2 a53c c294 e0be
000000f0: 9549 3abf f1a9 c5be dfde 773d 7a58 d9be
00000100: 7cc2 8ebc c554 f23c e9d5 6abe 6bff 2dbf
00000110: f26e 86bf e32f f7be cd62 be3f 8af3 71bd
00000120: 2afc e33d 369c 813e c76e 27bf fc9b 35bd
00000130: aa81 cb3e 7623 d8be 4ae9 43bf 8a9e a13f
00000140: d0b1 f6bc 6723 90be e7d6 473f 8c48 a2be
00000150: 3b7b 19bf d396 1dbf 89b5 733d b2b1 46bd
00000160: 905a 0fbf 50a4 b63f b0e4 3abe 921e a6be
00000170: 8181 23bf 648a 37bf f0d3 7abf 7044 a13c
00000180: ed2b 2abf 12ef be3f 896e e1be c9d2 243f
00000190: 0b9e 08bf 7eaa a8be 7166 a1be 8a17 693e
000001a0: 7065 22bf 62b8 51bf 17cf 53be 3318 3b3f
000001b0: a0b1 8abd 601a 2f3c ccfa d03d 84e2 f0be
000001c0: 8651 0bbf 1a0d 2cbf ee59 c3bf 9658 70bd
000001d0: 29e4 953f 3006 93be 7df8 3cbf e219 c23f
000001e0: 9d4a 8bbf 097b b83e 7bb6 88bc 6696 17bf
000001f0: 0b4c 2cbf 6bc5 81be ffa2 c43d f8ea e1be
00000200: fc68 1bbf f30f d5bd 1dbf eebe d36f e6be
00000210: 8bda 91be 5467 e0be 14e8 a93f 3b1f 6b3d
00000220: 4c08 af3d a271 c83f 8d06 cdbe a9fc b63c
00000230: 32ab abbe 5fa8 ebbe 132a d4be c38d bd3f
00000240: 400d 603c 12f9 1abf 71e0 3d3f 715e 01bf
00000250: c36a d7be 0f37 d9be cf59 55bd 5910 843b
00000260: f4d2 bdbe 94f2 053f b1bc 5bbf 3755 fcbe
00000270: 4bde a6be 407f dcbe d70f 2fbf 9da7 8d3d
00000280: 93f7 debe f833 2840 f0b8 b3be 7d65 1b3f
00000290: d06a b73f 3f78 0cbf 830f 09bf 3d80 11bf
000002a0: eb06 05bf d637 3fbf 5538 63bf 52a0 3c3f
000002b0: 1df8 813c c0fa 4dbb d66e 98bd dcf7 e4be
000002c0: 5319 d0be c797 30bf 325d 0fbf bf2c 2bbf
000002d0: e7eb 76be 6950 23bf 57ba dcbe a8cf 0d40
000002e0: 172f c9be 3fd4 03bf caa0 743d 23a2 c5be
000002f0: d0fd 0ebf e19d bebe b0de 753d 5e35 e5be
00000300: 9764 a0be 3c2e b33d 935e 9dbe 6419 39bf
00000310: 130b 08bf 9053 27bf cdd5 f03f 5876 6fbd
00000320: 80f2 093b 8e4e a03e c6d6 cebe 8012 23bb
00000330: 067f 8fbf 298e ebbe b2b8 763e df62 d73f
00000340: 54b3 67bc 38c6 2abe 2d98 9d3f 870d 02bf
00000350: 0711 1bbf 8e13 96bf ff22 c13c 7fae aa3a
00000360: 5001 d7be 8f96 a13f 132d eabe 9efc e7be
00000370: 39c2 0cbf f690 17bf 3600 c23d 11bf b9bd
00000380: 3119 02bf 6fb7 c53f 15a6 0dbf fd37 afbe
00000390: fc9a 98bf ee15 d8be ba11 11bf f730 08bf
000003a0: e07b cabe 9e38 72be f7bd 07bf 840a 743e
000003b0: 8ccb d13d 9064 f3bd c605 213d 745a babe
000003c0: 68b0 17bf 1fac 61be 10fd c7be e536 e9be
000003d0: 6894 af3f 4337 263f 83b4 1fbf 4db2 ab3f
000003e0: 579b aebe b406 8cbf 5d55 0a3d 2f3f 34bf
000003f0: faba 1bbf 354c 4fbf 6299 4a3d ebd0 afbe

fc3.bias f4 [4]
0.32807088 0.10355156 0.4189469 0.020563915
00000000: e8f8 a73e d712 d43d 3580 d63e a875 a83c
