deep_q_learning/double_dqn_per/Notebook/checkpoint.pth (torch_old, 20939 bytes, 6 tensors)

fc1.weight f4 [64, 8]
-0.038472824 0.44954917 -1.5374455 -1.7340107 0.30486655 0.07992836 0.39485508 0.41966563
-0.23929714 -0.037154052 -0.11984172 0.31920186 -0.0010172282 -0.5427453 -0.053710572 0.5627153
-0.2012102 -0.1128878 -0.37001267 -0.5730654 2.0556328 0.54399806 0.038230024 0.64758414
0.15517266 -0.63248336 1.3596741 -0.33219758 -1.1567888 -0.33374435 -0.012018696 0.2322938
-0.7310812 -0.5714361 -0.5609975 -0.86820805 0.13359545 0.4971016 -0.19481054 0.16738428
0.6875209 -0.84293175 0.06617688 -0.18946035 -0.265605 -0.16669491 0.28312457 0.19863889
-0.21148589 0.023983741 -0.18347426 0.3413978 0.27831772 0.9432577 0.7220478 -0.17436399
-0.4422439 -0.5101354 -0.0742688 -0.9991763 0.45987046 0.16701573 -0.3487086 -0.39952117
0.14849128 0.0024027266 0.18507387 -0.50768346 0.76165354 0.52197075 0.1710366 -0.7222153
0.97348636 0.9826929 0.5220569 1.2706915 -0.58156496 -0.12656826 0.15968132 -0.1268321
0.0050659035 0.5772396 1.7160162 -2.1523101 0.70683265 0.24496034 -0.6071496 -0.30344594
-0.36342645 -0.08285529 -0.5312343 0.25346738 0.490651 0.22874424 -0.26677436 -0.006122618
-0.05071419 0.3558783 0.6566279 -0.70300514 0.7166338 0.47934496 -0.22901595 -0.072749175
-0.6726347 -0.76629204 -0.42972642 0.108759366 0.28160703 0.08735867 0.038414683 0.2587921
-0.6909156 0.18399405 1.4820842 -0.8703549 -0.31717142 0.08503819 0.27086204 0.5471564
0.46687692 0.7718951 -0.7057258 -0.0017718232 -0.079882726 -0.008229267 -1.2315068 -0.10700541
-0.20730785 -0.27630678 -0.45249376 -0.62328017 -0.34636083 -0.26877615 0.2352355 0.05106976
-0.5180109 -0.0061600194 0.050157256 1.1278093 0.31794092 0.8373099 0.7902918 -0.15037578
-0.21051998 0.16051242 0.04175783 -1.6863852 -0.28730887 -0.62232095 -0.6099357 -0.1788882
0.10947722 0.12310869 1.4488022 -1.5179325 1.202126 0.062260896 0.096324444 0.34204096
-0.055615246 -1.6887174 -0.7229283 -0.57887477 -0.38020205 0.13170783 -0.063555785 0.16044915
0.10212582 -0.29418024 1.1690487 -0.27291772 0.5665432 0.29622364 -0.12063614 0.31376
0.17686035 -0.9543348 0.4352962 -1.1933895 -0.13960996 -0.09232447 0.23656267 -0.20094258
-0.31064957 -2.0601888 -0.19105688 0.86071986 0.02553095 -0.30798677 0.28560516 0.1925705
-0.20236161 -0.3001943 -1.2797705 -0.8876877 0.4313594 0.21224734 -0.01317552 0.15409783
0.06792479 -1.033105 -0.4210896 1.7080302 0.13863643 -0.21429694 0.18634011 0.54705757
0.7212127 -0.59521776 0.002673585 -0.78615326 -0.83787906 -0.2037264 0.22463109 0.01681229
-0.20935859 -1.8108342 -0.17336197 -0.6096083 0.25466502 -0.0065068095 0.18956743 -0.083926015
-0.3095276 0.6628404 -1.680015 -0.4811534 0.39658457 0.20790559 0.6449536 0.27508372
-0.0024479777 0.14157863 2.790922 -1.1119826 0.38045684 0.09339069 0.23320957 0.2698945
0.11521905 -0.098093204 0.33459583 -0.14941314 2.2474859 -0.06483689 0.04640101 0.15372467
-0.28447586 -0.018286332 -0.49295655 0.05582479 0.60104823 0.2682558 -0.43107784 -0.03193543
00000000: ae95 1dbd 4f2b e63e 04cb c4bf 10f4 ddbf
00000010: 7817 9c3e 7bb1 a33d 722a ca3e 6ade d63e
00000020: 4f0a 75be d92e 18bd 936f f5bd 6d6e a33e
00000030: 8454 85ba 5bf1 0abf 9eff 5bbd 1c0e 103f
00000040: 0c0a 4ebe b831 e7bd 4d72 bdbe 6ab4 12bf
00000050: 7d8f 0340 7543 0b3f 1697 1c3d 13c8 253f
00000060: 95e5 1e3e 6eea 21bf cd09 ae3f cd15 aabe
00000070: a811 94bf 8ae0 aabe 11ea 44bc 6dde 6d3e
00000080: 2328 3bbf a349 12bf 889d 0fbf e242 5ebf
00000090: 3fcd 083e 1a84 fe3e 6a7c 47be c966 2b3e
000000a0: 5f01 303f 60ca 57bf be87 873d e501 42be
000000b0: 61fd 87be 12b2 2abe b4f5 903e fe67 4b3e
000000c0: c28f 58be 8d79 c43c ade0 3bbe b1cb ae3e
000000d0: a97f 8e3e 5679 713f 20d8 383f 798c 32be
000000e0: cb6d e2be 3c98 02bf 3e1a 98bd 05ca 7fbf
000000f0: 2474 eb3e 2c06 2b3e ef89 b2be 0a8e ccbe
00000100: 190e 183e 1077 1d3b 0184 3d3e 8bf7 01bf
00000110: bafb 423f e09f 053f 3824 2f3e 1ae3 38bf
00000120: 6736 793f c391 7b3f 85a5 053f 05a6 a23f
00000130: 71e1 14bf 1c9b 01be 8083 233e 46e0 01be
00000140: e1ff a53b f9c5 133f 6ba6 db3f 73bf 09c0
00000150: fcf2 343f e2d6 7a3e 286e 1bbf 445d 9bbe
00000160: 0813 babe 09b0 a9bd f9fe 07bf 7ac6 813e
00000170: 9c36 fb3e ee3b 6a3e a696 88be 3ea0 c8bb
00000180: afb9 4fbd ae35 b63e c418 283f 25f8 33bf
00000190: 5075 373f b46c f53e 2883 6abe 85fd 94bd
000001a0: ca31 2cbf b72b 44bf 1a05 dcbe 3bbd de3d
000001b0: cc2e 903e 1ae9 b23d b758 1d3d 6680 843e
000001c0: d8df 30bf f068 3c3e efb4 bd3f 94cf 5ebf
000001d0: 4b64 a2be 8128 ae3d 6eae 8a3e 7112 0c3f
000001e0: 7e0a ef3e eb9a 453f 72aa 34bf 853c e8ba
000001f0: 8e99 a3bd 0cd4 06bc 04a2 9dbf a725 dbbd
00000200: 8248 54be 1578 8dbe 43ad e7be 4a8f 1fbf
00000210: 3556 b1be 079d 89be 93e1 703e 862e 513d
00000220: 5d9c 04bf fdd9 c9bb b271 4d3d 0e5c 903f
00000230: 27c9 a23e f159 563f 9050 4a3f 1cfc 19be
00000240: 8d92 57be 5e5d 243e 420a 2b3d 78db d7bf
00000250: 261a 93be 6d50 1fbf bf24 1cbf 782e 37be
00000260: 9835 e03d 6920 fc3d 5a72 b93f 9d4b c2bf
00000270: 44df 993f 4805 7f3d c045 c53d fe1f af3e
00000280: d0cc 63bd e427 d8bf d411 39bf 2331 14bf
00000290: d8a9 c2be 6bde 063e 8929 82bd c84c 243e
000002a0: 5827 d13d cb9e 96be 63a3 953f dfbb 8bbe
000002b0: fa08 113f a0aa 973e 1510 f7bd 27a5 a03e
000002c0: e11a 353e 494f 74bf 25df de3e fdc0 98bf
000002d0: eaf5 0ebe 9d14 bdbd 7c3d 723e e4c3 4dbe
000002e0: 760d 9fbe 22da 03c0 6aa4 43be 2358 5c3f
000002f0: 4826 d13c 71b0 9dbe d73a 923e 3331 453e
00000300: e237 4fbe 11b3 99be 85cf a3bf 803f 63bf
00000310: 24db dc3e 5e57 593e 23de 57bc d2cb 1d3e
00000320: 271c 8b3d c93c 84bf 0e99 d7be bca0 da3f
00000330: b5f6 0d3e a870 5bbe f1cf 3e3e f70b 0c3f
00000340: 65a1 383f 3160 18bf 5037 2f3b 5741 49bf
00000350: 3e7f 56bf a79d 50be b105 663e edb9 893c
00000360: 1962 56be 6ac9 e7bf cd85 31be 4a0f 1cbf
00000370: 7463 823e 1337 d5bb f71d 423e 67e1 abbd
00000380: 677a 9ebe e9af 293f bb0a d7bf bd59 f6be
00000390: 220d cb3e 34e5 543e ae1b 253f c6d7 8c3e
000003a0: 406e 20bb fdf9 103e 779e 3240 7255 8ebf
000003b0: 3dcb c23e 9e43 bf3d 7dce 6e3e 9d2f 8a3e
000003c0: f7f7 eb3d 17e5 c8bd 2550 ab3e c2ff 18be
000003d0: cfd6 0f40 34c9 84bd fc0e 3e3d 006a 1d3e
000003e0: d2a6 91be 38cd 95bc cd64 fcbe 89a8 643d
000003f0: 4cde 193f d358 893e 3cb6 dcbe bace 02bd

fc1.bias f4 [64]
0.2077446 -0.006287906 0.041311473 -0.22515379 -0.34958416 -0.26096642 0.23139124 -0.086281754
-0.11059215 0.062119458 0.2549171 -0.36984357 0.10266335 -0.21688126 0.17323987 -0.24124856
0.04930512 -0.41357872 0.39594197 0.57096595 -0.41149902 -0.30372855 -0.48122925 -0.3544364
-0.15901728 -0.48441258 -0.2888257 -0.4945144 0.29256067 0.16674298 0.08355193 -0.34839684
0.00783537 0.4219743 -0.34876108 -0.30097786 -0.35319796 -0.019038139 -0.33543846 -0.2838352
0.22451133 -0.55424786 0.27650362 0.76281667 0.15665437 -0.1875489 0.32463762 0.028050957
-0.37943706 -0.46080664 0.43333966 0.6025322 -0.36923063 -0.0015801667 -0.16625111 -0.0019061067
0.19226407 0.25710273 0.36614934 0.017850723 -0.016798578 -0.4041818 0.20468262 0.44625685
00000000: 00bb 543e c70a cebb 3836 293d b78e 66be
00000010: b2fc b2be 649d 85be d3f1 6c3e 7db4 b0bd
00000020: 237e e2bd f970 7e3d 7e84 823e 235c bdbe
00000030: 2a41 d23d 1f16 5ebe cb65 313e dd09 77be
00000040: 2af4 493d 97c0 d3be e8b8 ca3e d32a 123f
00000050: 00b0 d2be 4f82 9bbe ae63 f6be b078 b5be
00000060: 6dd5 22be ed04 f8be f6e0 93be fe30 fdbe
00000070: 83ca 953e acbe 2a3e 461d ab3d 1261 b2be
00000080: ec5f 003c 040d d83e d090 b2be c519 9abe
00000090: 5dd6 b4be dff5 9bbc 97be abbe d952 91be
000000a0: 4ce6 653e 30e3 0dbf e291 8d3e f447 433f
000000b0: 016a 203e d20c 40be e736 a63e 1fcb e53c
000000c0: 9345 c2be d9ee ebbe b2de dd3e 8d3f 1a3f
000000d0: cc0b bdbe 991d cfba bb3d 2abe 54d6 f9ba
000000e0: dfe0 443e f8a2 833e ed77 bb3e ae3b 923c
000000f0: 2c9d 89bc ebf0 cebe 5298 513e c77b e43e

fc2.weight f4 [64, 64]
0.13325682 -0.56528604 0.28115523 -0.033740774 0.011527135 0.46448833 -0.25189778 0.64301467
0.18571723 -0.527878 0.3744736 0.38973847 0.44361272 -0.0023423568 -0.2275117 -0.37141547
0.22072788 -0.13872865 0.19359055 0.2640217 -0.15751468 -0.03946337 0.936419 0.37732467
-0.35416177 -0.06652789 0.50058025 0.82074124 -0.080761865 -0.15009885 0.53652847 0.8013948
-0.3048903 0.32058185 0.24927522 0.12787575 0.6963892 0.10693594 0.04433936 -0.15838829
0.10141041 0.031176804 -0.080250174 -0.77797717 -0.13242634 0.2218702 -0.3217442 -0.03490087
-1.1559659 0.039244138 -0.7771506 0.12034894 0.10802307 0.20797475 1.1028845 -0.08786783
-0.04237459 -0.2739618 -0.14259551 -0.015037368 -0.40283716 0.2932465 0.29980817 0.18381368
0.020004397 -0.8330882 -0.76140803 0.032773804 0.13367526 0.4747335 0.26131177 0.066882566
-0.05194158 0.3844857 0.44491822 0.4806884 0.18080238 0.17619261 -0.09849982 -0.20356725
-0.2725957 0.6997208 0.24223968 0.19672042 0.31600314 0.16416669 0.93392813 0.3405774
-0.20694016 0.13890561 0.83140135 0.77845305 0.13328251 0.32933095 -1.0602374 0.58807015
-0.6274057 0.33661622 -0.07239355 0.35464817 0.91284084 -0.43024105 0.085601404 0.11665789
-0.47695738 0.0036371176 0.37230378 -0.39097947 0.13760523 0.35348216 0.09058362 0.030679464
-0.25378817 0.017328942 -1.5242021 -0.07404177 -0.75389016 0.031599488 -0.84699225 -0.7221571
0.06160479 -0.10832868 0.13388664 0.43213472 0.024685025 0.03642976 -0.74717057 -0.10088555
0.23953319 -0.09088041 -0.35256773 0.9317629 -0.6479421 0.677503 0.002270232 0.16376492
0.23726805 0.5627254 0.283003 0.119294584 0.17044955 -0.043646563 -0.02981172 -1.3549476
0.41384062 -0.04232823 -0.18795238 -0.142555 0.40891194 0.44025332 0.91463554 0.58751506
-0.24547486 0.15340441 1.0673877 0.7338902 0.25447455 0.14398853 -0.9968515 0.20420688
0.33429134 0.52860224 0.3134131 -0.7803121 0.16294448 0.4671063 0.09910545 0.3369369
0.16537665 -0.049293905 0.42164847 -1.3159391 0.23024079 0.6952669 -1.00881 0.4449386
-1.1596795 -0.011847952 -0.51280844 0.022471247 -0.2761609 0.35476443 -0.039882082 0.042208526
0.1404105 -0.067228846 0.072599046 0.52265614 0.08527596 -0.37733597 -0.76034415 -0.2661822
0.07618916 0.6218058 -0.023157423 0.57105464 0.35290718 0.37997845 0.4130879 0.36499605
0.4187935 0.35889894 0.52889067 0.37679178 0.1722443 0.26377687 0.049011335 -0.92962897
-0.024202773 0.51088595 0.007497717 0.021220198 0.46371388 1.0016458 0.56174725 0.10729998
0.9055146 0.32146665 0.73482734 0.15357962 0.16423976 0.05181227 -0.8926202 0.38289997
-0.48206022 0.35191798 0.15762718 0.39889514 0.36070064 0.54777193 0.12429814 0.24768092
0.1109982 0.33332223 -0.019938467 -0.17103867 0.45183292 0.16422497 -0.44009972 0.6114231
-0.8348881 0.7098994 -1.0111712 0.37996754 0.38316733 0.028928753 -0.76314604 0.45035565
0.39678496 -0.31513277 0.12229034 -0.48349115 0.42673182 0.94531804 0.1473349 -0.83499014
00000000: 7a74 083e 96b6 10bf 94f3 8f3e c433 0abd
00000010: 4fdc 3c3c 6ad1 ed3e bff8 80be 9c9c 243f
00000020: a82c 3e3e 0323 07bf 01bb bf3e cd8b c73e
00000030: 3521 e33e 3a82 19bb d4f8 68be 2b2a bebe
00000040: 7d06 623e e20e 0ebe 9a3c 463e da2d 873e
00000050: 874b 21be 58a4 21bd 28b9 6f3f b330 c13e
00000060: b154 b5be c63f 88bd 0726 003f 191c 523f
00000070: 7a66 a5bd 83b3 19be ee59 093f 3628 4d3f
00000080: 951a 9cbe 4e23 a43e 0142 7f3e dcf1 023e
00000090: 9046 323f 3b01 db3d 309d 353d 8a30 22be
000000a0: 43b0 cf3d 7f66 ff3c 345a a4bd 8329 47bf
000000b0: c59a 07be f131 633e a8bb a4be 37f4 0ebd
000000c0: b1f6 93bf 76be 203d 57f3 46bf 8179 f63d
000000d0: 333b dd3d 55f7 543e 522b 8d3f 0df4 b3bd
000000e0: fa90 2dbd b944 8cbe 8f04 12be 4b5f 76bc
000000f0: ac40 cebe 6824 963e 7580 993e a739 3c3e
00000100: 43e0 a33c 4545 55bf a3eb 42bf d33d 063d
00000110: 2be2 083e 4510 f33e a8ca 853e baf9 883d
00000120: b2c0 54bd 4fdb c43e 52cc e33e ca1c f63e
00000130: 4224 393e d66b 343e 46ba c9bd ef73 50be
00000140: aa91 8bbe e720 333f ae0d 783e 1471 493e
00000150: 2acb a13e 501b 283e ea15 6f3f 2960 ae3e
00000160: 1fe8 53be 463d 0e3e b8d6 543f b348 473f
00000170: 367b 083e 119e a83e dcb5 87bf c48b 163f
00000180: a99d 20bf f658 ac3e 1243 94bd 7294 b53e
00000190: f0af 693f 8e48 dcbe ca4f af3d 55ea ee3d
000001a0: c233 f4be b55c 6e3b 9a9e be3e 762e c8be
000001b0: 63e8 0c3e 9dfb b43e e883 b93d 8053 fb3c
000001c0: 86f0 81be 6df5 8d3c 0e19 c3bf 36a3 97bd
000001d0: f2fe 40bf 776e 013d 7cd4 58bf 4adf 38bf
000001e0: 4e55 7c3d 6ddb ddbd 9419 093e c340 dd3e
000001f0: 4038 ca3c 5f37 153d 9246 3fbf 159d cebd
00000200: 3048 753e 821f babd c283 b4be 0388 6e3f
00000210: 89df 25bf d670 2d3f 2cc8 143b feb1 273e
00000220: 65f6 723e c60e 103f c5e5 903e b850 f43d
00000230: 548a 2e3e bdc6 32bd b537 f4bc ec6e adbf
00000240: ebe2 d33e 5e60 2dbd 9776 40be f0f9 11be
00000250: e85c d13e e268 e13e 8e25 6a3f 6367 163f
00000260: c35d 7bbe 0c16 1d3e 29a0 883f 3ae0 3b3f
00000270: 7d4a 823e bb71 133e a931 7fbf 9c1b 513e
00000280: 3c28 ab3e 7a52 073f af77 a03e 89c2 47bf
00000290: ebda 263e 8f28 ef3e ccf7 ca3d fe82 ac3e
000002a0: 7f58 293e 68e8 49bd 4fe2 d73e b170 a8bf
000002b0: 3ec4 6b3e 03fd 313f b020 81bf fece e33e
000002c0: 6170 94bf ea1d 42bc 6a47 03bf 9f15 b83c
000002d0: f664 8dbe afa3 b53e 655b 23bd d9e2 2c3d
000002e0: c5c7 0f3e 47af 89bd cfae 943d cbcc 053f
000002f0: 2aa5 ae3d 2e32 c1be eaa5 42bf 0949 88be
00000300: 1009 9c3d aa2e 1f3f a3b4 bdbc a330 123f
00000310: 40b0 b43e 898c c23e 4280 d33e c3e0 ba3e
00000320: 1a6c d63e 9ac1 b73e 6165 073f daea c03e
00000330: cf60 303e c30d 873e 1cc0 483d 2afc 6dbf
00000340: e544 c6bc 6cc9 023f 69af f53b fbd5 ad3c
00000350: e86b ed3e ee35 803f abce 0f3f 18c0 db3d
00000360: cecf 673f 4797 a43e a51d 3c3f fa43 1d3e
00000370: 782e 283e 1a39 543d c282 64bf 770b c43e
00000380: 99d0 f6be 982e b43e 0569 213e fc3b cc3e
00000390: c1ad b83e c83a 0c3f 0690 fe3d 11a0 7d3e
000003a0: 0653 e33d 36a9 aa3e ff55 a3bc c324 2fbe
000003b0: a556 e73e 972a 283e c054 e1be 3986 1c3f
000003c0: 3abb 55bf f8bb 353f 0f6e 81bf 1b8b c23e
000003d0: 822e c43e fefb ec3c 8a5d 43bf 0495 e63e
000003e0: 6627 cb3e 1559 a1be 5c73 fa3d 278c f7be
000003f0: 987c da3e 5d00 723f f6de 163e eac1 55bf

fc2.bias f4 [64]
-0.24300815 -0.40686208 -0.48513156 0.18612127 0.03135378 0.12387008 -0.020764355 0.7182767
0.013177623 -0.100964315 0.081700586 -0.5141891 0.016828213 0.067699865 -0.6525096 0.6445773
0.77966756 0.23192686 -0.49509656 0.09888804 0.024791578 -0.5955128 -0.0982567 -0.12453224
0.032420572 -0.14878027 0.21462308 -0.14145635 0.17215596 -0.6159226 0.5184904 0.010737368
-0.16060741 0.15570909 0.21869178 0.13241191 0.019584812 -0.42786413 -0.006730533 0.54290795
0.109917626 -0.011008391 0.037104227 0.25789422 -0.7370704 0.07296104 0.030814324 -0.55414265
0.094923966 -0.35530117 -0.2931625 -0.106233805 -0.022689411 0.20655048 -0.10327341 0.27677977
0.059089623 -0.39917836 -0.11162981 0.02629761 0.016269514 -0.24611413 0.32341188 0.13645063
00000000: 21d7 78be 3a50 d0be 2a63 f8be 9396 3e3e
00000010: d26c 003d 99af fd3d 021a aabc fbe0 373f
00000020: f5e6 573c 61c6 cebd a352 a73d e6a1 03bf
00000030: 52db 893c 3aa6 8a3d df0a 27bf 0503 253f
00000040: 4b98 473f 3c7e 6d3e 4c7d fdbe d085 ca3d
00000050: b517 cb3c 8773 18bf cf3a c9bd c20a ffbd
00000060: 6fcb 043d db59 18be 27c6 5b3e efd9 10be
00000070: a749 303e 1aad 1dbf c9bb 043f c9eb 2f3c
00000080: 4576 24be 3472 1f3e bdf0 5f3e fd96 073e
00000090: 5470 a03c 0211 dbbe ce8b dcbb 04fc 0a3f
000000a0: 7e1c e13d 8a5c 34bc 9afa 173d b60a 843e
000000b0: a5b0 3cbf 996c 953d 526e fc3c 4bdc 0dbf
000000c0: 7f67 c23d 09ea b5be 6519 96be 1c91 d9bd
000000d0: 25df b9bc f881 533e 0281 d3bd 14b6 8d3e
000000e0: f607 723d 1b61 ccbe 2b9e e4bd 166e d73c
000000f0: a547 853c 5805 7cbe 3e96 a53e b7b9 0b3e

fc3.weight f4 [4, 64]
-0.50719213 -0.5581498 -1.059257 -0.53243923 -0.37780544 -0.5289258 0.056494232 1.5781775
-0.09717506 0.038339898 -0.5249118 -0.65371126 -0.6461304 -0.5553956 -0.44106728 1.5689605
1.760403 -0.7824584 -0.33647227 -0.54868245 -0.48953423 -0.5765213 1.9893394 -0.011424512
-0.5374582 0.085628256 -0.7940841 -0.93031186 -0.62114644 -0.68798155 1.9534134 0.07171861
-0.40257642 -0.54023784 0.06496889 -1.0206827 -0.48137075 -0.7787886 -1.0929066 -0.005627951
-0.5483449 -0.4113819 -0.55467623 2.4405918 -0.36610565 -0.0036257305 0.43649387 -0.3421388
-0.64782995 -0.010702975 -0.43990546 -1.0967023 1.6889893 -0.15460445 -0.36413318 1.6172252
-0.6154545 -0.39615557 0.015912205 -0.46092704 -0.85280436 -0.46493673 1.2273412 -0.60923886
-0.73509663 -0.67936414 -0.46589416 -0.6433356 -0.49531513 -0.60207576 -0.010693665 1.9820182
0.11132081 -0.0800042 -0.7104229 -0.3973562 -0.27665207 -0.45770356 0.08621365 1.6782552
1.6075001 -0.41784638 -0.59815603 -0.6705357 -0.3871291 -0.47746575 1.9691556 -0.06105256
-0.6103798 0.05417892 -0.98312306 -0.6002509 -0.75201654 -0.69297373 1.4643903 0.02611684
-0.40923733 -0.8193582 0.028566286 -0.3129751 -0.7136299 -0.5326756 -0.7027601 0.23580505
-0.79772395 -0.8751514 -0.68641776 2.6451032 -0.67415136 0.059107933 1.2717397 -0.43932992
-0.6070353 -0.2666751 -0.35857543 -0.79053867 1.5702614 -0.4795436 -0.37147188 1.7254512
-0.71034956 -0.3773558 -0.011443022 -0.670989 -0.6504284 -0.30543467 1.0173026 -0.6353425
-1.2005523 -0.7639981 -0.7844881 -0.31657574 0.0148182055 -0.17591509 0.038205855 2.0833123
0.06967081 0.059181996 -0.33783367 -0.2537079 -0.5810614 -0.86154646 -0.67737865 1.7268711
1.8679404 -1.0955929 -0.79647744 -0.6665776 0.011314041 -0.10869843 1.1327671 0.008898497
-0.47482365 0.12623608 -2.1562142 -0.7193608 -0.68377984 -0.075663105 1.7108643 0.07234374
-0.41186506 -0.64919245 0.82488394 -1.2681662 -0.017290652 -0.5521704 -0.65572345 -0.853916
-0.6789001 -0.7645957 -0.88955 2.822525 -0.3926752 0.007026722 0.5878538 -0.6799376
-0.4375108 -1.1716088 -0.8912766 -0.9666418 1.4391974 -0.86485654 -0.38972974 -0.109897934
-0.22076121 -0.8506742 0.0528477 -0.23160355 -0.7227755 -0.4205466 0.28320423 -0.613002
-0.15326698 0.13532364 -0.2965679 -0.54006743 -0.34466025 -0.39380163 0.042261 1.6279899
0.01797834 -0.043881357 -0.52640986 -0.37596563 -0.7174665 -0.91876596 -0.0077927746 1.6434962
1.9372947 -0.47038534 -0.19652453 -0.6409984 -0.41319737 -1.1808488 1.9166049 -0.01254136
-0.4651668 0.09027176 -0.7437851 -0.40590096 -0.74447465 -0.722819 2.2354558 -0.072762236
-0.45893574 -0.5268249 -0.50672495 -0.6759931 -0.14341955 -0.55380404 -1.0120772 -0.8176509
-0.5707382 -0.5545685 -0.62889737 2.2671237 -0.3557821 -0.09155161 -0.20639102 -0.5052145
-0.47070414 -0.33758464 -0.6366133 -0.77518666 1.9411033 0.08210484 -0.546799 1.8039615
-0.22235286 -0.56583154 0.025332715 -0.43581703 -0.9581892 -0.5616502 1.9383507 -0.5116221
00000000: 58d7 01bf e8e2 0ebf bc95 87bf f04d 08bf
00000010: b76f c1be ae67 07bf 7f66 673d b801 ca3f
00000020: b803 c7bd 4c0a 1d3d 9f60 06bf 9f59 27bf
00000030: cd68 25bf 682e 0ebf 92d3 e1be b3d3 c83f
00000040: e354 e13f 324f 48bf 1846 acbe 7476 0cbf
00000050: 3ba4 fabe e696 13bf aca2 fe3f e02d 3bbc
00000060: dc96 09bf de5d af3d 1849 4bbf eb28 6ebf
00000070: 7403 1fbf 8f1f 30bf 7309 fa3f 35e1 923d
00000080: 7f1e cebe 074d 0abf 690e 853d bba5 82bf
00000090: 3a76 f6be b15e 47bf 5de4 8bbf ad6a b8bb
000000a0: 5560 0cbf a6a0 d2be 43ff 0dbf a832 1c40
000000b0: 3372 bbbe aa9d 6dbb 207c df3e d12c afbe
000000c0: 2fd8 25bf 885b 2fbc 4a3b e1be be60 8cbf
000000d0: cd30 d83f a150 1ebe aa6f babe 3c01 cf3f
000000e0: 6d8e 1dbf e7d4 cabe 505a 823c a1fe ebbe
000000f0: 6351 5abf 300c eebe 8419 9d3f 14f7 1bbf
00000100: 4b2f 3cbf cfea 2dbf ae89 eebe a4b1 24bf
00000110: f299 fdbe a321 1abf 7b34 2fbc c6b2 fd3f
00000120: 2afc e33d 3ed9 a3bd 46de 35bf 4672 cbbe
00000130: 57a5 8dbe 1f58 eabe c890 b03d 11d1 d63f
00000140: 90c2 cd3f f6ef d5be c120 19bf 3aa8 2bbf
00000150: c935 c6be 6476 f4be 4a0d fc3f 4012 7abd
00000160: da41 1cbf b7ea 5d3d f4ad 7bbf 0baa 19bf
00000170: 2884 40bf ba66 31bf 2471 bb3f fcf2 d53c
00000180: 8e87 d1be 76c1 51bf d803 ea3c 463e a0be
00000190: 73b0 36bf 6e5d 08bf 16e8 33bf e176 713e
000001a0: a337 4cbf ec09 60bf 13b9 2fbf 5f49 2940
000001b0: 2f95 2cbf 291b 723d 5ec8 a23f daef e0be
000001c0: aa66 1bbf a489 88be 3397 b7be be60 4abf
000001d0: 53fe c83f bd86 f5be 9031 bebe 96db dc3f
000001e0: 78d9 35bf c834 c1be 837b 3bbc efc5 2bbf
000001f0: 7a82 26bf ef61 9cbe f936 823f cea5 22bf
00000200: b3ab 99bf 6195 43bf 36d4 48bf 3716 a2be
00000210: 0fc8 723c 1623 34be be7d 1c3d fd54 0540
00000220: 92af 8e3d d268 723d 89f8 acbe 00e6 81be
00000230: 71c0 14bf 4f8e 5cbf b068 2dbf 1d0a dd3f
00000240: ac18 ef3f 633c 8cbf f2e5 4bbf d4a4 2abf
00000250: 875e 393c 489d debd 83fe 903f 00cb 113c
00000260: 161c f3be 0844 013e 6aff 09c0 0828 38bf
00000270: 320c 2fbf 42f5 9abd 9afd da3f f428 943d
00000280: fadf d2be 7a31 26bf 982b 533f 4553 a2bf
00000290: 20a5 8dbc 0a5b 0dbf 7edd 27bf 3d9a 5abf
000002a0: 66cc 2dbf 8bbc 43bf 8cb9 63bf 40a4 3440
000002b0: b90c c9be 6b40 e63b 967d 163f 6410 2ebf
000002c0: 6a01 e0be 47f7 95bf b42a 64bf d675 77bf
000002d0: 9f37 b83f 3d67 5dbf a88a c7be 2b12 e1bd
000002e0: 3a0f 62be c9c5 59bf d476 583d 7b29 6dbe
000002f0: d107 39bf e251 d7be 2500 913e b3ed 1cbf
00000300: 05f2 1cbe 4892 0a3e bfd7 97be dc41 0abf
00000310: 4f77 b0be 5ea0 c9be df19 2d3d f961 d03f
00000320: 5047 933c f0bc 33bd ccc2 06bf 917e c0be
00000330: e2ab 37bf 3f34 6bbf 885a ffbb 155e d23f
00000340: 46f9 f73f 59d6 f0be ba3d 49be 7918 24bf
00000350: 9b8e d3be 0e26 97bf 4f53 f53f 477a 4dbc
00000360: 582a eebe 67e0 b83d b368 3ebf 40d2 cfbe
00000370: e495 3ebf aa0a 39bf b511 0f40 5e04 95bd
00000380: a0f9 eabe ffdd 06bf bab8 01bf e20d 2dbf
00000390: 93dc 12be 1ac6 0dbf bf8b 81bf 9251 51bf
000003a0: e61b 12bf 34f8 0dbf 6bff 20bf 8e18 1140
000003b0: 1229 b6be 697f bbbd 2b58 53be bd55 01bf
000003c0: 2200 f1be e5d7 acbe 17f9 22bf a272 46bf
000003d0: 1376 f83f 9526 a83d 05fb 0bbf 36e8 e63f
000003e0: 78b0 63be 56da 10bf 8e86 cf3c 6923 dfbe
000003f0: e34b 75bf 4fc8 0fbf e01b f83f aaf9 02bf

fc3.bias f4 [4]
0.25909752 0.17241299 0.2772487 -0.015453934
00000000: 6ea8 843e 088d 303e 8bf3 8d3e 7f32 7dbc
