05_deep_q_learning/dqn/notebook/checkpoint.pth (torch_old, 20939 bytes, 6 tensors)

fc1.weight f4 [64, 8]
00000000: 0c37 cf3e faaa bcbe 5df9 ce3e 5388 01bf
00000010: a210 b73d 8ae4 d9bc 0496 9a3d e350 393e
00000020: e346 95be 19de 133e 0166 8cbe 4263 973d
00000030: f242 6d3d e826 35bf fed4 43bf ed9a 32be
00000040: d8da e5bd 0aa6 a63d ddd1 6c3f 62aa a33e
00000050: c186 273f da71 9d3f 5808 aebe 4d47 e83e
00000060: 694f aa3d 6ecf a0bc a75f 29bf 3220 8bbf
00000070: 8c17 79c0 9609 ffbc 4f70 1d3e 1599 a13d
00000080: 92c0 74be 6af3 39bf ab13 6b3f 61f5 d1be
00000090: 3d3c 13bf ce03 703e d9a8 a23e 60ba b53b
000000a0: b1d9 de3e eb7e 22bf 2e67 993e 30a0 003f
000000b0: 5bea 6dbf eb4a b5be d4ba 703e 6759 623e
000000c0: 3719 ffbd 3289 debd 02c5 bdbd 08e8 aa3e
000000d0: e12c 383d c584 413f 7ec4 0dbc 200f 3abe
000000e0: e36b 203e 3261 acbe 6324 bcbe 6f1c 433f
000000f0: a699 a13d 5805 513f 93b8 fabd b8a4 273e
00000100: 8a16 0abe 3aab 04bd 7157 5bbe 57ad 8abe
00000110: 5c81 d6be 289a 663f 8119 83bd 6ce5 38bf
00000120: dbb9 debd eb45 3d3f e3e2 1540 ce71 fc3f
00000130: 5155 babf bf10 21be c566 833e 646f 4e3d
00000140: ece7 c0be a87a 3b3f c6a0 553f c729 a1bf
00000150: 1022 9a3e fd41 dc3e 65c2 b93e d55e c03d
00000160: ea02 febe 0b84 38bd d4fc 7fbd af44 873c
00000170: bdbd 46be 749c d43e c181 f9bd 6e48 33bf
00000180: 2d38 37bd 923d 003b e074 a63d f6a4 cbbe
00000190: a680 abbe a3c8 283f 15b0 55bd c113 44bf
000001a0: 9667 40bf 45d6 dbbe 9baa 27bf 17b7 0fbe
000001b0: 62cc ce3d 6082 df3d e4b3 b83e 3010 103e
000001c0: 70b0 29bf bd20 2e3f 1068 7d3f a8c2 8dbf
000001d0: b2a6 6dbf d3b5 0d3f 3e47 953e cd0d 913e
000001e0: b5f3 0f3e c936 943d 66a8 9bbd 30d2 28be
000001f0: 3884 88be 9440 80bf 0bba 21bf 5a60 c43e
00000200: 7616 bb3d 8d94 2fbe 2a06 8e3d 136c 1cbc
00000210: c085 24bf 6390 8fbd 9d1e d53e 404c e43d
00000220: 4020 e2be 20dd 823e 44e9 443e 2ede 463c
00000230: 591f 71bd bbef 383f b769 c93e c847 57be
00000240: da8c 03bf b96b 0bbf 3bf4 56be 9176 03bf
00000250: 7762 ad3d 0b42 f2be fe2b 79bf 2d7f c9be
00000260: af81 4d3e 74c9 0b3f b359 d63e 517a aabf
00000270: eed2 ab3f 69a5 d4bf d52c 673e 1a5f fc3d
00000280: 57bc 52bf 214f 1bbe c9ea 61bf e877 83be
00000290: 1d0c d33e f6d5 c2be b46b 2fbf 7adf 073f
000002a0: 7237 05bf 2e5d 6dbf e405 32bf f452 3cbf
000002b0: 32a6 b13e 1e6b 253c 406f adbe b9fe ce3d
000002c0: 8a86 31be f452 a9bf b72e 9e3f 2cb7 27bf
000002d0: 6bb8 29bf 7c7a cfba 9069 c43e 908f 3abc
000002e0: 5f71 5f3f 58b0 283e a9f9 303f 9ca0 90be
000002f0: 5785 51bf ac91 403e e1a1 c23e 3aee 963d
00000300: 3174 0abf c736 a7be b2f5 d4be 7010 9abe
00000310: 282a e1bd c71d 5a3d 9b65 39be 4a45 c9bc
00000320: 8870 a63c d620 00be 6f93 213f 305b 6bbf
00000330: 344f 25bf 0e97 993d fa41 543e 9492 873e
00000340: a491 e63e 3318 6dbf af81 233e 3f30 e73e
00000350: a525 fabe 10f4 66be fb36 5f3c ac7f 303d
00000360: cd3c ff3e 4f27 4dbf 5370 893e 8729 2dbf
00000370: ab6c cd3d 04c2 313f 4507 e43d 7569 96bd
00000380: 94b9 d4be b644 653f caec 01c0 9efd cabe
00000390: fb34 cebe 9f43 c9bc 22c1 1fbe 5063 c6bd
000003a0: 301f 293d 55d4 823f bbd9 1b3e c3b7 0dbf
000003b0: 2c05 0540 f481 e53e 2197 aebf 8d12 4d3e
000003c0: c5cc a73e d8a7 14bf 6b1d 0cbf ebbe 4e3f
000003d0: 4b10 1abf 059b 66bf a0cf 983e fa85 223e
000003e0: f8da 60be b6dc e73d bd34 e6be 0cab a7be
000003f0: dd15 9d3f 0320 fc3d 4750 f93d e8b2 30bf
0.40471685 -0.36849195 0.40424624 -0.5059864 0.08938719 -0.026598234 0.075481445 0.18097262
-0.29155645 0.14440192 -0.27421573 0.07391979 0.057925172 -0.7076249 -0.76496875 -0.17441912
-0.11223382 0.08137138 0.92507726 0.3196593 0.65439993 1.230037 -0.3399074 0.45366898
0.083159275 -0.01963016 -0.6616158 -1.08692 -3.8920622 -0.0311325 0.15374874 0.07890526
-0.23901585 -0.72637045 0.91826886 -0.41007522 -0.5751379 0.23438951 0.31769446 0.0055458993
0.4352546 -0.6347491 0.29961532 0.50244427 -0.92935723 -0.3540872 0.2350877 0.22104417
-0.12455981 -0.10866012 -0.09266092 0.3338015 0.044964675 0.75593215 -0.008652804 -0.18169832
0.15666156 -0.33667904 -0.3674651 0.7621526 0.07890634 0.8164878 -0.12242236 0.16371429
-0.1348516 -0.032389857 -0.21420075 -0.27085373 -0.41895568 0.90078974 -0.06401349 -0.7222507
-0.10875293 0.7393481 2.341973 1.972223 -1.4557287 -0.15729044 0.25664344 0.0503992
-0.37676942 0.73234034 0.83448446 -1.2590874 0.30104113 0.43019095 0.36281124 0.09393088
-0.49611598 -0.0450478 -0.062496975 0.016512243 -0.19408317 0.41525614 -0.12182952 -0.70032394
-0.044731308 0.0019567949 0.08127761 -0.39774293 -0.33496588 0.6593115 -0.052169878 -0.7659264
-0.7515806 -0.42936912 -0.654947 -0.14034687 0.10097577 0.10913539 0.36074746 0.14068675
-0.6628485 0.68018705 0.9898691 -1.1075029 -0.9283248 0.55355567 0.29155916 0.28330842
0.1405781 0.07237012 -0.07600479 -0.1648643 -0.26663375 -1.0019708 -0.63174504 0.3835476
0.091351435 -0.17146511 0.069347695 -0.009547251 -0.64266586 -0.070099615 0.4162492 0.11147356
-0.4416523 0.2555933 0.19229609 0.012137933 -0.058867786 0.722408 0.39338467 -0.21023476
-0.513868 -0.54461247 -0.20991604 -0.5135279 0.08466046 -0.47316012 -0.9733275 -0.3935484
0.20069002 0.5460427 0.4186531 -1.3318578 1.3423746 -1.6612979 0.22575696 0.12322827
-0.82318634 -0.15166904 -0.8824888 -0.2567742 0.4122018 -0.38053864 -0.68523717 0.53075373
-0.5203773 -0.92720306 -0.6954024 -0.73564076 0.3469711 0.0100963395 -0.3387394 0.10107178
-0.17336479 -1.322844 1.2358006 -0.65513873 -0.66297024 -0.001582935 0.38361788 -0.011386767
0.87282366 0.1647352 0.6913095 -0.28247535 -0.81844085 0.1880557 0.3801413 0.07369657
-0.54083544 -0.3265898 -0.415937 -0.30090666 -0.10994369 0.053251054 -0.18105166 -0.024569172
0.020317331 -0.12512526 0.6311559 -0.91936016 -0.6457398 0.074995145 0.20728293 0.26479018
0.4503299 -0.9261505 0.15967439 0.45153996 -0.48856845 -0.2255404 0.013623948 0.043090507
0.49851075 -0.80138105 0.2684351 -0.6764149 0.100304924 0.6943667 0.11134199 -0.07344333
-0.41547835 0.8955797 -2.0300775 -0.3964662 -0.40274796 -0.024568377 -0.15601018 -0.09686911
0.04128951 1.0221049 0.15219776 -0.55358523 2.0784407 0.4482571 -1.3639871 0.20026608
0.32773414 -0.5806861 -0.5473239 0.8076007 -0.6018111 -0.9008029 0.29845905 0.1587142
-0.2195853 0.11321394 -0.4496211 -0.32747686 1.2272297 0.12310793 0.12173515 -0.6902299

fc1.bias f4 [64]
00000000: 391a 00bf 71a1 a3be 2e94 e6bd 2cc2 eb3c
00000010: e368 aabe 020a 91be e3d8 9e3e 33c1 d6bd
00000020: 917c 963e 6f3b f33e e591 253f 826d b93c
00000030: cae1 25bf ef56 f7be 8048 173f 067e 7c3e
00000040: 8150 173e eafc f8be b707 7f3e 7dfc 033e
00000050: 5fd3 18bf 3c02 33be 41eb bfbe 119a 16bd
00000060: 58d5 c6be d7a3 efbe 1e40 9dbd 739b 95be
00000070: e9d5 ce3e d42c d1bd 0412 fdbe b97b 8d3e
00000080: f3b5 1fbd b4a3 ca3e 6c6c 19bf f33e 233e
00000090: 09e5 d43b 31d9 75be 97be abbe 10f7 063e
000000a0: ebd5 223e e34c fcbe 1a9a a13e 6036 52be
000000b0: acf6 593e 01cd d9bc 0dc0 3f3f e646 803e
000000c0: 9c56 8abe 0293 c5be 8605 d43e bd4d 523f
000000d0: 09db 4abc 1a09 6a3e 18b4 8dbe dc4e 6dbe
000000e0: 0602 28bd 6362 113f 7e19 a73e c61b e9bd
000000f0: a9ce 10be 3cc7 24be 5d25 ca3e 7a22 fdbd
-0.5004001 -0.31959108 -0.11258732 0.028779112 -0.33283147 -0.28327948 0.31024846 -0.104860686
0.29391912 0.47506282 0.6467574 0.022635225 -0.6479765 -0.48308513 0.59095 0.24657449
0.14776804 -0.48630458 0.24905287 0.12889285 -0.59697527 -0.17481321 -0.37484172 -0.036768023
-0.38834643 -0.46804687 -0.07678245 -0.2922016 0.40397575 -0.102136284 -0.49427807 0.27633455
-0.03899188 0.3957802 -0.59931064 0.15941982 0.0064970297 -0.24008633 -0.33543846 0.13180184
0.15901916 -0.4927741 0.31562883 -0.20528555 0.21285504 -0.026587011 0.7490242 0.2505409
-0.27019203 -0.3858872 0.41410464 0.8214987 -0.012381324 0.22855034 -0.27676463 -0.23174614
-0.041017555 0.5679075 0.32636636 -0.113822505 -0.14141335 -0.16091627 0.3948163 -0.123600915

fc2.weight f4 [64, 64]
00000000: 5203 b03e a36d fc3e 20a4 52be e462 87bf
00000010: 32f3 f23e bfa2 6f3e 777e 3c3e fc73 073e
00000020: 20ad 5a3e b8c6 073f cac6 ac3c 3380 003f
00000030: 44e4 d23e 517c f23e 680d 353e 845f 1a3f
00000040: 438d 91be a15d f33e a8b2 d63e cfac c7be
00000050: 8fd3 dd3e a707 143f 3b99 873f cab7 833e
00000060: e1ac 493f cd8e 803f 94f4 c2bd bb51 e73e
00000070: fc95 883e 0f1c 26bf 8f46 8f3e f921 dd3d
00000080: 9ef3 3dbd bb02 d93d 7926 493f cfe9 29bf
00000090: 6cb0 3fbf d958 bf3e 309d 353d 7cfc 773f
000000a0: 1afb 913e 8f2f 543f 0b4e 1c3f 8396 91be
000000b0: 4f68 933e 0988 3d3e 971f 08bc a46b 24be
000000c0: fd97 ad3e eba2 cd3e 8848 c53e 914e 99be
000000d0: f2d6 3f3e f0f7 f63e 768f 653d f56f 873e
000000e0: e54e 3dbe a6dc 843e 824a 963e 9459 ed3e
000000f0: 6789 703e 7f0a 99be 5c88 3abf 8c83 743e
00000100: 4c79 dfbd 9cb1 043c 041e 983b d73d cfbb
00000110: 97fa cdbd bf96 e43d c216 d7bd d864 8a3d
00000120: ee48 0abe 601d f6bc 33d7 ee3c 4d2f acbd
00000130: 46b0 ae3d d943 d7bd 3e58 12be e0de 66bd
00000140: f390 613c 3e3f a83d a3ed 8ebd 1f01 4d3c
00000150: 722b 3ebd a07a 7dbd 5eac b33d 22e7 07be
00000160: de36 e2bb da72 c93d 57ee 86bc 95e8 793d
00000170: 9df2 0abd 2915 8d3d 9ea7 0bbe e5fe 28bd
00000180: bf5e 2bbd de42 9f3b e2ea e73c 0a74 833d
00000190: 73bc 00bd 5d0b 2fbd ca4f af3d 9088 0abd
000001a0: f7ac 973d bef4 f2bd e6ca bbbc ca25 1dbd
000001b0: cb59 c63c 6678 593d ca35 12bd 0dba 09be
000001c0: 28b1 7d3d 8cfb 013c 279d 0c3d 3dc5 e7bd
000001d0: aec2 a43d a817 a83d 7adf 6cbb 16f8 07be
000001e0: e4a5 5a3d 17e5 e1bd 7e17 553c 77bd 3ebb
000001f0: 6cd2 b8bd b046 323d bf47 10be 49d0 8bbb
00000200: 6230 a83e 40e9 1d3f 49d5 3bbe ce5d 82bf
00000210: 1a8c 203f 1f50 003f 79d5 653e 015b bdbc
00000220: caf4 303e 80fa 463e 500b 0c3d 0942 ac3e
00000230: 32a1 c13e 4aa6 b23e 1242 2e3e c4ff 593f
00000240: 49ef eb3d a942 a83e 8f27 8e3e 7512 e8be
00000250: 870c 023f eee6 e93e 9e97 9d3f 8ab1 623e
00000260: 0d97 793f e650 8c3f a8a6 293e 151e d73e
00000270: 8f5b 623e e2ca 0dbf 44de a33e 600d bc3e
00000280: 7366 ac3d 396f ce3c 7166 323f b972 24bf
00000290: 5848 76bf dfb9 c83e ccf7 ca3d 7092 233f
000002a0: ce2d 573e 5019 7d3f 2b99 063f 0389 b8be
000002b0: 316e ce3e 5102 ee3d d20a 8cbe 58b7 533c
000002c0: 2ce3 1d3f ce33 283f 90a6 e93e 56a9 5cbe
000002d0: 541d de3e 51ec 053f c6d2 d23d f13d a03e
000002e0: 8161 66be 53db 963e 4e90 253e 5e9a 2a3f
000002f0: ed67 993e dc88 02be 6d63 1ebf a11b c33e
00000300: 16cc e53c 75c1 103f 0f96 4dbe bb31 88bf
00000310: f339 cb3e 8c71 aa3e 9e83 983e f973 09bc
00000320: 6f47 063f de3a 45be 1e5a e9bd cfcf 4a3e
00000330: 4860 a43d b82e c33e 403b 6abd f432 333f
00000340: 20f5 1ebb 2313 073f c28a e9bc 2734 c0be
00000350: 33e3 3a3f 101a a03e 9415 093f fb0c e63e
00000360: 0c69 4c3f ef96 aa3e 1a12 ab3e 3a63 983e
00000370: 9967 313f 5b23 22bf 9979 ec3e 9acc 263e
00000380: 4e7c 0b3e 686c ba3d 1650 d23e cae2 babe
00000390: af46 8bbf b3a4 873e 0690 fe3d 62dc f53d
000003a0: 178e bdbd 6b8d 323f a831 ad3d 6259 14be
000003b0: 6086 0f3f 3842 943d 61fa 84be da1e 083e
000003c0: 9ac2 183f 8415 343f 45b0 81bd 1e35 09be
000003d0: af1d 3d3f f5d9 d03e 94d4 0f3e fc07 f43e
000003e0: c121 313c d356 963e 0525 b83e 3b62 da3e
000003f0: c289 d13d 62da 70bd 65f9 bebe fcd0 533e
0.34377533 0.49302396 -0.20570421 -1.0577054 0.47451168 0.23401926 0.18407618 0.13227838
0.21355104 0.53037596 0.021090884 0.50195616 0.41189778 0.4736047 0.17680895 0.60301995
-0.28428087 0.4753237 0.4193318 -0.3899903 0.4332547 0.57824177 1.0593637 0.25726157
0.7877942 1.0043579 -0.09519306 0.45179543 0.2667693 -0.64886564 0.2798352 0.107974954
-0.04637491 0.10596224 0.7857433 -0.6637239 -0.74878573 0.37372473 0.04433936 0.96869636
0.28511888 0.8288507 0.61056584 -0.28435144 0.2879052 0.18508925 -0.008308313 -0.16056687
0.3390502 0.4016336 0.385319 -0.29942754 0.18734339 0.48236036 0.056045018 0.26452604
-0.18487127 0.2594959 0.2935372 0.46357405 0.23489915 -0.2989082 -0.7286432 0.23878306
-0.109118074 0.008098986 0.00464225 -0.0063245106 -0.10057562 0.11161565 -0.105023876 0.06757516
-0.13504383 -0.030043304 0.02915535 -0.084074594 0.08529715 -0.10510988 -0.14291474 -0.056364894
0.013767469 0.082151875 -0.06978919 0.012512474 -0.04642815 -0.061884522 0.08773111 -0.13271764
-0.0069035133 0.09836359 -0.016471071 0.061012823 -0.03392278 0.068888016 -0.1363816 -0.04125871
-0.041838404 0.004860266 0.028310243 0.06418617 -0.03142972 -0.042735446 0.085601404 -0.033821642
0.07406037 -0.11863087 -0.022923898 -0.038366117 0.024212738 0.053093337 -0.03569583 -0.13449879
0.061936527 0.007933509 0.03432956 -0.11316917 0.08044945 0.08207637 -0.0036143945 -0.13278231
0.053380862 -0.110300235 0.013006089 -0.002910463 -0.0902451 0.043524444 -0.14089869 -0.004266773
0.32849413 0.61684036 -0.1834308 -1.0184877 0.6271378 0.50122255 0.22444715 -0.023114683
0.1728088 0.19431496 0.034190476 0.3364413 0.37818295 0.34892493 0.17017391 0.8515589
0.115202494 0.32863358 0.27764556 -0.45326582 0.50800365 0.45683998 1.2311895 0.22138038
0.9749611 1.0962188 0.1656748 0.42015138 0.2210524 -0.553877 0.32005513 0.36728954
0.08417978 0.02519952 0.69687563 -0.6423755 -0.9620414 0.39204308 0.09910545 0.6389532
0.21013567 0.9886675 0.52577466 -0.36042032 0.40318444 0.116215356 -0.27352005 0.0129221305
0.6167476 0.6570405 0.4563489 -0.21548972 0.4338175 0.52313715 0.10294108 0.31297258
-0.22498132 0.29464206 0.16168329 0.66641796 0.29962102 -0.1274752 -0.6187046 0.38107017
0.028051417 0.5654519 -0.20076774 -1.0640177 0.3969265 0.33289754 0.29787916 -0.008389466
0.5245275 -0.19260737 -0.113941416 0.19805835 0.08026177 0.3812158 -0.05718541 0.69999623
-0.0024254993 0.52763575 -0.028508548 -0.3753979 0.7300293 0.31269884 0.5354855 0.44931778
0.7984779 0.33318278 0.33412248 0.29763204 0.692987 -0.633352 0.46186522 0.16288987
0.13621637 0.09102708 0.41076726 -0.3650115 -1.0880946 0.26492843 0.12429814 0.12004925
-0.09255617 0.69747037 0.08456737 -0.14487222 0.56064415 0.07239193 -0.25972274 0.13293019
0.5967194 0.7034533 -0.06332449 -0.13399169 0.7387342 0.40791288 0.14045936 0.47662342
0.01081127 0.29363117 0.35965744 0.4265307 0.10231353 -0.058802016 -0.37299648 0.2068519

fc2.bias f4 [64]
00000000: 25bc 63be b75c 22be 8cee aebe c69f 0cbd
00000010: d2bb 49bc 9b07 1ebe 1013 123e a6d2 dbbc
00000020: c4b4 c93d f189 e23c a105 2fbe 233e 01be
00000030: e9d8 14bf 0224 80be b95f 2abe fa03 e53e
00000040: 25dd fabc 4d91 a7be 45e0 983e 9c4e 44be
00000050: 690e 16be f79f dbbe 03da 953e 467c 7abe
00000060: d467 64be b62a 113f bc54 7ebe fcbf 8dbe
00000070: c056 fd3c 35d9 38be 1c03 013f 5a17 533b
00000080: 17da 29be 503f 793e 5261 78be 04d4 d8bd
00000090: 8e83 ae3e 1353 c5be bc9f 76be 9de1 01be
000000a0: c05f 3fbe 4a93 0abe 62d4 51bf 78e1 123f
000000b0: fc70 f5bd 4af7 a73d a8c0 bcbd 7dbd cebd
000000c0: c41c e1bd a091 60be 3fae 123f 499f cbbe
000000d0: b2d0 723e 5c39 b53e ea3e 05be aa2e 6c3f
000000e0: a2a7 bfbd 5470 11bf e374 e0bd 1787 c5bd
000000f0: 0f5c 48be 62f6 7abe cbfc 42bd f728 1cbe
-0.2223974 -0.1585568 -0.34166372 -0.03433206 -0.012312846 -0.15432589 0.14265084 -0.026833843
0.098489314 0.027653666 -0.17091991 -0.1262136 -0.5814348 -0.25027472 -0.16638078 0.44729596
-0.030623028 -0.32728043 0.29858604 -0.19170612 -0.14653935 -0.4289548 0.29267892 -0.24461469
-0.22305232 0.56705797 -0.24837011 -0.27685535 0.030925155 -0.18051608 0.5039537 0.0032209964
-0.16587101 0.24340558 -0.24255875 -0.10587314 0.34084743 -0.38539943 -0.24084371 -0.12683721
-0.1868887 -0.13532749 -0.81964695 0.5737529 -0.11984441 0.082014635 -0.09216434 -0.10094736
-0.10991815 -0.21930552 0.5729713 -0.39769962 0.23712423 0.35395324 -0.13012281 0.92258704
-0.09358145 -0.56812024 -0.10959794 -0.09644907 -0.19566368 -0.2450805 -0.047604363 -0.15250002

fc3.weight f4 [4, 64]
00000000: 984b 45bf d38f d13c 5c90 37bf 672d f5be
00000010: 3fb8 2abf c844 02bf b5d0 da3f 50a7 4a3d
00000020: 9995 55be 8593 073f ed21 1bbf 1636 93bd
00000030: 5f4f 27bf caeb 03bf 5c3b 86bf 2900 0340
00000040: 76d1 843d 375c 2ebf e017 0040 d234 26bf
00000050: 64e3 f9be 9bce 03c0 a56a b43f 06b2 28bf
00000060: 1dc1 d4be 857a f23f 76fc f8be c4f1 28bf
00000070: a914 9fbe a55a 12bf 4da5 2bbd ab10 803d
00000080: e497 15bf 2eac cebe 281f 06bf 6840 dcbd
00000090: a227 18bf f0c3 1dbf cfb9 2abf 8a1f 21bf
000000a0: fd59 e0be 9fe8 dfbd d574 00bf 008f 813f
000000b0: 5913 ed3c ccf3 05bd daa0 983d f5f3 febe
000000c0: 98e4 22bf 8d89 cebe db2d b2bf a293 24bf
000000d0: a45e f13f 008f 11bf 815f edbe c138 e93f
000000e0: ec00 2dbf db89 4bbe d4a0 8e3b 19d6 06bf
000000f0: 1876 5dbf a80d 0ebf 8ada 773d 4c1b 5dbf
00000100: e31a 7cbe c654 f23c 02b0 e7be d21c 19bf
00000110: f19b fbbe 5ca3 0cbf 9881 d03f 27f3 71bd
00000120: 9823 803e b097 8f3f 64d4 efbe fc9b 35bd
00000130: 90ff 0cbf 83bb 15bf 7401 b4be 6f32 de3f
00000140: 0d7f 09bd 4e84 e7be 2468 cd3f 44c1 21bf
00000150: 22ca b7be 411e 62bf 432f 1f40 58e3 cdbe
00000160: c9b6 14bf 859e e73f c31b 15bf 2f7a f1be
00000170: 06d1 2bbf db37 24bf 19a5 8abf 8e0e f63c
00000180: df5a 18bf e551 28bf 4e6e d8be cc87 ff3d
00000190: f5e6 8ebf 8f10 8fbf 1d7b b5be 7b53 58ba
000001a0: fda7 43bf 8817 60bf 708e 22bf ed2a 963f
000001b0: 0ca9 86bd 68f3 a9bb ccfa d03d d23d 28bf
000001c0: f669 14bf 605c 49bf 080f bcbf bc8e 7abe
000001d0: 7da9 3340 dd75 8fbe 301f 21bf e36d de3f
000001e0: 1592 26bf 1b7b a0be 57b6 88bc 66e8 22bf
000001f0: 15fb 1abf a030 e9be afc2 db3d 8c2e 35bf
00000200: 11a3 5bbf f30f d5bd 87c1 33bf 67b7 aebe
00000210: 957a 973e 2d64 cbbe 2d9c bd3f 1024 6b3d
00000220: 5c83 083f 96a1 1240 fd7c 94be aefc b63c
00000230: a13f 0fbf a857 17bf f9ac 68bf e716 f43f
00000240: efb6 fd3c b1f0 38bf 0aa0 a33e e6c3 edbe
00000250: f1af 21be 2287 9fbf 9b41 5640 9068 fbbe
00000260: f5cf fbbe 0420 5d3f 2ed1 96bf 3803 2ebf
00000270: c8ee f7be cd9c 86be 93ef 25bf c2d0 893d
00000280: 40d6 ffbe c2b6 033f a90e b2be 9032 4fbd
00000290: 8df5 c43e 012b 7abe 7598 13bf 0205 2ebf
000002a0: 3593 0bbf 553e 61bf c1bb 4fbf 5f60 923f
000002b0: 1df8 813c c0fa 4dbb d66e 98bd ddf3 20bf
000002c0: bb09 09bf 052a 42bf 3bec 9abf da75 54bf
000002d0: 81de 313f 6ede 97bf 7279 05bf ebb5 1b40
000002e0: cfc7 21be 0520 48bf c8a0 743d 8cbd a1be
000002f0: bf6c ecbe fbd4 27bf b0de 753d 1e97 dfbe
00000300: 9814 37bf 76a7 923d 3ab5 1ebf eeb0 41bf
00000310: b08e 9fbe 4463 24bf 1397 0b40 6264 47bd
00000320: bb60 203e cf5e 21be 0f3a fdbe 8012 23bb
00000330: 4fd5 3bbf ad10 24bf 4882 c9be bb7b 1040
00000340: b8f5 0dbc caf8 04bf 57e8 0840 4ca3 19bf
00000350: 88b3 22bf 5185 06be 130f 0240 0685 a3be
00000360: 5aed 0dbf e7e0 b03f 7376 2ebf ac1f 48bf
00000370: 3adc e2be f6fc 0ebf 117f 893e bcbe b9bd
00000380: e3e1 3dbf 1909 cf3d 5473 1ebf a461 9bbd
00000390: 2b79 4fbf 95ca 9fbe ae10 4cbf df20 4dbf
000003a0: bc59 0cbf 9b39 11be 1d02 70be fd1a 833f
000003b0: 7adb d13d 9064 f3bd c605 213d f686 8bbe
000003c0: 21de 32bf ec35 54be f2e8 c5bf d317 3cbf
000003d0: 4809 0a40 3d13 423f c7cf 39bf 3cd7 b33f
000003e0: 6aca 9dbe f508 04bf 5c55 0a3d 120a 23bf
000003f0: 32e8 07bf abe2 53bf d1f6 933d da26 1abf
-0.7706847 0.025581276 -0.7170465 -0.47886202 -0.6668739 -0.508862 1.7094942 0.049475968
-0.20857848 0.5295947 -0.6059864 -0.071880504 -0.65355486 -0.5153166 -1.0486865 2.0468848
0.06485264 -0.6810946 2.0014572 -0.6492435 -0.48806298 -2.0594852 1.4095045 -0.6589664
-0.41553584 1.894364 -0.48630112 -0.65993905 -0.3107045 -0.5716956 -0.04190569 0.06253179
-0.5843489 -0.40365738 -0.5239129 -0.10754472 -0.59435475 -0.616271 -0.6668977 -0.6293875
-0.43818656 -0.10933041 -0.5017827 1.0121765 0.02893989 -0.032703206 0.07452555 -0.497955
-0.63630056 -0.40339318 -1.3920244 -0.6428777 1.8857007 -0.56858826 -0.46361926 1.8220445
-0.6757953 -0.19876806 0.0043526683 -0.5267044 -0.8650832 -0.5548959 0.06051115 -0.86369777
-0.24619631 0.029581439 -0.4525147 -0.598096 -0.4914241 -0.54936767 1.6289549 -0.05906978
0.25027156 1.1218166 -0.4684173 -0.04433821 -0.5507746 -0.58489245 -0.3515736 1.7359141
-0.03356843 -0.45218128 1.6047406 -0.63185525 -0.35896403 -0.88327414 2.4872596 -0.40212512
-0.5809141 1.8095251 -0.58245486 -0.4716353 -0.6711582 -0.6414773 -1.0831634 0.030036237
-0.5951366 -0.6574996 -0.42271656 0.12477073 -1.1164232 -1.1176928 -0.3544549 -0.00082521857
-0.76428205 -0.87535906 -0.6349859 1.173185 -0.06575212 -0.005186487 0.10204086 -0.6571933
-0.57974184 -0.7865658 -1.4692087 -0.24468511 2.8072197 -0.2801961 -0.62938213 1.7377285
-0.65066653 -0.31343922 -0.016688509 -0.6363586 -0.6053937 -0.4554491 0.10730492 -0.7077415
-0.85795695 -0.10403433 -0.70217174 -0.341243 0.2958571 -0.39724866 1.4813286 0.05740744
0.5332544 2.2911124 -0.29001608 0.022337284 -0.55956465 -0.5911813 -0.90888935 1.9069489
0.030971019 -0.72242266 0.31958038 -0.4643852 -0.15789773 -1.2463114 3.3477542 -0.49103212
-0.49182096 0.86376977 -1.1782587 -0.6797366 -0.48424363 -0.26291505 -0.64818686 0.067292705
-0.49968147 0.5145074 -0.3477681 -0.05058533 0.3846859 -0.24430467 -0.57654506 -0.6797639
-0.54521495 -0.87985736 -0.81145865 1.143566 0.01586538 -0.0031429976 -0.07443015 -0.62872106
-0.5353047 -0.75845367 -1.2103342 -0.8299233 0.6948014 -1.1864755 -0.52138436 2.4329784
-0.15798877 -0.7817386 0.059723645 -0.31589925 -0.46176717 -0.6555936 0.060026824 -0.4366998
-0.715158 0.07160847 -0.6199528 -0.756606 -0.3116355 -0.6421397 2.1810958 -0.048679717
0.156619 -0.15758823 -0.49458358 -0.0024882853 -0.7337236 -0.64087945 -0.3935721 2.257552
-0.008664541 -0.5194212 2.139181 -0.60014796 -0.6355519 -0.13136794 2.03217 -0.31937426
-0.55440295 1.3818635 -0.6814949 -0.7817333 -0.44308645 -0.5585474 0.26854756 -0.09069583
-0.741728 0.10109157 -0.61894727 -0.07586983 -0.8104426 -0.31209245 -0.7971295 -0.8012828
-0.54824424 -0.14182131 -0.23438306 1.0242611 0.1024694 -0.11884415 0.039312147 -0.27251405
-0.6987019 -0.20723695 -1.5461714 -0.7347385 2.1568165 0.75810605 -0.7258267 1.4050059
-0.30818492 -0.5157617 0.03377281 -0.6368724 -0.53088677 -0.8276774 0.07224811 -0.6021553

fc3.bias f4 [4]
00000000: 0e12 af3e a0c6 3e3e 74e8 183f 01e9 823e
0.34193462 0.18630457 0.59729695 0.25568393
