dqn/exercise/checkpoint.pth (torch_old, 20999 bytes, 6 tensors)

fc1.weight f4 [64, 8]
000000 79 ad ee 3e e8 f1 bc 3d 68 6f 4a bf ca 05 71 3f
       0.46616724 0.092258275 -0.7907624 0.9414946
000010 aa fc b4 3c 37 8c 47 3d 69 bf cd 3e 46 94 e2 3e
       0.022093136 0.048717704 0.40185097 0.4425375
000020 e4 1b b7 be ec b1 1e be 6b 44 a6 bd 7b be c4 be
       -0.35763466 -0.1549756 -0.081185184 -0.38426575
000030 a1 da 8f bf e8 08 fe be 89 9b a0 be 7b a0 e5 be
       -1.1238595 -0.4961617 -0.31368664 -0.44849
000040 ea 47 71 bc c1 77 2d 3d 71 43 81 3f 8c 7d 13 3e
       -0.014726618 0.042350534 1.0098706 0.14403361
000050 42 f2 bb 3e 70 d2 ae 3f f4 c5 92 3e f8 e7 c3 3d
       0.36708266 1.365797 0.2866665 0.09565729
000060 7e 1b 88 3e 04 a8 d1 3e a6 60 33 bd f8 80 a6 be
       0.26583475 0.40948498 -0.043793343 -0.3252027
000070 e6 c9 81 bf b6 54 3c bd 18 e3 62 bd 10 4b 3b 3e
       -1.013974 -0.045979224 -0.055392355 0.18290353
000080 98 a1 00 bf a5 38 c8 ba 26 2a 58 bf 0d c4 12 bf
       -0.5024657 -0.001527567 -0.84439313 -0.573304
000090 0e a2 7e bd e9 4f d6 3d fe a5 de 3d 30 d1 94 3e
       -0.062166266 0.104644604 0.10871504 0.29065847
0000a0 00 66 0b 3f a9 d6 bf 3c 7b 41 66 be 60 3a 5f be
       0.54452515 0.023417788 -0.22485916 -0.21799612
0000b0 01 1d de be 2f 26 ea bd 1b a4 90 3e 3b 1e 45 3e
       -0.43381503 -0.11433064 0.28250203 0.19249813
0000c0 2f 85 a2 be a9 58 2d bd b0 e9 24 bd c8 65 2b 3e
       -0.31742236 -0.04232088 -0.040261924 0.16738045
0000d0 82 30 90 3b 04 ed 9e 3e 32 65 99 3e 2f 84 11 bf
       0.004400314 0.31040204 0.29960018 -0.5684232
0000e0 84 7a ae 3d f8 0a 8d be d8 90 9a bd 9d 7d 93 bf
       0.08519462 -0.2754743 -0.07547158 -1.1522709
0000f0 74 70 b2 3e 6a 50 e5 3e c0 cd 1a bd b2 1f fe 3d
       0.3485142 0.44787914 -0.037793875 0.12408389
000100 42 36 10 3d c1 a7 58 3d 8e a8 35 3e 3f 1c fe bd
       0.035207994 0.052894358 0.1774008 -0.12407731
000110 1a f5 cb 3e c3 bf 57 3f 5d de 81 bc 3b 79 63 bf
       0.39835435 0.8427698 -0.015853101 -0.8885686
000120 1c 0b b5 3b af 9f e8 3e 7f 40 e1 3e d3 cc 24 3f
       0.005525006 0.4543433 0.4399452 0.64375037
000130 5c 0d 5b bf ec 3b 22 bf c3 19 c5 bc c2 bb 27 be
       -0.8556726 -0.63372684 -0.024060136 -0.16380218
000140 83 0d 87 be f6 b6 91 3e ad f2 02 3f f1 35 ad bf
       -0.26377496 0.284599 0.51151544 -1.3532087
000150 1d 3a 3c 3f 09 4b 1c be 77 bd 0b 3e 2d 3d 11 be
       0.73526174 -0.15262999 0.13646494 -0.14183493
000160 05 11 1f be 64 53 1d bd 52 c3 e8 be 59 0b 73 3e
       -0.15533836 -0.038409606 -0.45461518 0.23734798
000170 3b bc 03 3f 7a a7 7f 3e 6d 9a db be f0 49 4d be
       0.5145909 0.24966231 -0.42891255 -0.20047736
000180 2a 0c 00 3e 68 0a 51 3e 12 34 d9 3e e0 57 c8 3e
       0.1250464 0.20414126 0.4242254 0.39129543
000190 d9 85 e7 3d 6b fd 30 3f d4 28 ed 3e 69 a0 1c bf
       0.11304826 0.69136685 0.46320212 -0.61182266
0001a0 bd 62 6d bf bb 59 c9 be d6 f8 51 bf 0b 63 67 be
       -0.9272879 -0.3932627 -0.8202032 -0.22596376
0001b0 1f 3c 61 3e 54 a4 9f 3d 5a 6d 73 3e 1b 5b aa 3e
       0.2199559 0.07795015 0.23772183 0.33272633
0001c0 ce 02 35 be 9d 79 c6 3e 20 05 a7 3f 7a dd a7 bf
       -0.17676851 0.3876466 1.3048439 -1.3114464
0001d0 03 12 f3 3e f1 a4 74 3c d1 51 9f 3e 55 96 14 3e
       0.4747468 0.014931903 0.31117108 0.14510472
0001e0 81 6a a7 3d d2 21 cb be 2e b3 f8 3d 0e 73 e2 3f
       0.08174611 -0.3967424 0.12143551 1.7691362
0001f0 60 f2 ab bf ad c3 43 be 8e 30 8e 3e be 39 37 3d
       -1.3433342 -0.19117613 0.2777142 0.0447328
000200 17 0d de 3a bd f6 90 3d 05 21 8e bd a3 2a 3f bf
       0.0016941157 0.070783116 -0.06939892 -0.74674433
000210 b9 45 55 bf 78 3f 17 bd d8 33 b5 3e a3 e9 80 3d
       -0.83309513 -0.036925763 0.35391116 0.06294563
000220 28 18 9f 3c 23 80 56 be d3 a0 4f bf 7c 6b b4 3f
       0.019420698 -0.20947318 -0.81104773 1.4095302
000230 15 52 f3 3e 1b eb 85 3e da ce 2c 3f 13 00 86 be
       0.4752356 0.26155934 0.6750313 -0.26171932
000240 bf b4 40 bd 32 d7 07 bd 53 26 c7 be 7a 63 a9 be
       -0.047047373 -0.03316421 -0.38896427 -0.33083707
000250 e5 75 fe be 67 bd 88 be 70 db 67 bf 16 8c 12 3e
       -0.4969932 -0.26707003 -0.9056921 0.14311251
000260 4a 09 6d 3c 31 1e fe 3c b0 16 08 3f 66 d1 80 bf
       0.014467547 0.031020256 0.5315962 -1.0063903
000270 c0 6a 7c 3f 44 a4 38 bf 75 2e 7d 3e 8c 97 bb bc
       0.9860039 -0.7212565 0.24724753 -0.022899412
000280 59 72 23 bf 6d 43 48 be 3d 44 42 bf 1a b4 8e bf
       -0.63846356 -0.19556971 -0.75885373 -1.1148713
000290 61 40 af bd 9e ee e5 3d a7 0e 00 3e 0a 8b 5f 3e
       -0.08557201 0.11227153 0.1250559 0.21830383
0002a0 e4 02 11 3f 85 c1 cc be 6c 32 5f 3f 27 a7 40 bf
       0.56645036 -0.39991394 0.8718631 -0.75255054
0002b0 9c c1 84 3e d1 a7 b0 bd 8f 11 36 3d c4 04 3c 3e
       0.25928962 -0.086257584 0.04445034 0.18361193
0002c0 e5 3f d6 3e fe a7 4f bf 0e 87 80 3f e9 eb 6d bf
       0.41845623 -0.8111571 1.0041215 -0.92938095
0002d0 92 45 ce be 09 97 bd be 83 01 97 3e 81 14 d1 3d
       -0.40287453 -0.37029293 0.2949334 0.10208989
0002e0 57 ed 8a 3f 47 32 d6 be bb 60 38 be 6c b1 7c be
       1.085368 -0.41835234 -0.1800565 -0.24677056
0002f0 ca e2 3d be 62 7f 1b bd c9 25 4f 3e e9 f4 ef 3d
       -0.18543544 -0.03796328 0.20229258 0.11716635
000300 62 67 79 bf b8 3e c3 be 0c 98 9c be 34 52 56 bf
       -0.97423375 -0.38133788 -0.30584753 -0.8371918
000310 7a 0a 9f 3c fd 94 a2 3d 30 1c 2a 3e 60 e2 0e 3e
       0.019414175 0.079385735 0.16612315 0.13953543
000320 6a 8c d3 be e8 c1 fd bd 46 de 00 bf 2f 81 0e 3f
       -0.41318065 -0.123905 -0.5033916 0.5566587
000330 dd 5c 58 3e 45 86 08 3e 5c 1a 8a 3e df 5b 04 3f
       0.21129175 0.1333247 0.26973236 0.51702684
000340 4e e6 e4 3e 19 d8 ce be b3 d3 bb 3d e3 ec 5c bf
       0.4470696 -0.40399244 0.09171238 -0.8629896
000350 c2 9e dd be 14 73 f3 3b 15 9b ce bd 09 45 7f bd
       -0.43285185 0.00742949 -0.10088173 -0.062321696
000360 03 e2 08 3f f1 e3 c7 be a6 7d 3d 3f 4e 8a 83 bf
       0.53469867 -0.39041093 0.7401985 -1.0276582
000370 38 c4 0d be 02 42 8e 3e cf 48 3a bf 6d 71 09 bf
       -0.13844383 0.27784735 -0.7276735 -0.536887
000380 37 3a aa 3d f8 b2 bd 3e 85 86 e4 bf 1a 58 07 c0
       0.08311885 0.37050605 -1.7853552 -2.1147523
000390 e2 27 ec 3e 09 2a bf bd 17 35 70 be 2a b7 57 3d
       0.46124178 -0.093341894 -0.23457752 0.052664913
0003a0 d0 b2 f2 3d 77 f0 4f 3d b8 e5 13 bf fb 00 da 3e
       0.11850512 0.050766435 -0.577724 0.42578873
0003b0 e6 8d 7e bd 9f ed f4 be b8 52 04 3e eb 4c 1a 3f
       -0.062147044 -0.4783754 0.1292218 0.6027362
0003c0 b8 67 a9 be 5b b5 bf be 53 9d b6 be ed d9 52 bd
       -0.33086944 -0.3744305 -0.35666904 -0.05147736
0003d0 31 09 a3 3d 77 23 d5 3d a2 05 9d 3e 9c f1 a6 bd
       0.079607375 0.10407155 0.3066836 -0.08151552
0003e0 cb f5 49 bd ab ef 89 be f9 b5 92 be b3 f6 4e be
       -0.049306672 -0.26940665 -0.2865446 -0.20211296
0003f0 3a f0 f4 3e 40 41 39 bd 24 cd dd be fa 00 68 bd
       0.47839528 -0.045228243 -0.43320572 -0.056641556

fc1.bias f4 [64]
000000 77 e1 cc be ca 58 f0 be d0 59 38 be ab 12 a0 3e
       -0.40015766 -0.4694274 -0.18003011 0.31264243
000010 9b 08 7f be 11 72 9b be 91 69 8e 3e 04 41 49 be
       -0.24905626 -0.30360463 0.27814916 -0.19653708
000020 f3 ad c9 bd 71 5f 35 3e 38 75 49 3f 1f f2 15 bf
       -0.09847631 0.1771219 0.78694487 -0.5857257
000030 c3 29 02 bf 00 c9 af be 87 e1 2d 3f 21 62 a4 be
       -0.50844973 -0.34333038 0.6792225 -0.32106116
000040 cb 5c 05 be 74 56 cc be b4 08 ae 3e ee e0 2c 3f
       -0.13023679 -0.39909708 0.33991015 0.67530715
000050 37 fb a4 be 81 20 e3 be 7a d2 d7 be 1a c1 96 be
       -0.32222912 -0.44360736 -0.42152768 -0.294442
000060 a1 b8 89 be 65 6d 9d be 15 f2 a7 be 94 16 a3 be
       -0.26898673 -0.30747524 -0.3280188 -0.31853163
000070 1e ce 12 3f 1d 71 9e be f0 1b b6 be 35 cb 02 bf
       0.5734576 -0.30945674 -0.3556819 -0.5109132
000080 d0 20 d3 be 61 61 12 3f 3b b4 8b bd 68 62 88 3e
       -0.4123597 0.5717984 -0.068214856 0.26637578
000090 37 ea bb 3d 92 a7 86 be 97 be ab be 04 23 a8 be
       0.09175532 -0.2629972 -0.33543846 -0.32839215
0000a0 1f 9d bf 3e 86 11 d9 be 9a 9c 86 3e 62 80 73 3e
       0.3742456 -0.42396182 0.26291353 0.23779443
0000b0 c2 17 9b 3d 78 13 51 3e 0d b4 ae 3e 46 e4 ef 3d
       0.07572891 0.20417583 0.34121743 0.117134616
0000c0 41 c1 3c be 55 13 02 be ed 42 a3 be 70 43 e6 3e
       -0.18433096 -0.12702687 -0.31886998 0.44973326
0000d0 7c cd a1 be 34 ff 82 be 52 dd a7 be a7 19 94 bb
       -0.31602085 -0.2558533 -0.32786041 -0.0045196596
0000e0 7c 99 cc 3e 1d 68 82 3e c8 b3 f9 3e 88 b1 cf be
       0.3996085 0.25470057 0.48769975 -0.40565133
0000f0 5a 66 13 be 1f 67 93 be 70 80 85 3e f8 a6 df 3c
       -0.14394513 -0.28789613 0.26074553 0.027301297

fc2.weight f4 [64, 64]
000000 9f f3 6d 3e 50 75 8c 3f b0 eb 94 be a8 24 cd 3e
       0.23237465 1.0973301 -0.29086065 0.4006703
000010 b8 b1 00 be 43 7b 97 3c d0 a4 64 3e 79 3c 8e 3e
       -0.12567794 0.018491393 0.22328496 0.27780512
000020 66 1f a2 3d 8a 20 f6 3e c3 f2 de bd 44 28 0a 3f
       0.07916145 0.480717 -0.10886147 0.5396769
000030 ae 4f 0e 3f b4 0e 07 3f e0 7f 96 bd 57 9d b1 3f
       0.5559033 0.5275681 -0.07348609 1.3876141
000040 dc 3e 4f be ba 11 17 3f 5f 0f db 3e 37 62 94 be
       -0.20238823 0.59011424 0.42785165 -0.28981182
000050 eb 02 ae 3e 10 00 41 3f 12 bd 5a 3f e6 29 a1 3e
       0.339866 0.7539072 0.8544475 0.31477278
000060 6c 6c b4 3e 6a d6 e1 3d 6d 26 1d 3f 9b 16 28 3f
       0.3523897 0.11027224 0.6138676 0.65659493
000070 10 af 03 3c 19 37 0e 3e d5 c4 e3 3e 0e 7e 0f 3f
       0.008037344 0.13888206 0.44486108 0.5605172
000080 d2 6a 36 3e 51 43 ca 3e 88 f7 54 be 60 f4 32 3e
       0.17814186 0.39504483 -0.2079755 0.17476034
000090 20 c7 5d 3e fe 37 34 3f 30 9d 35 3d 31 88 d1 3f
       0.21657991 0.7039794 0.04433936 1.6369687
0000a0 cd 66 08 3e d7 ea 8f 3f 55 36 b5 3e 0e 24 c1 be
       0.13320465 1.1243542 0.35393015 -0.3772282
0000b0 47 62 ca 3e 82 46 81 3e d7 2f 33 3f d4 06 46 3d
       0.39528105 0.25249106 0.6999487 0.048346356
0000c0 8e 68 6d bf c1 4c f8 3e 27 1c 21 bd e6 22 71 bd
       -0.9273766 0.4849606 -0.03933349 -0.058871172
0000d0 ab 19 4a 3e b8 a0 2c 3d 94 b7 d7 3e 92 aa bf bf
       0.19736354 0.04214546 0.42132246 -1.4973929
0000e0 35 1c 1c bf 46 77 e8 3e 96 65 fb 3b ce b0 18 3e
       -0.6098054 0.45403498 0.007672022 0.14911196
0000f0 d0 4d 33 be eb bd 24 bc d6 41 1c bb 5c 2e 15 3f
       -0.17510152 -0.010055046 -0.0023842952 0.58273864
000100 ba e2 26 3e 97 4a 5f 3f e3 46 03 bd d7 ae b4 3e
       0.16297427 0.8722319 -0.032050025 0.35289642
000110 78 c3 22 be 34 4f af 3e 9b 54 70 bd 4c f9 6c 3c
       -0.15894878 0.34240115 -0.058674436 0.014463734
000120 99 92 a5 bc 47 97 d5 be d5 0b 3c 3e 21 11 81 3e
       -0.020211505 -0.41716978 0.18363889 0.2520838
000130 93 c4 25 3f 83 54 c8 3e 58 7a d6 ba 4f d4 2f 3e
       0.64753073 0.39126977 -0.0016363366 0.17170833
000140 3d 96 d3 bc e7 d2 ca 3e 79 2e 4d 3e eb 8c ed bd
       -0.025828475 0.3961403 0.20037259 -0.115991436
000150 b2 8f 13 3f e9 86 c8 3e a9 63 2c 3f ce 8f 28 3d
       0.57641137 0.39165428 0.6733957 0.041152768
000160 ec 8c fa 3e 6f b7 af 3e 11 27 4d 3f b1 b0 09 3f
       0.4893564 0.34319636 0.80137736 0.53785235
000170 0d 87 8b 3e c5 25 2c 3e 7c 1a 14 3e ed 98 33 3f
       0.27251473 0.16811283 0.14463228 0.7015522
000180 95 52 48 3e 09 1a ea 3e a2 cb d6 bd ac a2 fc bb
       0.19562753 0.45722988 -0.104880586 -0.0077098217
000190 ee 27 b8 3e 0e e2 e0 3e ca 4f af 3d d5 01 b6 3e
       0.35967964 0.43922466 0.085601404 0.35548273
0001a0 da 13 0e 3e b0 fb 15 3f 80 12 b2 3d d5 ed 91 bd
       0.1387476 0.5858717 0.08694935 -0.07125441
0001b0 10 dd 47 3f 36 7f c5 bc 55 6d 8c 3d 36 42 77 3e
       0.7807169 -0.02410851 0.06856791 0.24146351
0001c0 04 99 15 3f 8f 0d 1e 3f e6 63 0c bf ff 62 1d 3d
       0.5843661 0.6173944 -0.5483993 0.03842449
0001d0 61 7a e8 3d 96 48 12 3f 62 8c cd 3e e9 f9 82 bf
       0.11351467 0.5714201 0.40146166 -1.0232517
0001e0 b9 cb 85 bf 07 1c 39 3e 77 85 98 3c 51 dc d1 3e
       -1.0452796 0.18077098 0.018618328 0.409884
0001f0 74 70 4e be a5 13 7a 3e 5a 41 42 be 61 5f cf 3e
       -0.20160085 0.24421556 -0.18970242 0.40502456
000200 41 77 18 be 2a ec 51 3e 5a e3 c1 bf da dd 05 3f
       -0.14889242 0.20500246 -1.5147507 0.52291644
000210 b3 b6 0c bf e9 bf 9b 3d c1 2f a8 3e 0a 2c 8a be
       -0.54966277 0.07604963 0.32848933 -0.26986724
000220 84 e5 f3 bf 9e 9b 8a 3e b6 12 81 3e de d1 20 3d
       -1.9054418 0.27071851 0.25209588 0.039262645
000230 f5 64 bd bf b1 b0 71 3e 72 f7 b2 3e 7c f3 87 3f
       -1.4796435 0.23602559 0.3495441 1.062118
000240 09 62 b4 be 1c 1e b6 be 0d 69 87 3e c4 30 e3 bd
       -0.35231045 -0.35569847 0.26447335 -0.11093286
000250 82 c6 8b be 59 02 bb 3e b3 2a 25 3f af 4e 31 3d
       -0.27299887 0.3652523 0.6451828 0.04328793
000260 1f df 8b 3d 5d 21 89 be 2a db 88 3d 0a 30 39 3e
       0.06829666 -0.26783267 0.06682427 0.18084732
000270 07 08 e9 bd ab 4a dc 3d cc e8 bf be 83 d1 f8 3d
       -0.11378484 0.10756429 -0.37482297 0.12149336
000280 96 c1 a1 be c7 b0 39 3f 4b 45 12 be df 63 cc 3d
       -0.31593007 0.72535366 -0.14284246 0.099799864
000290 88 f3 8d bf f0 82 43 3f cc f7 ca 3d d3 5d 84 3f
       -1.1089945 0.7637167 0.09910545 1.0341133
0002a0 cc 01 44 be 36 53 2e be 66 2e ec 3e fb 4d c8 3e
       -0.1914131 -0.1702393 0.4612915 0.39121994
0002b0 07 20 0a 3e 5e 4b 8a be aa ba 63 3e f9 4a 14 3d
       0.1348878 -0.27010626 0.22239175 0.036204312
0002c0 97 3b 59 bf 05 1c 6d bf 1a 2f 8a be 2c a4 5d be
       -0.8485655 -0.9262088 -0.2698906 -0.21644658
0002d0 d0 5b 7b be 2a fc 1c be b3 da 60 be 40 b1 41 bf
       -0.24546742 -0.15330568 -0.21958427 -0.7566109
0002e0 e8 7b e7 be e5 a2 84 3e 05 86 83 3d 54 a2 09 be
       -0.4521172 0.2590553 0.064220466 -0.1344083
0002f0 49 88 3b bf 14 cb bd be 71 82 7a 3e e9 13 04 3f
       -0.7325483 -0.37069 0.24463822 0.5159288
000300 44 6d 66 bd de c1 84 3f d3 d4 a4 3e b2 0b a0 bb
       -0.056256548 1.0371664 0.32193622 -0.0048842067
000310 bd 7c 6b 3e 41 72 c0 3e 96 c1 eb 3d bf c6 50 bd
       0.22996803 0.3758717 0.11511533 -0.05097079
000320 a3 4c 85 3e 79 ff d1 bd 41 2f e7 3d cb e0 85 3d
       0.26035032 -0.10253806 0.1128831 0.065370165
000330 6c e6 18 3f a3 50 77 3e af e5 e7 3c 63 5c 5c 3f
       0.59726596 0.24151854 0.028307764 0.8607847
000340 48 98 dc 3e 4e e4 d0 3e c3 65 24 3e 1b 41 a4 be
       0.4308493 0.40799183 0.16054444 -0.32080922
000350 db 17 32 3f 50 54 c2 3e a4 24 00 3f 1e fa bb 3e
       0.6956765 0.3795495 0.5005591 0.36714262
000360 07 37 02 3f 1b b9 a4 bb 21 5e 20 3f fc b6 45 3f
       0.50865215 -0.005026949 0.6264363 0.77232337
000370 57 b1 88 bc 4e 78 05 3e f0 58 dc 3e 0b 5c a8 3e
       -0.016686125 0.13034174 0.43036604 0.32882723
000380 ac f8 6b 3e 42 f2 8e 3d 0f 8d 30 be 56 71 03 bd
       0.2304408 0.06979801 -0.1724131 -0.032090507
000390 ea 88 88 be 84 1e 10 3f 06 90 fe 3d f2 2e 44 3f
       -0.26666957 0.56296563 0.12429814 0.7663413
0003a0 71 1a 9e 3d 48 aa 07 3f 57 41 f1 bd 40 fc 35 bf
       0.07719887 0.52994204 -0.11780041 -0.7108803
0003b0 be 41 46 3f 1b 76 56 bd 8b 0d 28 3f 8d ff d8 3e
       0.77444065 -0.052358728 0.65645665 0.4238247
0003c0 e1 86 20 bf 8c 1b 12 3f 76 40 64 bd b3 19 48 3c
       -0.6270581 0.57073283 -0.055725537 0.012213158
0003d0 cf 6b 11 3f e1 f7 05 3f 06 04 22 3f f9 eb 8c bf
       0.5680513 0.5233136 0.6328739 -1.1009513
0003e0 9e 0f fc be 64 8e 50 3f 1d ee 3a 3d ae cb b9 3e
       -0.49230665 0.8146727 0.04563724 0.36288208
0003f0 e1 fb 0f 3d 78 b0 36 3e e7 c9 66 3d 9a d8 58 3f
       0.03515232 0.17840755 0.056344893 0.8470551

fc2.bias f4 [64]
000000 ab fe 96 bd 20 ba 0a bd 4f f3 41 3e 3e a2 6a 3d
       -0.07372793 -0.03386891 0.18940471 0.057283632
000010 42 be e7 3d 48 b5 78 bd 5c 89 1e 3f 82 27 0c 3d
       0.11315586 -0.06071976 0.61928344 0.034217365
000020 06 9f 3c 3f 1f cf d5 bd a5 52 04 be 68 57 05 be
       0.7368015 -0.10439896 -0.12922151 -0.13021624
000030 42 75 21 be 73 e7 ae bd 52 a5 6b 3e a8 3d 93 3f
       -0.15767387 -0.08540239 0.23012283 1.1503191
000040 a1 35 09 3f 91 41 33 bd ef 12 06 be 72 86 1b bd
       0.53597456 -0.0437637 -0.1309316 -0.037970014
000050 bc 93 7c bd 72 d9 00 3f 3d 78 a1 bc 81 40 ee bd
       -0.061664328 0.50331795 -0.019710654 -0.11633397
000060 3e 7a 0f be d4 9e 17 be 74 7c d0 bd 94 4d 80 be
       -0.14011475 -0.14806682 -0.101799875 -0.25059187
000070 4d 9a 00 bd 6d a5 10 be d2 cd 45 3f 6d 4f 44 3f
       -0.031397153 -0.14125605 0.7726718 0.76683694
000080 b9 fa f1 bd 52 4a 16 bc 13 af 09 be 6e f0 0c be
       -0.118154 -0.009172993 -0.13445692 -0.13763592
000090 98 52 75 3c 79 7b ef 3a 21 07 2c be 9a 48 cb 3c
       0.014973305 0.0018271051 -0.16799594 0.024814893
0000a0 aa 1b 11 bd fb bb 97 be 4f 93 b9 3d 21 87 74 3d
       -0.035426773 -0.29635605 0.090613 0.05969918
0000b0 97 e4 f7 bd b9 5b 98 3d 86 dc 6b 3e 11 13 91 3c
       -0.12104147 0.0743937 0.23033342 0.017709287
0000c0 02 e3 03 be 83 eb 2f be 36 e6 8f 3b a5 8b 0f be
       -0.12879565 -0.17179684 0.004391457 -0.14018114
0000d0 9b 3e 11 3e a4 34 2f 3c 4b f7 c3 bc 1d 18 0d be
       0.14184038 0.010693703 -0.02392163 -0.1377873
0000e0 a5 18 98 bd 79 48 a0 3d b8 2d 2f be 66 11 3c bd
       -0.074265756 0.07826323 -0.17107284 -0.04591503
0000f0 2b f3 5f be 01 9b 0f be 52 7d d6 3e 92 80 9b bd
       -0.21870105 -0.14023973 0.41892487 -0.07592882

fc3.weight f4 [4, 64]
000000 d5 25 4d bf 55 97 9d be 63 c0 28 bf 18 5b fe be
       -0.8013585 -0.3077952 -0.6591856 -0.49678874
000010 0b 61 97 be cc 1c 05 bf ae 1b a2 3f 67 17 c6 be
       -0.29566225 -0.51997066 1.2664697 -0.3868973
000020 21 51 b5 3f 4c 0a 1d 3d 3b 9c 1a bf 55 bc 67 bd
       1.4165384 0.038339898 -0.6039464 -0.05657609
000030 f1 70 51 bd 30 1f e9 be 16 c2 b1 3f db eb b0 3f
       -0.0511331 -0.45531607 1.3887355 1.3821977
000040 ab 14 42 40 0d 71 3b bf d7 11 62 bf 60 55 d9 be
       3.0325115 -0.73219377 -0.8830847 -0.42447948
000050 cd d4 d2 be 45 88 72 3f de cc a0 be e3 29 af bb
       -0.4117798 0.9473918 -0.314063 -0.0053455695
000060 a9 42 16 bf d2 d7 e0 3d aa aa c2 3d a3 94 0f bf
       -0.58695465 0.109786645 0.09505208 -0.56086177
000070 31 f8 42 bf b6 39 2e bf 36 fc ef 3f cd b7 a2 3f
       -0.7615996 -0.6805681 1.8748844 1.2712342
000080 f3 31 8a bf 58 f3 1e bf 3c fb 06 bf 6e 41 9b bd
       -1.0796493 -0.62090063 -0.52727103 -0.07580839
000090 63 ca 74 bf 3b d4 02 bf e3 fb 75 ba 5c 6a 28 bf
       -0.9562132 -0.5110509 -0.00093835423 -0.6578729
0000a0 ad ea d4 be 1b e6 e7 be e6 86 78 be ad c1 a8 3e
       -0.41585293 -0.45292744 -0.2427021 0.32960263
0000b0 8c 26 1c 3d 53 d2 f9 bb cc 81 8e 3f 76 4d a7 be
       0.0381227 -0.0076239496 1.1133361 -0.32676286
0000c0 2a 10 0d bf 17 e4 f6 be 42 6d fa be f4 e6 ed be
       -0.5510279 -0.48220894 -0.48911482 -0.46465266
0000d0 da 5c 72 bf c8 78 11 bf f1 ba f8 be 1a 61 50 3d
       -0.9467293 -0.5682492 -0.48580125 0.050873853
0000e0 d9 35 59 bf b1 d6 2e bf d4 ce f0 be d2 06 f1 be
       -0.8484779 -0.68296343 -0.47032797 -0.47075516
0000f0 16 d8 29 bf ca ae de be 04 99 18 40 22 44 fa be
       -0.66345346 -0.43492728 2.3843393 -0.48880106
000100 b0 eb af be 1a 8a 74 bf db f5 12 3f 6c 23 ef be
       -0.34359503 -0.95523226 0.57406396 -0.46706712
000110 25 be d8 be f9 f5 f8 be c5 5e 3c 3f f8 a6 ff be
       -0.4233257 -0.48625162 0.73582107 -0.49932075
000120 75 71 af 3f 87 54 83 bd 5d 76 1d bf fc 9b 35 bd
       1.3706499 -0.06412607 -0.61508733 -0.04433821
000130 3a b3 77 3d 20 75 8d be 60 bb 20 40 ee 6e c8 3f
       0.06047366 -0.27628422 2.5114365 1.5658853
000140 14 e1 49 40 e0 f3 3f bf d9 f8 ec 3e 9d 5a 0a bf
       3.1543627 -0.749815 0.46283606 -0.54044515
000150 8f 13 b7 be 2d 6d 53 3f 71 df 11 bf 93 7c 4c bd
       -0.3575711 0.82588464 -0.5698157 -0.04992349
000160 43 45 02 bf 68 7c 8f 3d 55 0d 57 3d 3a ce b6 be
       -0.50886935 0.070061505 0.05250295 -0.35704213
000170 98 d1 2c bf 0f 8c 02 bf 85 88 c3 3f 42 d8 9c 3f
       -0.67507315 -0.5099496 1.5276037 1.2253497
000180 13 fd 54 bf d1 09 3e bf 24 10 fb be cc 87 ff 3d
       -0.8319866 -0.7423373 -0.49035752 0.12477073
000190 d3 32 9b bf d5 45 31 bf 7c 43 83 3d 21 60 d0 3b
       -1.2124885 -0.6924718 0.06409356 0.0063591157
0001a0 b0 ae 3d bf 1d a6 12 bf a4 4a 7b bf 5c 4e 45 3f
       -0.74094677 -0.5728472 -0.9816077 0.7707269
0001b0 aa 3a 9f bd 93 4f 09 3d b6 21 f4 3f 3d 79 40 bf
       -0.07774861 0.033523154 1.9072788 -0.75184995
0001c0 f5 45 0b bf 01 14 3a bf 63 5e 0f bf 90 f5 f7 be
       -0.5440362 -0.72686774 -0.560034 -0.48429537
0001d0 3c 67 35 bf d9 d9 03 bf c6 9a 07 bf b6 7b bc 3a
       -0.7086065 -0.51504284 -0.5297054 0.001438013
0001e0 bd 6f 0d bf d3 ac 40 be fb 09 c2 be 09 fc 0c bf
       -0.55248624 -0.18815927 -0.3789824 -0.55072075
0001f0 36 30 11 bf c2 ce 45 be 4e 03 34 40 86 1a 08 bf
       -0.5671419 -0.19317153 2.8127017 -0.5316547
000200 64 ea 34 bf 32 d6 0b bf 71 3e 6f bf 21 7e c8 bd
       -0.7067015 -0.5462371 -0.93454653 -0.09789682
000210 99 3f 87 3e be 96 c8 be 1f 68 8d 3f 19 11 20 bf
       0.2641571 -0.39177507 1.10474 -0.6252609
000220 62 d3 ed 3f aa dd 98 3d 3e 5f 19 bf 11 7a f1 3c
       1.8580134 0.07464154 -0.59910953 0.029477151
000230 35 8c 23 3d ce 7f 47 bf 36 32 9d 3f f3 39 c4 3f
       0.039928634 -0.7792939 1.2280948 1.5330185
000240 fc c4 03 3f 60 c3 4c bf 74 3d 56 bf 3b db 15 bf
       0.5147245 -0.7998562 -0.8368752 -0.58537644
000250 61 9c 33 3e c1 63 36 3f 93 49 34 bf 64 bc 84 3c
       0.17540123 0.7124596 -0.70424765 0.016203113
000260 f7 77 ef be 2a 8c de 3d 5d 2b ca bd ba ac 41 bf
       -0.46771213 0.10866578 -0.09871552 -0.75654185
000270 d8 16 b4 be 51 2b a0 be 6e 9c cc 3f 77 7f 6b 3f
       -0.35173678 -0.31283048 1.5985239 0.9199137
000280 d3 75 1f bf 10 13 14 bf 7f b9 cd be 90 32 4f bd
       -0.6228916 -0.5784159 -0.40180585 -0.05058533
000290 4d fd 02 bf 47 9f 0d bf c6 a8 42 3c 60 8f ed be
       -0.51167756 -0.5532116 0.011881059 -0.4639845
0002a0 bd 20 29 bf 83 6d 37 bf 95 15 1a bf 14 13 ce 3f
       -0.6606558 -0.71651477 -0.6018918 1.6099572
0002b0 9f 19 7f 3c c0 fa 4d bb 05 ff 36 be 5a 0b 04 bf
       0.015570073 -0.0031429976 -0.1787072 -0.5157982
0002c0 c2 3e f0 be 48 0f 2c bf 29 51 2c bf 28 db 47 bf
       -0.4692288 -0.6721082 -0.6731134 -0.7806878
0002d0 92 4c 9b bf 26 ec 47 bf 1a ef c4 be 95 3d f8 3c
       -1.2132742 -0.7809471 -0.3846367 0.030302802
0002e0 ed 1f 98 bc 51 af 49 bf af f8 fc be 7e e7 0b be
       -0.01856991 -0.78783137 -0.4940848 -0.13662526
0002f0 17 90 ef be 6e 9d b0 be fb f5 1e 40 04 35 32 bf
       -0.4678962 -0.3449511 2.4837635 -0.69612145
000300 2e 3d e4 be da 51 9f be 05 c7 49 bf 31 82 18 bf
       -0.44577926 -0.31117135 -0.78819305 -0.59573656
000310 d0 be bb be 51 7f 14 bf 37 85 a9 3f fd b1 26 bf
       -0.36669016 -0.5800677 1.3243779 -0.6511534
000320 8a 9c 8e 3f 09 21 1f bd 1f f9 2c bf 80 12 23 bb
       1.1141522 -0.038849864 -0.6756763 -0.0024882853
000330 e0 ae db bd 18 2e 2d bf bd 23 29 40 6d 21 05 40
       -0.10726714 -0.6764846 2.6428063 2.0801651
000340 a1 37 56 40 b1 98 cf be 23 d3 a0 3f 69 e4 18 bf
       3.3471453 -0.40546182 1.2564434 -0.59723526
000350 63 2b ec be 02 a9 f1 3e a5 2c fa be 99 9a 59 ba
       -0.4612685 0.47199255 -0.48862186 -0.000830093
000360 98 20 1b bf 95 fa 81 3d 3e 69 56 bd f3 5a e3 be
       -0.6059661 0.06346623 -0.05234646 -0.44405326
000370 c7 6b 66 bf 02 77 32 bf 4e ba 10 40 e1 7d 27 3f
       -0.90008205 -0.6971284 2.2613711 0.6542645
000380 57 80 35 bf 83 28 e6 be 9e fb 45 bf a4 61 9b bd
       -0.70898956 -0.44952783 -0.7733706 -0.07586983
000390 db 30 db be ed 88 1f bf 0f e4 32 bd 07 fc 43 bf
       -0.4281071 -0.6231831 -0.043674525 -0.7655644
0003a0 df 33 ff be 96 a3 9a be 80 ba bb be 9e b4 46 3f
       -0.49844262 -0.3020293 -0.36665726 0.7761935
0003b0 86 86 d2 3d 81 c7 d9 bd 11 70 86 3f bd c0 fa be
       0.102795646 -0.106337555 1.050295 -0.48975173
0003c0 c9 73 04 bf 0b 98 96 be a2 5c 43 bf 14 e5 de be
       -0.51739174 -0.29412875 -0.7631322 -0.43534148
0003d0 f3 b7 23 bd 9d 67 5b be 1d 54 52 bf 81 0e 7c 3c
       -0.03997035 -0.21426244 -0.82159597 0.015384317
0003e0 6c d5 9d be 5e 26 54 bf a2 ff f0 be 6b 43 0f bf
       -0.3082689 -0.82871044 -0.47070032 -0.55962247
0003f0 49 4a e9 be 79 2c 37 bf 3e a7 01 40 5d c0 04 bf
       -0.45564488 -0.71552235 2.0258327 -0.51856023

fc3.bias f4 [4]
000000 03 ec a4 3e f8 1a 7b bc a9 46 d5 3e e5 21 30 be
       0.32211313 -0.015326254 0.41655472 -0.1720043
